models/particlenet_AK4/1/model.onnx (onnx, 946165 bytes, 42 tensors)

pf_conv.conv.0.running_mean f4 [20]
000000 00 00 00 00 00 00 00 00 00 00 00 00 00 00 00 00
       0.0 0.0 0.0 0.0
000010 00 00 00 00 00 00 00 00 00 00 00 00 00 00 00 00
       0.0 0.0 0.0 0.0
000020 00 00 00 00 00 00 00 00 00 00 00 00 00 00 00 00
       0.0 0.0 0.0 0.0
000030 00 00 00 00 00 00 00 00 00 00 00 00 00 00 00 00
       0.0 0.0 0.0 0.0
000040 00 00 00 00 00 00 00 00 00 00 00 00 00 00 00 00
       0.0 0.0 0.0 0.0

pf_conv.conv.0.running_var f4 [20]
000000 00 00 80 3f 00 00 80 3f 00 00 80 3f 00 00 80 3f
       1.0 1.0 1.0 1.0
000010 00 00 80 3f 00 00 80 3f 00 00 80 3f 00 00 80 3f
       1.0 1.0 1.0 1.0
000020 00 00 80 3f 00 00 80 3f 00 00 80 3f 00 00 80 3f
       1.0 1.0 1.0 1.0
000030 00 00 80 3f 00 00 80 3f 00 00 80 3f 00 00 80 3f
       1.0 1.0 1.0 1.0
000040 00 00 80 3f 00 00 80 3f 00 00 80 3f 00 00 80 3f
       1.0 1.0 1.0 1.0

pf_conv.conv.0.weight f4 [20]
000000 00 00 80 3f 00 00 80 3f 00 00 80 3f 00 00 80 3f
       1.0 1.0 1.0 1.0
000010 00 00 80 3f 00 00 80 3f 00 00 80 3f 00 00 80 3f
       1.0 1.0 1.0 1.0
000020 00 00 80 3f 00 00 80 3f 00 00 80 3f 00 00 80 3f
       1.0 1.0 1.0 1.0
000030 00 00 80 3f 00 00 80 3f 00 00 80 3f 00 00 80 3f
       1.0 1.0 1.0 1.0
000040 00 00 80 3f 00 00 80 3f 00 00 80 3f 00 00 80 3f
       1.0 1.0 1.0 1.0

pf_conv.conv.0.bias f4 [20]
000000 00 00 00 00 00 00 00 00 00 00 00 00 00 00 00 00
       0.0 0.0 0.0 0.0
000010 00 00 00 00 00 00 00 00 00 00 00 00 00 00 00 00
       0.0 0.0 0.0 0.0
000020 00 00 00 00 00 00 00 00 00 00 00 00 00 00 00 00
       0.0 0.0 0.0 0.0
000030 00 00 00 00 00 00 00 00 00 00 00 00 00 00 00 00
       0.0 0.0 0.0 0.0
000040 00 00 00 00 00 00 00 00 00 00 00 00 00 00 00 00
       0.0 0.0 0.0 0.0

sv_conv.conv.0.running_mean f4 [11]
000000 00 00 00 00 00 00 00 00 00 00 00 00 00 00 00 00
       0.0 0.0 0.0 0.0
000010 00 00 00 00 00 00 00 00 00 00 00 00 00 00 00 00
       0.0 0.0 0.0 0.0
000020 00 00 00 00 00 00 00 00 00 00 00 00
       0.0 0.0 0.0

sv_conv.conv.0.running_var f4 [11]
000000 00 00 80 3f 00 00 80 3f 00 00 80 3f 00 00 80 3f
       1.0 1.0 1.0 1.0
000010 00 00 80 3f 00 00 80 3f 00 00 80 3f 00 00 80 3f
       1.0 1.0 1.0 1.0
000020 00 00 80 3f 00 00 80 3f 00 00 80 3f
       1.0 1.0 1.0

sv_conv.conv.0.weight f4 [11]
000000 00 00 80 3f 00 00 80 3f 00 00 80 3f 00 00 80 3f
       1.0 1.0 1.0 1.0
000010 00 00 80 3f 00 00 80 3f 00 00 80 3f 00 00 80 3f
       1.0 1.0 1.0 1.0
000020 00 00 80 3f 00 00 80 3f 00 00 80 3f
       1.0 1.0 1.0

sv_conv.conv.0.bias f4 [11]
000000 00 00 00 00 00 00 00 00 00 00 00 00 00 00 00 00
       0.0 0.0 0.0 0.0
000010 00 00 00 00 00 00 00 00 00 00 00 00 00 00 00 00
       0.0 0.0 0.0 0.0
000020 00 00 00 00 00 00 00 00 00 00 00 00
       0.0 0.0 0.0

pn.fc.0.0.weight f4 [128, 256]
000000 10 9a 3d 3c e0 07 cb bc f0 ee 93 bc 1a 44 22 3d
       0.011572376 -0.024784029 -0.01805827 0.039615728
000010 d0 34 c7 bc c8 7a e7 bc 3a 30 0e 3d 94 24 01 bd
       -0.024317175 -0.028256789 0.03471396 -0.031529024
000020 30 8b 3a 3d 1c 92 09 bd 02 1c 77 bd 6e 50 7b 3d
       0.045542896 -0.033586606 -0.060329445 0.061356
000030 30 02 14 bd f8 d8 3d bd f8 ea 68 bd 6a 2b 3f bd
       -0.0361349 -0.046349496 -0.05686471 -0.046672262
000040 20 9b bf 3c 50 b7 92 3c dc ae 02 bd c0 f5 55 bc
       0.023389399 0.017909676 -0.03190504 -0.01305908
000050 90 4c fc bc 8e 4a 61 bd 2c 40 56 bd 3a a2 20 bd
       -0.030798227 -0.05500274 -0.052307293 -0.03921721
000060 84 cf a7 bc 3c 32 0d bd a0 5c 8c 3c 30 05 d8 3c
       -0.020484693 -0.034471735 0.01713401 0.026369661
000070 40 fc 5a 3c f8 04 33 bd e0 52 a3 bc a0 b7 39 bc
       0.013365805 -0.04370591 -0.019936979 -0.0113352835
000080 80 a1 3d 3c ac c8 7e 3d cc 65 d6 3c 64 81 8d bc
       0.011574149 0.062203094 0.026171587 -0.017273612
000090 80 39 d3 3b 1c 23 c5 3c f0 a7 a2 3c 80 79 f8 3c
       0.0064460635 0.024064593 0.01985547 0.030331373
0000a0 7e f5 7d bd a0 9d 56 3d be 26 2b bd e0 89 29 bb
       -0.062001698 0.052396417 -0.041784994 -0.0025869533
0000b0 b6 8a 15 3d 36 92 2c 3d 30 dc 7e 3d f0 67 fb 3b
       0.03650924 0.042131625 0.062221706 0.0076723024
0000c0 00 8e 3f 3a c0 de dd bb 12 73 04 3d 36 3d 0a bd
       0.00073072314 -0.0067709386 0.032336302 -0.03374978
0000d0 b8 7f 20 3c 28 16 6a 3d 74 e9 7a 3d 98 6b 2e bc
       0.0097960755 0.057150036 0.061257794 -0.01064577
0000e0 bc 48 97 bc 48 0f 7e bc 50 13 c6 bb 88 25 39 bc
       -0.0184673 -0.015506573 -0.0060447827 -0.011300452
0000f0 fc 85 2b 3d a6 36 4f bd 58 3c 96 bc a8 c9 47 bc
       0.041875824 -0.050589226 -0.018339321 -0.012194075
000100 46 ad 2e bd 40 90 0c 3c 24 b3 aa 3c 70 01 b6 bc
       -0.042645715 0.008579314 0.020837374 -0.022217482
000110 40 50 d8 3b 40 fe 55 3d 82 69 78 3d 26 ff 4f bd
       0.0066013634 0.052244425 0.060647495 -0.050780438
000120 a4 b3 5e 3d 20 8f 97 bb 24 80 49 3d 40 84 96 3a
       0.054370537 -0.004625216 0.04919447 0.0011483505
000130 50 73 0d bc c0 2f ea 3b 46 8a 20 bd 90 a0 2e 3d
       -0.00863345 0.0071468055 -0.039194368 0.042633593
000140 04 9e c6 bc da 6d 2f 3d c0 fc 66 3c f8 f6 f5 3c
       -0.02424527 0.042829372 0.014098346 0.03002499
000150 e0 44 43 bb 6c 61 51 3d c2 3d 21 3d 88 9b 02 bd
       -0.0029795691 0.0511183 0.039365537 -0.031886607
000160 48 6a 4b 3c 28 1e 67 3c 56 38 30 3d 64 cc 3d bd
       0.012415476 0.014106311 0.043022476 -0.0463375
000170 fa 64 75 3d 80 ed 0c 3c 3e c6 31 3d a6 7a 2e bd
       0.059910752 0.008601546 0.04340195 -0.042597435
000180 c8 d2 3b 3c 58 80 2a bd 72 58 30 3d 80 4e 49 bb
       0.011463828 -0.041626304 0.043053098 -0.0030716956
000190 e0 07 38 bd 08 da 77 3c 94 44 c1 bc 04 a7 c6 3c
       -0.044929385 0.015127666 -0.02359227 0.024249561
0001a0 ec 2b 75 3d 9e a7 3b 3d 48 50 61 bd 6e a3 2d bd
       0.05985634 0.04581415 -0.055008203 -0.042392187
0001b0 6a 54 28 bd f6 6a 7e bd 40 d6 66 bd 24 62 2f 3d
       -0.04109613 -0.062113725 -0.05635667 0.042818204
0001c0 88 d5 f1 bc d8 d4 77 bc 38 be b3 bc 92 9d 4c 3d
       -0.029520765 -0.0151264295 -0.02194129 0.04995496
0001d0 58 7c 2b 3c 08 99 b7 3c 00 dd 80 3c 7c 06 cc bc
       0.010466658 0.022411838 0.015730381 -0.024905436
0001e0 70 7b 30 bc d6 e4 61 bd 68 65 77 bd 78 53 2c bd
       -0.010771617 -0.055149876 -0.060399443 -0.04207179
0001f0 d6 d2 56 3d 00 2d a1 bc 3c 45 81 3c bc ae 46 bd
       0.052447163 -0.019674778 0.015780084 -0.048506483
000200 c0 71 f0 ba 60 ec 1e bc e8 bb 22 bd 80 eb 0a 3a
       -0.0018344447 -0.009699911 -0.039729983 0.00052993745
000210 c0 66 b2 ba 2a 47 60 3d 04 82 ae 3c 78 65 0a 3c
       -0.0013610944 0.054755367 0.02130223 0.008447044
000220 20 f5 a3 bc 08 01 97 bc 7a 63 76 3d d0 dc ce bb
       -0.020014346 -0.018433109 0.060153462 -0.006312944
000230 5e a5 2d bd e4 47 d3 bc cc f4 5b 3d c4 a1 4f 3d
       -0.042394035 -0.025791116 0.053700253 0.05069138
000240 98 c8 c0 3c 0c 2f 61 3d 30 5a ea 3c 30 bd 47 3c
       0.02353315 0.054976508 0.028607458 0.012191102
000250 f4 68 e7 3c 90 04 d9 bc 70 52 93 3b 60 fe 5d bb
       0.028248288 -0.026491433 0.0044959113 -0.0033873543
000260 f0 31 b8 3c c0 f8 c2 ba 72 bc 28 3d b8 24 f8 bc
       0.02248475 -0.0014875159 0.04119534 -0.030290946
000270 80 13 75 bd 4a 3f 79 bd 76 5d 13 3d 30 da ce 3c
       -0.05983305 -0.060851373 0.035977803 0.025250524
000280 62 51 1e bd de 16 17 bd 5c 52 c9 3c da fe 5b 3d
       -0.03865183 -0.036887042 0.024575405 0.053709842
000290 a2 44 5f 3d e6 d5 50 bd 90 d2 be bc 4c f5 42 bd
       0.054508813 -0.05098524 -0.023293763 -0.047597215
0002a0 88 2d 55 bd 00 f9 52 3c 0c 35 1d 3d aa ea 54 bd
       -0.052045375 0.012876749 0.038380668 -0.051981606
0002b0 c8 44 0d bc 30 7b d6 3b bc c1 1f 3d dc cd b1 3c
       -0.008622356 0.006545447 0.03900312 0.021704607
0002c0 50 42 d7 bc 86 5e 3b bd a4 25 69 3d 02 99 38 3d
       -0.026276737 -0.04574444 0.056920663 0.045067795
0002d0 5c 5f d9 3c e4 17 8d bc 80 81 60 bc 3e 6b 0f 3d
       0.026534729 -0.017223306 -0.01370275 0.035014383
0002e0 b6 f6 4b bd 48 7e f8 3c 78 e5 c5 bc e6 06 38 bd
       -0.04979583 0.030333653 -0.02415727 -0.044928454
0002f0 c0 ca 9c 3a 80 f4 43 ba 6a 62 33 3d 5e ca 5b 3d
       0.001196228 -0.0007475093 0.043795027 0.05365979
000300 90 3a 8a 3b 18 5f 98 3c 8a 1b 7e bd a0 8d 1e bd
       0.004218407 0.018600032 -0.062037982 -0.038709283
000310 04 a2 15 bd 2c 79 e0 bc 38 9f 98 bc 80 92 11 3a
       -0.036531463 -0.02740153 -0.018630609 0.0005553141
000320 24 f1 1f bd b8 db 49 bd 46 ba 02 3d 60 29 05 bb
       -0.03904833 -0.049281806 0.031915925 -0.002031885
000330 3c e6 83 bc 56 b6 4b bd f0 d0 38 bc 1c 48 7c bd
       -0.016100995 -0.049734436 -0.011280283 -0.061592206
000340 b8 59 0a bc 06 ff 6c 3d 4e 0b 6e 3d 40 12 44 bb
       -0.008444242 0.057860397 0.05811625 -0.0029918104
000350 ca 6e 15 3d d8 5e 63 3c 3a 6d 42 bd 5c e6 c7 bc
       0.03648261 0.013877593 -0.047467448 -0.024401836
000360 4c 0c 28 3d 78 ea f4 3c 48 80 94 bc 7c 75 77 bd
       0.041027352 0.02989696 -0.018127576 -0.060414776
000370 00 57 91 3b 98 8a 91 3c 58 8c b3 bc 90 2b f2 bc
       0.00443542 0.017766282 -0.021917507 -0.029561788
000380 c0 97 13 3c b8 54 b9 bc 12 05 0d bd 88 7b 50 3c
       0.009008348 -0.022623405 -0.034428664 0.012724765
000390 58 24 b0 3c 20 58 3a 3d a0 f6 13 bd ec 76 65 3d
       0.021501705 0.0454942 -0.03612387 0.056021616
0003a0 18 f5 f9 bc ae ec 4b 3d 64 c4 15 3d d8 36 33 bc
       -0.030512378 0.049786262 0.036564246 -0.010938369
0003b0 f0 94 34 3c 08 20 47 3d f8 f3 d1 3c 66 fb 54 3d
       0.011021838 0.04861453 0.025629029 0.051997565
0003c0 a8 89 6a bd c0 1c 85 3a b4 86 7e 3d 54 79 d1 3c
       -0.057260185 0.0010155663 0.06214018 0.02557055
0003d0 70 e9 60 3c d2 85 75 3d d8 32 5b bc 26 93 6c 3d
       0.013727531 0.059942074 -0.013378821 0.05775752
0003e0 94 ee 07 bd e6 be 18 bd d0 48 dd bb 56 77 71 bd
       -0.03318651 -0.03729143 -0.0067530647 -0.0589517
0003f0 dc 7e 96 bc 00 02 f2 bb d0 8c 7d bc c8 4a 4a 3d
       -0.018371038 -0.0073854923 -0.015475467 0.049387723

pn.fc.0.0.bias f4 [128]
000000 00 44 b9 b9 38 3a 05 3c 0e 1f 04 3d 54 3b 03 bd
       -0.00035336614 0.008131556 0.03225618 -0.032039
000010 f8 27 69 3c 28 eb 65 bd 30 72 9b bc ec 8c 4c 3d
       0.014230721 -0.056132466 -0.018975347 0.04993908
000020 5e 90 3c 3d 20 bd 86 bc 06 06 42 3d 60 c0 c6 bb
       0.046036117 -0.016447604 0.047369026 -0.0060654134
000030 40 4d ec ba a0 60 8a bb 84 38 12 3d e8 86 05 3d
       -0.0018028393 -0.0042229444 0.03569843 0.03259936
000040 18 5b 28 3c 98 c8 4c 3c 4c da 71 bd 22 5d 35 3d
       0.010275625 0.012498997 -0.059046075 0.04427827
000050 40 55 98 3a 90 4e b4 3c d2 24 02 3d bc 6e 55 bd
       0.0011622086 0.022010118 0.031773396 -0.052107558
000060 a0 78 49 bb a2 e6 4f bd 42 13 34 3d 62 59 7c bd
       -0.0030742064 -0.050757058 0.04396368 -0.06160868
000070 82 0c 69 bd 80 72 77 ba b0 31 37 bd 28 29 32 bd
       -0.056896694 -0.0009439364 -0.04472512 -0.04349628
000080 48 34 05 bc 28 94 23 bc c2 e3 33 3d 38 33 63 3d
       -0.008130141 -0.009984054 0.04391838 0.055468768
000090 28 e5 b2 bc 58 36 2e bd 10 89 9d 3c 58 4d 51 bd
       -0.021837786 -0.042532295 0.019230396 -0.05109915
0000a0 30 6b d5 bb f4 f4 90 3c fc 45 62 3d 74 07 91 3c
       -0.006513022 0.017694928 0.055242524 0.01770375
0000b0 9c 46 62 3d 90 e0 19 3d 68 de f4 3c ac fa e0 3c
       0.05524312 0.037567675 0.029891208 0.02746328
0000c0 a0 ee 4f bd e4 ce e8 3c 24 86 1a 3d 94 e9 5d bd
       -0.05076468 0.028418966 0.037725583 -0.054177836
0000d0 84 67 3c 3d 64 35 e3 3c 5c 90 f9 3c 20 9c 6b bb
       0.045997158 0.02773542 0.030464344 -0.0035951212
0000e0 82 aa 6d 3d 34 6f 38 3d 00 a9 7d 3c d8 07 54 3c
       0.058023937 0.045027927 0.015482187 0.012941323
0000f0 92 73 00 bd 6e 50 7b 3d 48 42 4e bd a0 73 87 bc
       -0.031360216 0.061356 -0.05035618 -0.016534626
000100 b4 d0 4c bd d6 a3 2a 3d 70 ad 1d bc 30 21 47 3c
       -0.050003722 0.041660152 -0.00962387 0.012153909
000110 10 42 62 3c 0c d7 04 3d 74 b9 15 3d 1c d0 35 bd
       0.013809696 0.032431647 0.036553815 -0.04438792
000120 a0 65 63 3d a8 41 ca 3c ce e9 15 3d ae 9a 5e 3d
       0.05551684 0.02468951 0.036599927 0.054346733
000130 e0 8f b6 bc ac b2 33 bd 98 da 1c bd 80 5f a2 ba
       -0.022285402 -0.043871567 -0.038294405 -0.001238808
000140 00 3a 7d bc 5c b6 fe 3c b4 d0 82 3c e0 08 46 bb
       -0.015455723 0.031092815 0.015968658 -0.0030217692
000150 c4 fa 43 bd f8 0d 62 bd e0 f1 c2 3c d6 d5 4c 3d
       -0.04784657 -0.055189103 0.023796976 0.050008617
000160 10 79 c3 bc 6c 10 75 bd 8a ea 17 3d 7e 01 6b bd
       -0.023861438 -0.059830114 0.03708891 -0.05737447
000170 dc d4 0a 3d 40 41 0c bd 72 ca 27 bd 38 b6 f3 bc
       0.033894405 -0.034241915 -0.04096455 -0.029749975
000180 ae a9 27 bd 38 c4 01 3c c4 88 98 bc e4 a3 24 bd
       -0.040933304 0.007920317 -0.018619902 -0.04019536
000190 24 29 43 3d 64 b6 fc bc ac 17 f6 3c 10 2e bd 3c
       0.047646657 -0.03084869 0.030040585 0.023093253
0001a0 62 69 62 bd 98 3d 0c 3d e0 93 44 bc 98 d1 19 bd
       -0.055276282 0.034238428 -0.011998147 -0.0375534
0001b0 aa 31 03 bd 68 1f dd 3c 40 a2 2d bb d0 ba 39 bd
       -0.032029785 0.026992515 -0.0026494414 -0.045344174
0001c0 50 c3 67 bd 22 85 7e 3d 02 dd 0c bd 82 5c 4a bd
       -0.05658275 0.062138684 -0.034390457 -0.04940463
0001d0 10 94 a0 3b 28 94 e9 bc 52 b9 70 3d 64 ff d0 3c
       0.004900463 -0.02851303 0.058770485 0.025512405
0001e0 64 26 80 bc ec 09 b1 bc e0 2d cd bb 54 60 32 3d
       -0.015643306 -0.021611176 -0.0062615722 0.043548897
0001f0 26 4c 0f bd 00 50 42 39 90 5f 11 bd 88 c9 99 3c
       -0.03498473 0.00018531084 -0.035491526 0.018772855

pn.fc.1.weight f4 [8, 128]
000000 4f e2 aa bc cc af 84 3c 3c 7c 47 bd 53 e0 b2 bd
       -0.020859865 0.016197108 -0.048702464 -0.08734193
000010 52 68 13 3d 8e 56 37 bd 5a 23 4b bd 44 4c 98 3d
       0.03598816 -0.04476028 -0.04959426 0.074364215
000020 90 85 ab 3d e8 a2 2b bb 83 a6 8f 3d b9 49 73 bd
       0.083750844 -0.002618963 0.070141815 -0.05939648
000030 a6 92 99 bc aa b7 71 3d d3 e9 5e 3d c7 72 da 3b
       -0.018746685 0.059013046 0.05442221 0.0066665146
000040 52 1f 42 3d 10 d7 94 bd 19 2c ae 3d 43 ba 4f 3d
       0.04739315 -0.072675824 0.08504505 0.050714742
000050 22 d0 70 bd f2 d0 dc ba 42 6d 18 bd 1c 4b 82 bd
       -0.05879224 -0.0016846939 -0.03721357 -0.06361982
000060 ca 55 b1 bd b6 eb 96 3d 0d a5 87 3d cd b0 ce 3b
       -0.08658941 0.07369177 0.06623278 0.0063076974
000070 47 02 8f 3c e6 84 ea 3b b4 56 b2 3a d4 3d ce bc
       0.01745714 0.007156956 0.0013606162 -0.025175966
000080 bd a9 1a ba 18 87 45 bd c3 e3 01 3d ae 13 43 bd
       -0.0005899927 -0.04822454 0.03171135 -0.04762619
000090 59 36 3b 3d d6 16 85 bc a9 85 b3 3d b6 cd a2 3c
       0.045706127 -0.01624624 0.08765728 0.019873481
0000a0 69 ab 7c bd d1 fd 01 3c 1a d5 64 bd 96 bb 6b 3d
       -0.061686907 0.00793405 -0.055867292 0.057551943
0000b0 f0 53 69 bd 3b 61 1d bd 00 79 ae bd 19 60 a9 bc
       -0.056964815 -0.038422804 -0.08519173 -0.020675706
0000c0 61 b8 94 bd 40 77 06 bd b6 20 40 3c 34 35 23 bd
       -0.0726173 -0.03282857 0.011726549 -0.03984566
0000d0 4b 7b fe bc 30 98 8a 3c b2 e2 8d 3d da 50 5f bd
       -0.03106465 0.016918272 0.06928004 -0.054520465
0000e0 18 6f 61 3d c9 69 f3 bc a6 8d 8d bd dd 85 9f bd
       0.055037588 -0.029713528 -0.06911783 -0.07789204
0000f0 74 62 31 3d 47 7d 9c bd 25 e9 9a bd 55 0e a8 3d
       0.043306783 -0.07641082 -0.07564 0.082058586
000100 e0 d9 05 bd 81 06 a4 3d bc 84 18 bd d4 9d 5b bd
       -0.032678485 0.08009053 -0.03723596 -0.053617314
000110 93 e7 14 3d ce 17 16 bd f2 f7 6f 3d ea 6e c0 bc
       0.03635366 -0.036643796 0.05858607 -0.023490388
000120 17 34 27 bd 22 b8 db bb e8 c9 4b bd e8 c6 a6 3c
       -0.04082116 -0.0067053 -0.0497531 0.020358518
000130 2f 8a f2 3c 69 b6 37 3d 82 9f 9e bc b6 76 08 bd
       0.029606907 0.044851694 -0.019363169 -0.033316337
000140 c6 ec 08 3d 58 50 b5 bc 4f 60 03 3d af 6c 59 bd
       0.03342893 -0.022133037 0.03207427 -0.053082164
000150 25 99 a2 bc 33 4c 1e 3d c9 e7 a0 3d 5c 01 93 3d
       -0.019848416 0.038646888 0.078567095 0.07177994
000160 09 3f a0 bd 46 df e2 3c fe aa 06 bd 7b 47 66 3d
       -0.07824523 0.027694356 -0.032877915 0.056220513
000170 0d 9d e2 3c 47 13 53 bd 81 e6 9d bd 5d 4e 6a bd
       0.027662778 -0.051532056 -0.07709981 -0.05720364
000180 d8 8a a9 3d e4 4b 7f 3d 56 dc 8a 3d 28 24 e2 3b
       0.082784355 0.062328234 0.06780307 0.006901283
000190 6b cf ab bd 44 1e d4 ba 72 92 09 bd 7c f5 6e 3d
       -0.08389171 -0.0016183336 -0.033586927 0.05833958
0001a0 ed 3b 35 3d 05 fe d8 bc 30 ac a5 3d 4a 49 56 bd
       0.044246603 -0.026488313 0.08089483 -0.052315988
0001b0 a8 c4 54 bd 19 bc 01 ba 82 39 8f 3d 71 5a db bc
       -0.05194536 -0.0004948988 0.069933906 -0.026776524
0001c0 4b 57 1c bd 97 99 19 3c 01 be 28 3d c1 9e d1 bc
       -0.038169187 0.009374998 0.041196827 -0.025588395
0001d0 ae 5a 90 3c 4b 63 39 3d bc ab 42 3d 60 fb 9d 3d
       0.017621364 0.04526071 0.04752706 0.077139616
0001e0 0b ac 79 bc bf 4b 5b 3d ad 61 ac 3d 63 17 81 bc
       -0.015238772 0.053539034 0.08417068 -0.015758222
0001f0 e8 8d 39 bd 80 78 08 3d 92 2c 02 3c 2d 1f 95 bd
       -0.045301348 0.033318043 0.007945197 -0.07281337
000200 78 13 c1 bb 12 76 1d bd bd 1a bd 3c 0c 90 4f bd
       -0.0058922134 -0.03844268 0.023084039 -0.050674483
000210 ba b4 3e bd b1 87 9b 3d bc 5c ac bd e7 4c 45 3c
       -0.046559073 0.075942405 -0.08416125 0.012042261
000220 8f af 9c 3c f8 b4 1d 3c 98 9d 18 3c 4f c1 41 3d
       0.019126682 0.009625666 0.009314917 0.047303494
000230 eb f9 a4 3d b8 2f 1e 3d 3d f0 c2 bb fa 04 75 bd
       0.080554806 0.038619727 -0.005949049 -0.0598192
000240 18 54 ab 3d 36 09 62 3d af 3a 73 3d b0 93 2a 3c
       0.08365649 0.055184565 0.059382137 0.010411188
000250 57 7f b0 3d 8a 13 d1 3c ce 58 7d 3d 2f 4c 8a 3d
       0.08618038 0.025522012 0.06185227 0.06752812
000260 40 af 05 3d 14 de 93 bd d6 99 e4 3c ac 4f 96 3d
       0.032637835 -0.072200924 0.027905386 0.07339415
000270 eb 99 a7 3d d3 e5 21 3c 2c 4b 98 bc 41 23 6e 3d
       0.081836544 0.0098814545 -0.018590532 0.05813909
000280 76 ab 83 bd 13 e1 73 3d a1 6d 3c 3c 0e e1 2d bd
       -0.06429188 0.05954082 0.011500747 -0.042450957
000290 b6 99 83 bd 33 4a b2 3d 3a f6 07 3d 54 37 9c bc
       -0.064258024 0.08705559 0.033193804 -0.019069351
0002a0 60 72 48 bd d3 7d 04 3d 89 a8 92 3d b1 44 99 3c
       -0.0489372 0.032346558 0.07161052 0.018709512
0002b0 68 2c 97 3d 4d 0e 69 3d 6e 0c 20 3d 25 d7 8e bd
       0.07381517 0.056898404 0.039074354 -0.06974629
0002c0 77 4e 8b 3c 00 8e c9 3c e4 1a 83 3c a8 65 5b 3d
       0.017005188 0.024603844 0.016004033 0.053563744
0002d0 f5 00 81 3c 0d 5a a3 3c 96 5d 73 3b fa 6a 91 3d
       0.015747527 0.0199404 0.003713464 0.07100482
0002e0 4e 2e 63 bd 89 1a 14 3b b0 92 23 bd 7e 00 21 bd
       -0.05546408 0.0022598824 -0.039934814 -0.03930711
0002f0 29 67 95 3c c1 6d 40 bd c6 cb 1d 3b fc af 56 bd
       0.018237667 -0.04697967 0.0024077757 -0.052413926
000300 be 0f 66 bd b0 63 90 3d 56 a9 ab bd f0 06 c6 bc
       -0.056167357 0.07050264 -0.08381908 -0.02417323
000310 68 b0 51 bd ea 0b b4 3d 24 9a 04 bd b4 de 31 3d
       -0.051193625 0.08791335 -0.032373562 0.043425277
000320 c9 b3 9a bd 37 b8 19 3c 69 fb 5d bd d9 e2 7f bd
       -0.075538225 0.009382299 -0.05419484 -0.0624722
000330 77 22 dc bc 47 3f 78 bd 29 bf 4c 3d fd 49 0e bd
       -0.026871903 -0.06060722 0.049986992 -0.03473853
000340 f9 93 8f 3d 56 83 84 3d e6 ed 52 3d 7a fb a2 3c
       0.070106454 0.06470363 0.05149641 0.019895304
000350 fd 4e aa bc f3 56 fd 3c 13 6e af bc da 0c 85 3d
       -0.020789618 0.03092525 -0.021414792 0.06496592
000360 cd 3f e6 bb 80 55 10 bd 5d 18 13 3d ad 44 9b bd
       -0.0070266486 -0.03523779 0.035911907 -0.07581458
000370 f8 a7 a0 3d 7d 72 6b 3a fb a7 37 3d bd a3 5b 3d
       0.078445375 0.00089815987 0.044837933 0.05362295
000380 35 46 06 3d 76 f9 21 bd ed f8 82 3c 88 3a 91 3d
       0.0327818 -0.039544545 0.015987838 0.07091242
000390 a7 08 e1 bc 90 29 20 3d 1f 1d d7 3b 1f e2 3d bd
       -0.027469946 0.039102137 0.006564751 -0.046358224
0003a0 5c db a8 3c be 47 ac 3d 96 b4 ab 3d 5d 26 9b 3b
       0.020612411 0.08412121 0.083840534 0.004734798
0003b0 cc 4a 5d bd 0f d9 b3 3d d5 2c 87 3b 23 ae e5 bb
       -0.05402641 0.08781635 0.0041252174 -0.007009284
0003c0 99 66 35 3d e8 1e ed 3c 42 a1 b2 3c f5 26 59 3d
       0.044287298 0.028945401 0.02180541 0.053015668
0003d0 ef 7e 55 3c fb 82 88 bd 97 83 86 bc 32 63 f8 bc
       0.013030752 -0.066656075 -0.016420169 -0.030320738
0003e0 ef 39 5e 3d a1 1b 7d bd c7 88 80 3d 4c 7f 55 3d
       0.05425447 -0.061793927 0.06276088 0.052123353
0003f0 b6 f8 7f bd 91 36 44 bc 82 2e b3 3d a7 26 8a b8
       -0.06249305 -0.0119759 0.08749105 -6.587552e-05

pn.fc.1.bias f4 [8]
000000 ae 93 86 bc ee 55 8d 3d e6 6b ae 3d dd 56 f0 3b
       -0.016427841 0.069011554 0.08516674 0.0073345737
000010 56 39 a2 3d 0e 03 32 3d 71 6d e4 3c a8 de 8d 3d
       0.07921092 0.043459944 0.027884217 0.06927234

onnx::Conv_404 f4 [32, 20, 1]
000000 6c 97 49 be 16 2a 15 3e 9f 63 bb bd 8b 22 15 3d
       -0.19686669 0.14566836 -0.091498606 0.036409896
000010 69 6a 20 bd 92 58 aa bd 62 fb 09 bd db f4 10 3e
       -0.03916398 -0.08317675 -0.033687003 0.14155905
000020 8f 88 ba bd fd af 4a be 9c d0 ab 3d 1d c6 26 3e
       -0.09108078 -0.19793697 0.083893985 0.16286512
000030 15 ce 7d 3d b9 db 2a 3e bf e4 ca 3d cd 89 54 be
       0.061964113 0.1668538 0.09906911 -0.20755692
000040 2d b9 cf bc b4 74 0f 3e 9c 67 28 3e 28 11 3e 3e
       -0.025356853 0.14009362 0.16445774 0.18561232
000050 a7 68 ee bd fd 4f f1 bc a1 fc aa 3d c3 16 90 bd
       -0.116410546 -0.029457087 0.083489664 -0.070355915
000060 96 ce 14 be 2f f4 08 3e 40 33 b7 3d 68 25 11 3e
       -0.14531931 0.13374399 0.08945322 0.14174426
000070 7d 12 93 bd 7b 33 37 3e 49 82 db 3d c3 63 4c 3e
       -0.07181261 0.17890732 0.10718209 0.19959931
000080 37 8e 14 be 10 eb 8f 3d eb 40 b5 bd 42 1d f6 3d
       -0.14507376 0.070272565 -0.08850273 0.12017299
000090 c4 e8 1a be 24 77 fe bd 35 fe 14 3b 5a c1 4a 3e
       -0.15127856 -0.12425068 0.0022734527 0.1980032
0000a0 d2 f2 df bc b8 19 81 bd 44 f3 91 bd 72 91 5e 3e
       -0.027337465 -0.063037336 -0.07126477 0.2173517
0000b0 a3 1f 97 3c c8 f8 c1 3b fa 52 6e 3d 0a 63 2c 3c
       0.018447703 0.0059195496 0.0581846 0.01052166
0000c0 2b 21 84 bd 63 53 ac bd 5e 24 8b bd fa 49 72 3d
       -0.06451639 -0.08414342 -0.06794046 0.05915258
0000d0 52 51 98 bd 07 61 e3 ba 6f f5 9c 3c ff 18 dc 3d
       -0.074373856 -0.0017347642 0.01916 0.10746955
0000e0 8a 84 e3 3d 3c ac 1e bd 25 b4 85 bd 16 60 eb 3c
       0.11109264 -0.038738474 -0.065285005 0.02873234
0000f0 c1 52 bb bd de 8a d8 3d 65 49 4d 3e ca ed b0 3c
       -0.091466434 0.10573362 0.20047529 0.021597762
000100 d0 a4 31 be 84 97 8f 3d 88 dc 5a be 8e 8d 56 be
       -0.17348027 0.07011321 -0.21373188 -0.20952436
000110 eb ff 10 3e 83 1d 23 3e 1b d0 4b 3e 02 8d 92 bc
       0.14160125 0.15929227 0.19903605 -0.017889503
000120 2b d9 bb bd d7 92 6c bd 82 b4 0d be 2f 57 d5 3c
       -0.09172281 -0.057757225 -0.1383839 0.026042549
000130 1e 9d 87 bd ba 0b 43 3e 74 34 ee bd 49 03 37 be
       -0.066217646 0.19047442 -0.116310984 -0.17872347
000140 2b 80 99 bd 10 e4 41 3e f3 68 60 3e 5c 45 2c 3e
       -0.07495149 0.18934655 0.21915035 0.16823334
000150 0a 0c 40 3d 80 66 a6 3d a5 da 24 be 4e 09 98 bc
       0.04688648 0.08125019 -0.16099031 -0.018559124
000160 02 46 27 be 32 c8 b5 bc cf 4c 16 bd 5b 16 c0 bc
       -0.163353 -0.022190187 -0.036694344 -0.02344816
000170 b2 e7 19 be bb 11 e0 bd c9 1c 28 3e 64 b0 a2 bd
       -0.15029791 -0.10940882 0.1641723 -0.079438
000180 03 52 52 bc 33 e3 e8 bd a2 68 c7 3d 5b d7 dc 3d
       -0.012836936 -0.1137146 0.09736754 0.10783263
000190 58 a3 7c bd d1 af d7 bd 9f c7 c6 bd 5e 0b 0e bd
       -0.061679214 -0.10531581 -0.097060435 -0.03467881
0001a0 31 9a e7 bd db 04 bb bd e9 fa 07 be 9f 7a 5a be
       -0.113087066 -0.091317855 -0.13279308 -0.21335839
0001b0 c7 1a 39 3e 18 f3 f5 3d 19 dc 84 bd 18 14 7d 3d
       0.18076621 0.12009257 -0.06487293 0.06178674
0001c0 9e 38 43 be dd f6 d2 3d eb dd 1f 3e 6e e8 d8 bd
       -0.19064566 0.10300992 0.15611999 -0.105912074
0001d0 4b f3 5c 3d 6e 72 b8 bd 8e 6e 1d 3e 01 f1 2f bd
       0.05394296 -0.09006201 0.15374205 -0.04295445
0001e0 d6 18 42 be 22 4c 10 3d 2d 97 b7 bc 27 49 57 3e
       -0.18954787 0.035228856 -0.022410953 0.21023999
0001f0 8f 0f 37 3d 03 e2 e5 bd dd 76 68 bb 9b ec 48 be
       0.044692572 -0.11224749 -0.0035471239 -0.19621508
000200 63 47 47 3d e9 3e f6 3d 86 e3 ef 3d 35 ec f6 3b
       0.048652064 0.12023718 0.117133185 0.0075354823
000210 3c 83 3e 3e ab dc fe 3d dd 32 2e 3e 5d 84 4d 3e
       0.1860475 0.12444433 0.1701159 0.20070024
000220 43 6f 08 3e 60 ef 22 3d 9d 14 e5 bc 71 92 18 be
       0.13323693 0.039779067 -0.02796393 -0.14899613
000230 a6 fe 16 3e 87 00 61 be fe 37 1b 3e 57 50 f6 bd
       0.14745578 -0.21972857 0.15158078 -0.12027042
000240 b0 30 ab 3d d7 08 0e be ff f8 32 3d d1 bf eb bd
       0.08358896 -0.1387056 0.043694492 -0.115111955
000250 b1 98 fb 3d d1 cd 62 3d 78 e1 88 3c 73 3a 24 3e
       0.12284983 0.055372063 0.016709074 0.16037922
000260 4b 57 2c 3e 47 77 ff bd bc 2d 4c 3e 46 1d 61 3d
       0.16830175 -0.12473922 0.19939321 0.054959558
000270 11 9a d0 3c 12 c7 f3 3d 4a 0d 40 be d7 55 d1 3c
       0.02546409 0.11903204 -0.1875507 0.025553627
000280 13 ba c1 bd 75 e2 95 3c 63 e6 63 3e ee c5 2f bd
       -0.09459319 0.01829646 0.22255854 -0.04291337
000290 42 b7 35 be f8 6f 95 bd 01 9b 0f 3e a9 db c3 3c
       -0.17745689 -0.07296747 0.14023973 0.023908453
0002a0 1c 10 aa bd 0e d0 36 be b4 6e b9 bd 77 14 d5 3d
       -0.08303854 -0.17852804 -0.09054318 0.10404294
0002b0 4f 1e c4 bd 9c 39 59 be 0b ea 81 bc 42 cf 3c be
       -0.095760934 -0.21213382 -0.01585867 -0.18438438
0002c0 15 a5 50 be 06 45 2e bd 13 13 15 3e 4d e1 b7 3d
       -0.20375474 -0.042546295 0.14558057 0.089785196
0002d0 9b c8 1c bd c8 7d 50 3c 77 ed 34 3e 08 49 50 be
       -0.03827725 0.012725301 0.1766871 -0.20340359
0002e0 7e b2 56 3e b3 f8 74 3d 8b e5 39 3e 82 27 98 3d
       0.20966527 0.05980749 0.1815397 0.074294105
0002f0 82 01 49 3d 6c f4 d9 bd 96 dc 3d 3e 53 b0 94 bd
       0.049073704 -0.10642323 0.18541178 -0.07260194
000300 52 7b 37 3e 74 e6 18 be 95 30 83 bd 09 c2 28 3e
       0.17918137 -0.14931661 -0.06405751 0.16480269
000310 0d b9 d2 3d 6b 3b a8 3d 20 c4 ac bd 4c bd 34 3d
       0.10289202 0.08214458 -0.084358454 0.04412584
000320 4f 04 d2 3c 56 0b 83 3b a2 c5 76 3d 34 9c b4 bd
       0.02563682 0.003999154 0.06024707 -0.08818856
000330 4c a8 3a be 93 3a 83 3d 46 96 60 3d 4f 6f a7 bd
       -0.18228263 0.064076565 0.054830812 -0.08175527
000340 44 9d 1b 3e 4d bc f9 3d d0 c3 03 bd fa 67 47 3d
       0.15196711 0.12194119 -0.032169163 0.048683144
000350 69 e3 0f be 24 bd ab bd 6b 99 63 be b0 dd 3c 3e
       -0.14051594 -0.08385685 -0.22226493 0.18443942
000360 33 e7 d4 3d d2 d4 1e bd 9a ef c4 bd 0c 13 5a be
       0.1039566 -0.03877718 -0.09616013 -0.21296328
000370 cb 7c f0 3c 5e 22 46 3e 38 e8 d6 bc 52 21 2b 3e
       0.02935638 0.19349048 -0.026233777 0.1671193
000380 d8 51 a3 bd d7 5e 03 3e e9 c6 57 be 3e 42 e5 3d
       -0.07974595 0.12829147 -0.21071972 0.11194275
000390 0e d8 78 3d e2 aa 63 3e 5f 8f 57 be ed 40 aa bd
       0.06075292 0.22233155 -0.21050785 -0.08313165
0003a0 8e 5c 20 3e 42 39 b9 bd d3 8a f8 bc 6e f0 2f 3e
       0.15660307 -0.09044124 -0.030339634 0.1718156
0003b0 0d a1 49 be ac e0 52 bc fc 40 15 be 16 7b 89 3d
       -0.19690342 -0.012870949 -0.14575571 0.0671293
0003c0 55 9f 4e 3e a3 7c 54 3e db ef 3b 3e bf f2 a9 bd
       0.20177968 0.2075067 0.18353216 -0.08298253
0003d0 a7 93 d1 bd 73 65 03 bc ec f3 44 3d 92 f1 10 3b
       -0.102332406 -0.008019793 0.048084185 0.0022116643
0003e0 fe 9a 41 be 6e 71 89 3d 44 b8 ec 3b 57 e7 f5 3d
       -0.18906781 0.06711088 0.0072241146 0.12007015
0003f0 05 47 e6 3d 68 58 1a bd 66 e5 db 3c a4 de 2b 3e
       0.11244015 -0.037681967 0.026842784 0.1678415

onnx::Conv_405 f4 [32]
000000 00 00 00 00 00 00 00 00 00 00 00 00 00 00 00 00
       0.0 0.0 0.0 0.0
000010 00 00 00 00 00 00 00 00 00 00 00 00 00 00 00 00
       0.0 0.0 0.0 0.0
000020 00 00 00 00 00 00 00 00 00 00 00 00 00 00 00 00
       0.0 0.0 0.0 0.0
000030 00 00 00 00 00 00 00 00 00 00 00 00 00 00 00 00
       0.0 0.0 0.0 0.0
000040 00 00 00 00 00 00 00 00 00 00 00 00 00 00 00 00
       0.0 0.0 0.0 0.0
000050 00 00 00 00 00 00 00 00 00 00 00 00 00 00 00 00
       0.0 0.0 0.0 0.0
000060 00 00 00 00 00 00 00 00 00 00 00 00 00 00 00 00
       0.0 0.0 0.0 0.0
000070 00 00 00 00 00 00 00 00 00 00 00 00 00 00 00 00
       0.0 0.0 0.0 0.0

onnx::Conv_407 f4 [32, 11, 1]
000000 10 40 69 3d 33 b9 ed bc e5 a4 96 be 2c 6a 8a 3d
       0.05694586 -0.029018974 -0.2942268 0.06758532
000010 e8 5c 28 be c3 d2 45 3d 25 77 17 3d cc b5 46 3d
       -0.16441691 0.0482967 0.03697886 0.04851322
000020 02 56 dc 3d 1d 67 00 3e 73 af 13 3d 09 05 c0 3c
       0.10758592 0.12539335 0.036055993 0.023439901
000030 5c 0e 93 be 15 31 b1 bd 4a 34 b6 3d a8 b2 ea 3d
       -0.28721893 -0.0865194 0.08896692 0.11459857
000040 56 75 cd 3c 13 6c c0 3c 15 4f 67 3e 98 1a 6b be
       0.025080364 0.023489034 0.22588761 -0.22959363
000050 96 a2 11 be f7 96 29 be 54 12 5e be dd d3 6f 3e
       -0.14222178 -0.16561495 -0.21686679 0.23420663
000060 2b 7e 2c 3e b8 17 34 be aa e2 54 3e b6 da 90 3d
       0.16845004 -0.17587173 0.2078959 0.07072966
000070 cd f1 2d 3e da eb 0c be 76 7d a0 bd 52 27 87 be
       0.16986771 -0.13761845 -0.0783643 -0.26397187
000080 5f 24 22 3e e1 7b 48 be 05 12 1d 3e 01 91 6f 3e
       0.15834187 -0.19578506 0.15338905 0.23395158
000090 54 5d 26 3e 23 e7 4e 3e f2 d3 27 3c da e3 de 3d
       0.1624654 0.20205359 0.010243403 0.10883303
0000a0 93 b6 64 3e f3 a4 8a 3d 64 75 e2 bd 30 ce 67 3e
       0.22335272 0.06769743 -0.11057547 0.22637248
0000b0 4d 4f 43 3d a7 59 58 be 20 14 7b 3e 6c 35 84 bd
       0.04768305 -0.2112795 0.24519396 -0.06455502
0000c0 d3 4f 2f 3e 83 dc 90 3e f9 7e 57 3e c3 5a 47 be
       0.17120294 0.28293237 0.2104453 -0.19468217
0000d0 e7 50 50 3e e8 de 2c 3e 0e 37 96 be ac f9 27 be
       0.20343362 0.16881907 -0.29338878 -0.16403836
0000e0 97 0a 38 3e 22 01 a2 bd 48 4e 8b bc fa a5 8b be
       0.1797279 -0.07910372 -0.0170051 -0.27275068
0000f0 b8 b5 0c 3d b1 f6 8a bc 42 88 31 3e 31 92 90 3e
       0.034352988 -0.016963335 0.17337134 0.28236535
000100 31 56 92 be 5d 08 ec 3d 02 97 2b 3e 64 62 51 be
       -0.28581384 0.11525033 0.16756824 -0.2044769
000110 62 3a 97 3e 22 94 8f be 40 2c fc bd 6b c0 20 3e
       0.2953673 -0.28042704 -0.123131275 0.15698402
000120 85 fa 8b bd cc a4 31 be 7c 35 de bd ae 4e 0f be
       -0.06834892 -0.17348021 -0.10850045 -0.13994858
000130 ea 59 38 be 7a 8e 01 3e 8e a3 fa bd 19 e8 e5 bd
       -0.1800305 0.12652007 -0.12238227 -0.1122591
000140 af 99 89 3e 0f 5b 1d be f8 2c 8b be 82 f9 80 be
       0.26875064 -0.15366767 -0.27182746 -0.2519036
000150 74 8e fd bd a0 29 57 bd 9c 90 03 bd c1 5b 56 3e
       -0.123806864 -0.05252993 -0.032120332 0.20933439
000160 e9 07 81 bd a8 64 64 3e a7 50 93 be 7f ae 5f 3e
       -0.06300337 0.22304022 -0.2877247 0.21843909
000170 20 9c 98 3e bb ca 33 be cd 40 43 be f7 46 1f be
       0.29806614 -0.17557804 -0.19067688 -0.15554415
000180 48 42 7c 3e 34 3d b7 bc 7b 5e 41 3e 52 ba 60 be
       0.2463466 -0.022368051 0.18883698 -0.21946076
000190 e4 49 a9 3d c4 f2 36 3e 85 6a 17 bd 3b 5b 61 be
       0.08266047 0.17866045 -0.03696682 -0.22007458
0001a0 2c 47 11 be 2a 41 87 bd 88 cc 6d 3d 6b db 1a 3e
       -0.14187306 -0.06604226 0.058056384 0.15122764
0001b0 96 ba 8a 3e 10 7f 34 be e8 a8 25 be 8f b0 0e 3d
       0.2709548 -0.17626595 -0.16177714 0.03483635
0001c0 be 9d 86 be 4a 8c 22 be 52 dc 69 be 82 15 89 be
       -0.26292223 -0.15873829 -0.22837952 -0.26774222
0001d0 4b b3 63 be 3c 10 96 3e d9 87 04 3e 66 f1 8f be
       -0.22236364 0.2930926 0.12942447 -0.2811386
0001e0 98 30 80 3e b2 0a 93 bd a2 d2 fd bd 64 09 7c 3e
       0.25037074 -0.07179774 -0.12393691 0.24612957
0001f0 ff 0b 0a be 5d 0b 22 be 36 37 03 bd 53 8e 87 be
       -0.13481139 -0.15824647 -0.032035075 -0.26475772
000200 0f c2 4a be 31 b1 1f 3e 0a c7 8e be 30 35 cb 3d
       -0.1980059 0.15594937 -0.2788623 0.09922254
000210 28 f6 93 3e 32 a3 0c be 5b fd cf bd e8 56 46 3e
       0.2889874 -0.13734129 -0.101557456 0.1936909
000220 ab 6e 38 3e 99 2b 7e be 2d db 1d 3d 83 db 94 be
       0.18010966 -0.24821319 0.0385391 -0.29073724
000230 d7 eb 5d 3e 07 ef 8e 3e 26 59 86 be 33 c5 44 be
       0.21671997 0.27916738 -0.2623989 -0.1921585
000240 cf a3 7b be 20 ad c1 bd e7 de ae bd be e0 5e be
       -0.24574207 -0.09456849 -0.08538609 -0.2176542
000250 2f ca fb bd e5 85 7c bd c4 de 3a be f7 f1 43 3d
       -0.12294423 -0.06165113 -0.18249041 0.047838178
000260 93 f0 47 3d 54 e5 67 3c 2e 5a 15 3e 41 fb 44 3e
       0.048813414 0.014153797 0.14585182 0.19236471
000270 e8 4b 84 be 03 70 a6 3c a5 73 9c 3d 53 88 c0 3d
       -0.25839162 0.020317083 0.07639245 0.09401002
000280 68 ba 70 3e 89 1d 89 be 13 59 54 be 93 55 e0 bd
       0.23508608 -0.26780346 -0.20737104 -0.10953822
000290 ea b8 d2 bd f3 59 fc 3d 24 cd 8b 3e d8 14 5d 3e
       -0.10289176 0.12321844 0.27304947 0.21589983
0002a0 65 46 9a bc c2 72 ef 3c 3c 13 00 be 3a b4 67 be
       -0.018832395 0.029229525 -0.12507337 -0.22627345
0002b0 a4 b9 6f 3e d8 8d 0e bc 32 ba 36 3c 2e ab 3b bb
       0.2341066 -0.00870081 0.011152791 -0.0028635967
0002c0 47 06 a7 bd a2 2d 81 be 24 d8 0f 3e bc bd 8e 3e
       -0.08155494 -0.25230128 0.14047295 0.2787913
0002d0 e3 21 f8 3d ca 7f 3b be 8d d7 ad bd 04 d1 d0 3d
       0.121158384 -0.18310466 -0.08488379 0.101961166
0002e0 c7 fa ef bd 13 77 82 bc 22 14 3a 3e 50 8b 46 be
       -0.11717754 -0.01592592 0.18171743 -0.19389081
0002f0 1b b8 39 3e 2e cb 88 3d c5 60 98 be 78 b2 79 3e
       0.18136637 0.066793784 -0.2976133 0.24384487
000300 01 8f 9a bd eb b6 d1 bc 2c 3f e0 3c 40 a5 0c 3c
       -0.07546807 -0.025599917 0.027373873 0.008584321
000310 7c 4e 5f 3e 18 5d 0b be 25 c4 8c 3e 2a b0 28 bd
       0.21807283 -0.13609731 0.27493396 -0.04118363
000320 22 8c c3 bd 24 94 43 be 4f a1 58 3c bd d1 f3 bd
       -0.095482126 -0.1909948 0.013222053 -0.11905239
000330 66 95 4a 3e 11 2e 65 3e 6c 8d 68 be 0b 5d 49 3e
       0.19783553 0.22380854 -0.22710198 0.196644
000340 4c de b0 3d dc 23 70 be df 91 ee bd 0e dd 35 3e
       0.0863615 -0.2345118 -0.116489165 0.17760107
000350 95 58 36 3e b1 cb 8c bd bd 0c a2 bd 32 63 46 3e
       0.17807229 -0.068747886 -0.07912586 0.19373778
000360 2e 1a 8c bd 8e ee 44 3c 45 1a 6a 3e bb f2 4f bd
       -0.06840931 0.0120197665 0.22861584 -0.050768595
000370 c4 09 a7 3d 51 7e 5c be a0 9f 1d 3e f2 b4 24 be
       0.081561595 -0.21532561 0.15392923 -0.1608465
000380 47 09 85 3e 5d 02 56 be 9f 69 87 be a9 10 a2 3d
       0.2598364 -0.20899339 -0.2644777 0.07913334
000390 40 0d 31 be 01 08 ee bd 55 ed 7d 3d 74 e9 23 3e
       -0.1729021 -0.116226204 0.061993916 0.16007024
0003a0 b4 4c 7b bc e9 be 96 be 1c 4d 56 3d ae ae cd bd
       -0.015338112 -0.29442528 0.05231963 -0.10043083
0003b0 a8 ac c2 3d 8a ee e6 3c 0c 01 fe bc 1e 0d f5 bc
       0.09505588 0.028189916 -0.031006359 -0.029913481
0003c0 e2 d6 80 3e 7c 0d 97 3d 29 62 04 3c a7 99 52 3d
       0.25163943 0.07375619 0.008080044 0.051416066
0003d0 01 8a 91 be 63 c7 43 3e 4e 28 50 be 4a 89 94 bc
       -0.284256 0.19119029 -0.20327875 -0.01813187
0003e0 14 b1 52 be 41 6e 8d be e9 3c 2a be db 9e 0f be
       -0.20575362 -0.2762318 -0.16624798 -0.14025442
0003f0 2b 69 3a 3c 13 24 e2 3c bb bb 81 be b1 a2 8c be
       0.011377613 0.027605092 -0.2533854 -0.27467874

onnx::Conv_408 f4 [32]
000000 00 00 00 00 00 00 00 00 00 00 00 00 00 00 00 00
       0.0 0.0 0.0 0.0
000010 00 00 00 00 00 00 00 00 00 00 00 00 00 00 00 00
       0.0 0.0 0.0 0.0
000020 00 00 00 00 00 00 00 00 00 00 00 00 00 00 00 00
       0.0 0.0 0.0 0.0
000030 00 00 00 00 00 00 00 00 00 00 00 00 00 00 00 00
       0.0 0.0 0.0 0.0
000040 00 00 00 00 00 00 00 00 00 00 00 00 00 00 00 00
       0.0 0.0 0.0 0.0
000050 00 00 00 00 00 00 00 00 00 00 00 00 00 00 00 00
       0.0 0.0 0.0 0.0
000060 00 00 00 00 00 00 00 00 00 00 00 00 00 00 00 00
       0.0 0.0 0.0 0.0
000070 00 00 00 00 00 00 00 00 00 00 00 00 00 00 00 00
       0.0 0.0 0.0 0.0

onnx::Conv_410 f4 [64, 64, 1, 1]
000000 fb c8 53 3d 23 ad 16 bd 56 7f fe bd 1b f0 81 bd
       0.05170534 -0.03678621 -0.12426631 -0.063446246
000010 a3 54 ef bd 3b e5 e5 bd 80 84 da 3c f6 ed b5 bd
       -0.11686065 -0.11225363 0.026674509 -0.08883278
000020 18 f3 29 3c 7a 40 55 bc 77 e4 e5 bd b9 db d1 bd
       0.0103728995 -0.013015861 -0.11225217 -0.10246987
000030 7f ac c6 bb 7a 06 e9 bd b7 8f 5f b8 f4 46 ed bd
       -0.0060630436 -0.113781884 -5.3301188e-05 -0.11585799
000040 af 4d c5 3c 84 77 d4 bd aa 8f d5 3c 7c aa d6 bd
       0.024084894 -0.10374358 0.02606948 -0.10481736
000050 52 96 86 bd c0 f7 a9 3c 54 be d0 bc 99 33 bf bd
       -0.0657164 0.02074802 -0.02548138 -0.09336013
000060 a8 79 c4 bc f7 6a 2d bd 07 df dd 3d 86 06 56 3d
       -0.023983791 -0.042338338 0.10833555 0.052252315
000070 d1 73 c1 3c a7 6f ad 3d 90 25 92 3c dc 07 4f 3c
       0.023614796 0.084685616 0.017840177 0.012636151
000080 f8 63 b6 bd 22 78 61 bd 42 66 3e bc af d8 96 3c
       -0.08905786 -0.05504621 -0.01162106 0.01841387
000090 41 7f c0 3d f5 aa 63 3d 8c cc 7f 3c 94 ee 59 bd
       0.09399272 0.05558296 0.015612733 -0.05320604
0000a0 bf b8 df bd 85 6f e4 bd f3 3f 51 3d 0d 29 c6 bd
       -0.109239094 -0.11154083 0.051086377 -0.096757986
0000b0 6c c5 05 3d 00 5e 2a bd 84 dd 4e bd f1 72 27 3d
       0.03265898 -0.04159355 -0.050504223 0.0408811
0000c0 0f f0 e5 bd 1d 9a 27 3d d7 b9 f0 3d f4 c1 da 3d
       -0.11227428 0.04091846 0.11754196 0.10681525
0000d0 c7 56 96 bd c2 99 bb 39 f2 b9 d4 bc 4a 00 00 3d
       -0.0734077 0.00035781978 -0.025967572 0.031250276
0000e0 17 43 e9 bd 3b 9b 69 bd 39 2c d9 bb aa 8c 6c bd
       -0.113897495 -0.057032805 -0.006627586 -0.057751335
0000f0 a0 aa e1 bd 52 0f 86 3d eb e6 a0 3b 34 1a 8c bd
       -0.11018872 0.06545891 0.00491034 -0.06840935
000100 b0 45 ab bd 39 2c 59 3d 7f ed 93 bc 04 4e 36 3b
       -0.08362901 0.05302069 -0.018057583 0.0027817497
000110 13 2c 89 bd e2 86 85 3d 59 9f d7 bc ea 9b f8 bd
       -0.066978596 0.065198675 -0.0263211 -0.12139113
000120 92 b5 6c bd f2 ff d5 bd 67 33 8e bd 15 22 dd 3d
       -0.057790346 -0.10449208 -0.06943398 0.10797516
000130 de 46 9e bd 03 f9 b3 bd f1 44 94 bd c5 87 34 ba
       -0.077283606 -0.087877296 -0.07239712 -0.00068866863
000140 ac c3 4f bc ad af 3f 3d 9d 16 b3 bc 4f 4d 9c bd
       -0.012680929 0.046798397 -0.021861369 -0.07631933
000150 f6 2c e0 bc d1 dc ca bd a5 af e4 3d 2a fb 7a bd
       -0.027365189 -0.09905399 0.11166314 -0.061274685
000160 65 9d b4 bd 1e 4d be bd 8f 70 df 3c e4 86 bd bd
       -0.08819083 -0.09292053 0.027275352 -0.09254244
000170 2d 08 71 bd 8f 25 c6 3d aa c3 00 3d da ff b1 bd
       -0.058845688 0.096751325 0.0314366 -0.08691378
000180 d4 e7 a5 3d ac 18 be 3d 43 d6 6a bc b8 20 ab 3c
       0.08100858 0.092820495 -0.014333311 0.020889625
000190 8d cf 89 bd b5 97 fb bc 51 35 02 3d ef 43 96 bc
       -0.0672904 -0.030711988 0.031789128 -0.01834294
0001a0 19 ce 33 bd e8 ce 7e bd fa b7 3c bd 8a ef bb 3d
       -0.043897722 -0.06220904 -0.04607389 0.09176548
0001b0 45 dd b3 3b c5 7a 96 3d 8b a2 87 bc db 9f a0 3d
       0.005489024 0.07347635 -0.016556999 0.0784299
0001c0 b4 b5 e6 3d 87 3a d7 3d 66 ea 0b 3d aa 3f be bc
       0.11265126 0.1050921 0.034159087 -0.023223717
0001d0 5b e2 50 3d 85 ab fb bd 7e 61 db bd a3 a7 c4 3d
       0.05099712 -0.12288574 -0.107119545 0.09602287
0001e0 55 ff e5 bc 4f 75 95 3c f4 0c 07 bc 7b c6 b9 3d
       -0.028075853 0.018244414 -0.008242834 0.0907106
0001f0 9e 37 e2 3d b2 e2 48 bd e5 47 e9 3d b5 e7 19 bd
       0.110457644 -0.04904432 0.11390666 -0.03757449
000200 af 70 45 bc 43 f7 52 bd c0 96 c3 3d 24 09 ab bd
       -0.012050792 -0.05150534 0.09550238 -0.08351353
000210 ef af ac bd 5f a3 21 bd 3b b5 e4 3d 57 ab c4 bc
       -0.08431994 -0.039462443 0.111673795 -0.024007482
000220 b5 13 b4 3c a6 29 01 3d 30 eb d3 bd a6 9d 9f bd
       0.021982053 0.03153386 -0.10347593 -0.07793741
000230 25 c9 57 bd 81 b3 a7 3c 13 c2 9a bd 1d fb d2 3d
       -0.05268206 0.020471336 -0.07556548 0.10301802
000240 6f 34 9b 3d 73 09 a8 bd 22 4a 7a bd 59 04 e5 3d
       0.0757836 -0.08204927 -0.061105855 0.1118247
000250 34 fe 59 bd 90 52 f3 bc 94 f4 a5 3d 14 3c e1 3d
       -0.053220943 -0.029702455 0.0810329 0.10997787
000260 2d e0 fc bd e6 7a 87 3d 0b d5 ea bd 83 5c c0 bd
       -0.12347446 0.06615238 -0.11466416 -0.09392645
000270 74 05 9d 3c 37 2f a1 3d 36 28 8c 3d 81 81 c1 3c
       0.01916764 0.07870334 0.06843607 0.023621323
000280 b8 e6 92 bd 52 39 a9 3d 32 d5 47 bd b0 cf ce 3d
       -0.07172912 0.08262886 -0.048787303 0.10098207
000290 f5 81 ad 3d 2a a1 e8 3d c9 df c5 bd 72 bc ce 3d
       0.08472053 0.113588646 -0.09661824 0.10094537
0002a0 62 86 97 bd f2 7b 30 bd d3 a5 b9 bd 51 2d bf bd
       -0.07398678 -0.043086953 -0.090648316 -0.09334815
0002b0 31 9f 88 bd 3d 52 ef 3d 9f da ae 3c d5 a5 0f 3d
       -0.06670988 0.116856076 0.021344481 0.03507026
0002c0 fb 95 d2 3b 85 af ca 3d aa 49 3c 3d 93 11 ea bd
       0.0064265705 0.09896759 0.04596869 -0.11429133
0002d0 c0 5d da bc 49 ea bf bd 9a 37 25 3c a7 06 f7 bd
       -0.026656032 -0.09370858 0.010084057 -0.12061816
0002e0 ca 4a 8b bd 26 18 da 3d 1f cb bf bd 31 df 59 bd
       -0.06801374 0.10649137 -0.09364914 -0.053191368
0002f0 ef 5a ba 3d 4b 3c a0 3d 83 05 d2 bd 76 2b 3e 3d
       0.090993755 0.07824 -0.102549575 0.046428166
000300 b6 cf 80 3b 60 cc 72 3c d0 1c 66 bd b6 eb 8a bd
       0.003931011 0.014819235 -0.05617982 -0.067832395
000310 c5 43 b3 3d e9 d9 c0 bd a0 1a ef bd da 41 e0 bd
       0.087531604 -0.09416563 -0.11675 -0.1095006
000320 d5 be d3 bd 54 7c 06 3c 42 f5 8c bd db 5a 96 bd
       -0.10339133 0.008208353 -0.06882717 -0.07341548
000330 72 de ec bc 9e 20 30 3d 2e 03 fa 3d 3d 12 e3 bd
       -0.028914664 0.042999856 0.12207638 -0.11087463
000340 97 6b 69 bd fe ae 79 3d 9e 69 7a 3c 9b d1 d1 3c
       -0.05698737 0.0609579 0.01528397 0.025612643
000350 3b bb 15 bd 3c 2b 93 3d 4a 1e e0 bd 30 1e f9 bd
       -0.03655551 0.07185981 -0.10943277 -0.12163961
000360 f6 ef ee bd 7b 10 d9 3d a1 35 8f bd 65 f1 9a 3c
       -0.11666863 0.105988465 -0.06992651 0.018913934
000370 39 fa d8 3a b1 13 c1 3d 31 3c f0 bc 40 cd 91 bd
       0.0016554064 0.09427584 -0.029325576 -0.071192265
000380 95 48 f6 3d 5b f8 d2 3b 6d 72 9c bc 2e 54 18 3c
       0.12025563 0.0064382977 -0.019097531 0.009297414
000390 0e 44 54 3d 43 6a 0a 3d 53 30 2d bd dd 4d cd 3d
       0.051822715 0.033792745 -0.042282414 0.10024617
0003a0 8f 76 ea bd 67 45 c7 bd a3 b1 89 bc da 94 d6 3b
       -0.114483945 -0.09730034 -0.016808337 0.006548506
0003b0 57 a4 f0 bd 0a 03 8c bd 60 a1 d0 bd 4d 35 03 3d
       -0.11750095 -0.06836517 -0.1018703 0.032033253
0003c0 24 fc 8a 3d c2 bf 30 3d 66 5f db bd 2b 82 15 3d
       0.06786373 0.043151625 -0.10711555 0.03650109
0003d0 a7 a1 38 bd ea 2d db bd 08 ac 98 bd 82 dd 6c 3c
       -0.04507604 -0.10702117 -0.07454687 0.014457108
0003e0 f6 a5 3c bd 45 cf b3 bc 14 1c d5 3d 8f f9 f6 bc
       -0.04605671 -0.02194942 0.10405746 -0.030148296
0003f0 4d c2 71 3d 56 e6 90 3d 89 81 a7 3d a6 db e0 bd
       0.05902319 0.07075183 0.08179004 -0.109793946

onnx::Conv_411 f4 [64]
000000 00 00 00 00 00 00 00 00 00 00 00 00 00 00 00 00
       0.0 0.0 0.0 0.0
000010 00 00 00 00 00 00 00 00 00 00 00 00 00 00 00 00
       0.0 0.0 0.0 0.0
000020 00 00 00 00 00 00 00 00 00 00 00 00 00 00 00 00
       0.0 0.0 0.0 0.0
000030 00 00 00 00 00 00 00 00 00 00 00 00 00 00 00 00
       0.0 0.0 0.0 0.0
000040 00 00 00 00 00 00 00 00 00 00 00 00 00 00 00 00
       0.0 0.0 0.0 0.0
000050 00 00 00 00 00 00 00 00 00 00 00 00 00 00 00 00
       0.0 0.0 0.0 0.0
000060 00 00 00 00 00 00 00 00 00 00 00 00 00 00 00 00
       0.0 0.0 0.0 0.0
000070 00 00 00 00 00 00 00 00 00 00 00 00 00 00 00 00
       0.0 0.0 0.0 0.0
000080 00 00 00 00 00 00 00 00 00 00 00 00 00 00 00 00
       0.0 0.0 0.0 0.0
000090 00 00 00 00 00 00 00 00 00 00 00 00 00 00 00 00
       0.0 0.0 0.0 0.0
0000a0 00 00 00 00 00 00 00 00 00 00 00 00 00 00 00 00
       0.0 0.0 0.0 0.0
0000b0 00 00 00 00 00 00 00 00 00 00 00 00 00 00 00 00
       0.0 0.0 0.0 0.0
0000c0 00 00 00 00 00 00 00 00 00 00 00 00 00 00 00 00
       0.0 0.0 0.0 0.0
0000d0 00 00 00 00 00 00 00 00 00 00 00 00 00 00 00 00
       0.0 0.0 0.0 0.0
0000e0 00 00 00 00 00 00 00 00 00 00 00 00 00 00 00 00
       0.0 0.0 0.0 0.0
0000f0 00 00 00 00 00 00 00 00 00 00 00 00 00 00 00 00
       0.0 0.0 0.0 0.0
