models/particlenet_AK4/1/model.onnx (onnx, 979187 bytes, 42 tensors)

pf_conv.conv.0.weight f4 [20]
000000 53 3b 09 41 3d ee ea 40 fb 5d 15 41 23 56 0e 41
       8.576983 7.341582 9.335444 8.896029
000010 3a 20 0e 40 43 8d 03 40 7c f5 85 40 76 eb 27 40
       2.220717 2.055497 4.1862164 2.6237464
000020 c3 7f d5 40 b2 10 79 40 f6 bb dd bf 00 42 17 40
       6.671846 3.891644 -1.7322986 2.3634033
000030 d9 36 f5 3f 8b 21 11 40 6a bb 83 40 b1 80 ff 3f
       1.9157363 2.2676723 4.1166277 1.9961149
000040 43 47 b0 40 90 69 a8 40 6a 21 90 40 07 c2 00 41
       5.508699 5.262886 4.504079 8.04737

pf_conv.conv.0.bias f4 [20]
000000 e9 c2 8a bb 9f e7 0d 3b 9c 34 41 bb fd cc c2 bb
       -0.004234661 0.002165295 -0.002948082 -0.0059448467
000010 78 18 ae 3a 6f 0b 9e ba e7 89 9b b9 23 f3 3c 3b
       0.0013282439 -0.0012057851 -0.0002966665 0.0028831444
000020 97 34 a6 3b 49 bc a6 3a c4 d5 bd 39 d1 5b 7a bb
       0.005072187 0.0012720908 0.00036208157 -0.00382017
000030 80 aa af ba 44 6f 39 3a eb ca ae 3a 40 70 a4 ba
       -0.0013402253 0.000707377 0.0013335621 -0.001254566
000040 4c c9 20 3b 9f f2 dd 39 66 2d 3c 3a 2a 21 b5 3b
       0.0024534045 0.00042333172 0.0007178396 0.005527635

pf_conv.conv.0.running_mean f4 [20]
000000 ec e5 b1 bd 3a b4 60 3d e4 dc e9 ba 04 8a 6c 39
       -0.08686432 0.054859377 -0.001784232 0.00022558129
000010 f1 3f ab 3e a3 61 ca 3b 5e a2 7f 3e d3 09 ae be
       0.3344722 0.00617619 0.24964282 -0.3399187
000020 4f 94 96 3f 50 22 60 3e bd df 6c 3b ec a8 ff 3a
       1.176401 0.21888089 0.00361441 0.0019505299
000030 70 fc f5 ba ae ea fa be 7f 41 10 be b5 33 a0 3c
       -0.0018767249 -0.4900717 -0.14087485 0.019555906
000040 34 c2 5e 3e 12 59 02 3e 3a 4d f8 3d 08 98 b8 be
       0.2175377 0.1272929 0.12124105 -0.3605349

pf_conv.conv.0.running_var f4 [20]
000000 95 26 07 3f 35 f7 ec 3e e2 8b 4e 3c 10 4e 58 3c
       0.52793247 0.46282354 0.012606593 0.013202205
000010 dc ee 3a 3f 51 47 87 3e f8 80 98 3e 9d 83 da 3e
       0.7302072 0.26421598 0.29785895 0.42678538
000020 82 d8 b3 40 61 ff 2e 3e b9 ae 59 40 7f fa 07 40
       5.620179 0.17089607 3.4012892 2.124664
000030 5a a7 34 40 5b 47 e5 3f 42 59 df 3e fa bf 38 3b
       2.8227143 1.7912401 0.43622786 0.0028190599
000040 d2 af 2c 3e 7a 86 fd 3f 31 2a e6 3f 2b 12 ba 3f
       0.16863945 1.9806664 1.7981626 1.4536794

sv_conv.conv.0.weight f4 [11]
000000 c7 57 96 40 88 e2 fd 40 0e 48 a3 40 1c 95 69 40
       4.698215 7.9339027 5.1025457 3.649726
000010 0b be b5 3f ff 4a a9 40 9d 38 11 40 3b a9 33 41
       1.4198622 5.290405 2.2690804 11.228816
000020 91 9b 03 bf 21 fa 0d 40 a3 08 fe 40
       -0.5140925 2.2183917 7.9385543

sv_conv.conv.0.bias f4 [11]
000000 0b 09 84 b8 80 fd 53 38 fc eb 58 b7 4c ba fa b8
       -6.295935e-05 5.054241e-05 -1.2929548e-05 -0.000119556295
000010 b5 30 10 38 5e 0c 4f b7 26 f6 17 38 8a b5 64 b8
       3.4377637e-05 -1.2341041e-05 3.623045e-05 -5.4528507e-05
000020 67 aa 1f b8 4b a5 33 36 c0 df c7 b7
       -3.8067254e-05 2.6769292e-06 -2.382684e-05

sv_conv.conv.0.running_mean f4 [11]
000000 3e dd d5 3c e6 7a 87 3d 82 34 7b ba ba 1a 62 38
       0.026106473 0.06615238 -0.00095827144 5.390749e-05
000010 d8 1f 68 3d 8b 37 a4 3c 40 11 04 3d 0d 6c 71 3d
       0.056670994 0.020046016 0.032243013 0.058940936
000020 6e 3d 28 3d 9c 7c 91 3d c2 56 28 3d
       0.04107421 0.071038455 0.041098364

sv_conv.conv.0.running_var f4 [11]
000000 03 fe de 3d 05 c3 6f 3e 2b 78 7e 3a af 08 84 3a
       0.10888293 0.23414238 0.00097072375 0.0010073389
000010 96 3e df 3d 86 3a e6 3d b0 14 19 3e 6e 93 3f 3e
       0.10900609 0.11241631 0.14949298 0.18708584
000020 6b e4 f7 3d 67 8b 79 3e 4b 1a f8 3d
       0.12104114 0.24369584 0.1211439

pn.fc.0.0.weight f4 [128, 256]
000000 ee eb 39 bd 13 b7 71 bd 8e 4c 8a 3c 34 24 61 3c
       -0.045391016 -0.059012484 0.016882207 0.013741542
000010 23 db 59 3c f4 7c 39 3d 06 4a f7 bc e0 3f 83 bd
       0.013296875 0.04528518 -0.030186664 -0.064086676
000020 0c 3e f7 ba b8 47 d2 3c 2a b3 4b bd ce b5 87 bd
       -0.0018863096 0.025668964 -0.04973141 -0.06626473
000030 bb 59 50 bc ee f9 50 bd c6 4e 80 3b e2 ad 4d 3c
       -0.012716706 -0.0510196 0.0039156405 0.012553664
000040 2a 1a 06 bd dc 28 02 3d 42 8f 0b 3d f6 a8 95 3c
       -0.032739796 0.031777248 0.03407217 0.018269043
000050 00 11 9e bc e0 ec b7 bc a0 c7 1c 3d 2c 35 f5 bc
       -0.019295216 -0.022451818 0.038276315 -0.02993258
000060 66 e3 26 bd 42 48 23 bc 4a c6 95 3c 74 d9 ad 3c
       -0.040744208 -0.009965958 0.018283028 0.021221854
000070 03 5a 8f bd 57 a0 88 bc bc 7b 40 bd 00 85 ed bb
       -0.0699959 -0.016678018 -0.046993002 -0.007248521
000080 68 a1 84 3c ae 95 b5 bb a4 46 16 3d f8 2d 00 bc
       0.016190246 -0.005541525 0.036688462 -0.00782346
000090 58 da d0 bc 09 25 b9 3c 4a 14 d6 bc ae 06 60 bd
       -0.02549474 0.022600668 -0.026132721 -0.05469387
0000a0 b2 de e7 3b c8 82 42 3c 45 f2 4a 3d f0 ac a9 3b
       0.007076108 0.011872001 0.049547452 0.0051780865
0000b0 e4 7f 9d 3c d4 82 55 bd 28 59 38 bd ae 03 bc bc
       0.019226022 -0.05212672 -0.0450069 -0.022950973
0000c0 8a a8 b9 bc e2 82 9a 3c 2e 51 14 bd 36 f8 25 bc
       -0.022663374 0.018861238 -0.03621023 -0.010129979
0000d0 d8 de 39 bd 62 58 06 bd 94 67 95 bd 5d 29 29 bd
       -0.045378536 -0.032799132 -0.072951466 -0.041299213
0000e0 38 6c a8 bc 6a 66 c5 bc 12 34 88 bd aa e8 aa bc
       -0.020559415 -0.024096686 -0.066505566 -0.020862896
0000f0 c5 13 ae 3c 18 a8 52 bd 7c c4 0b 3d 99 c5 36 bd
       0.021249661 -0.051429838 0.03412293 -0.044622038
000100 50 4f d3 3b 00 5d 70 bd 6a 58 ac bc d0 dc 58 bd
       0.006448664 -0.05868244 -0.021038253 -0.05294496
000110 87 99 5f 3c ea 6b 86 bd f0 17 5b bc ba c9 b5 bb
       0.013647444 -0.06563552 -0.013372406 -0.0055477293
000120 38 97 7b 3d 28 9b 23 3d f0 f6 80 3c b2 01 23 3c
       0.06142351 0.03994289 0.015742749 0.009949135
000130 f0 31 81 bd 2a 74 d2 3c ca 7e ce bc 80 c3 8e 3c
       -0.06308353 0.025690157 -0.025206942 0.017427206
000140 7e 56 8b bc 06 67 84 bd 58 fb 1b bd 12 d5 85 3d
       -0.017009016 -0.06464963 -0.038081497 0.065347806
000150 8a 2a 3a 3d e0 28 36 bd b0 1a 56 bd 1e a1 02 3d
       0.045450725 -0.044472575 -0.052271545 0.031891935
000160 48 98 17 bd 84 d9 92 3b 3a 32 fb 3c 9c 2e 9c bc
       -0.03701046 0.0044814963 0.030663598 -0.019065194
000170 d4 b5 8e bd c4 0d 3f bd a0 a1 a0 bd 28 b6 bf ba
       -0.06968275 -0.046643987 -0.078433275 -0.001462643
000180 6f c0 27 3d e6 47 ba bc 0a 28 40 bd 6e af e0 3c
       0.040955003 -0.022739362 -0.046913184 0.027427401
000190 c0 11 b6 bc e3 df 48 3c 5a 0d 3c ba 0a 72 56 bd
       -0.02222526 0.01226041 -0.00071736204 -0.05235485
0001a0 23 e3 2a 3d b6 f7 76 bc 60 fe 42 bd 42 53 79 bd
       0.04172052 -0.015073707 -0.047605872 -0.060870416
0001b0 a2 36 77 3d ca 95 47 bd e8 aa 8c bd 48 b8 4e bd
       0.060354836 -0.048726834 -0.06868535 -0.050468713
0001c0 ac 4c 41 bd c6 9e 04 3c e6 9b 88 bd c4 b6 d3 bc
       -0.04719226 0.008094495 -0.0667036 -0.025843985
0001d0 70 a3 2d 3d f5 ba 88 3c e6 3c c4 ba 3c 33 b8 bc
       0.042392194 0.01669071 -0.0014971762 -0.022485368
0001e0 7c d3 56 bc a0 98 e0 3c 6c c1 27 bd 11 6a 0b 3d
       -0.013111945 0.027416527 -0.040955946 0.0340367
0001f0 b8 d5 62 bd a4 bc fe bc 98 23 8c 3c ca ce e1 ba
       -0.0553796 -0.03109581 0.017106816 -0.0017227766
000200 c0 8f 56 bd 1a a2 83 3c 46 ed 88 bd ea 88 74 bd
       -0.052383184 0.016068507 -0.06685881 -0.059700884
000210 18 57 89 3d 3a 06 83 bd 1a ae 31 3d f1 99 33 3c
       0.06706065 -0.06397672 0.043378927 0.010961995
000220 19 e0 1b 3c 76 04 2f bd 1a 74 82 3c 68 c3 7e 3c
       0.009513878 -0.042728864 0.015924502 0.015549518
000230 4a 83 cd bc 98 0a 6a bd 7e cd 6e bb 21 a6 88 bd
       -0.025087018 -0.05713901 -0.00364384 -0.066723116
000240 ff 7a 30 3d 84 3e 68 bd 70 92 9e 3c 1e 8b 28 bd
       0.04308605 -0.056700245 0.019356936 -0.041148297
000250 5a 34 42 3d 2a dd c3 bc 54 81 cb bc ec 89 86 bd
       0.047413208 -0.02390917 -0.024841942 -0.06569275
000260 f6 82 6f bc a0 29 0c 3b be 3a d7 bc 40 94 60 3d
       -0.014618626 0.0021387115 -0.026273128 0.054828882
000270 d6 ee e3 3b e6 b9 3b bd 06 42 4c bc e6 5a 48 3d
       0.0069559617 -0.045831583 -0.012466913 0.048914813
000280 4a b9 bc 3c ee df 2a 3d 30 65 c7 bc e7 39 ef 3c
       0.023037571 0.041717462 -0.024340242 0.029202415
000290 c2 4e d4 bd 32 3e 9e bd d7 56 04 bc 95 ce 99 bc
       -0.10366584 -0.077267066 -0.008077345 -0.018775264
0002a0 13 a7 2d bd e1 a7 17 3c 79 34 87 bc 7f 1b 8d 3c
       -0.042395663 0.009256334 -0.016504513 0.017225025
0002b0 2c 33 5b bd d5 a4 de 3c 42 17 70 3d 76 14 f5 3c
       -0.0535156 0.027178207 0.05861593 0.029916983
0002c0 fe 17 3c bd 72 cf 09 bb 8d 7b 98 3c 56 f1 4d 3c
       -0.04592132 -0.0021028188 0.018613601 0.012569746
0002d0 a4 9f 32 3d 58 60 f1 bb 5c b0 9a bd 28 69 16 bc
       0.043609276 -0.0073662214 -0.07553169 -0.009180345
0002e0 e4 f6 8e bc e0 0f 96 bc 83 2a 14 bd 12 1d 95 bd
       -0.017451711 -0.018318117 -0.036173355 -0.07280935
0002f0 34 84 4c bd 8a 10 66 bc 00 dd a2 bc e4 86 8c bc
       -0.049930766 -0.014042029 -0.019880772 -0.017154165
000300 98 8c 9d 3c 98 cd 0e bd 08 e0 ae bd 2c 75 ea bb
       0.01923208 -0.03486404 -0.08538824 -0.0071550813
000310 fa c5 60 bd 98 35 07 3d 9e c5 76 bd 27 4c 91 bd
       -0.054876305 0.033010095 -0.060247056 -0.07094603
000320 9c 46 33 39 6a e3 30 3d f2 32 00 bd 38 84 cc 3c
       0.00017097074 0.04318563 -0.031298585 0.02496539
000330 b4 cd 8a 3a 4f b6 ec 3a 9e d7 6e bd 66 28 c4 bc
       0.0010589869 0.0018059703 -0.058311097 -0.023945045
000340 f8 04 2e 3d d6 99 3c bd 01 71 fb bc 96 8e 49 3d
       0.042485207 -0.046045147 -0.030693533 0.049208246
000350 7e f3 26 bd 34 cb 93 3c a4 4b c1 bc fa 0f 13 3d
       -0.040759556 0.01804123 -0.023595639 0.03590391
000360 1c e5 26 bd 6d f1 b4 3c 3e 58 88 3c 3a 4e ae bb
       -0.04074584 0.022087777 0.01664364 -0.005319384
000370 10 e7 9e bc 85 9a 26 bd aa 70 7f bd 44 0b 47 3d
       -0.019397289 -0.040674705 -0.062363304 0.048594728
000380 4a cb 7b bd a5 11 f1 3b 30 6e 20 bc f2 f5 b0 3b
       -0.06147317 0.0073568397 -0.009791896 0.0054004127
000390 8e ab fb bb 5f 5f 70 3d bc 95 d7 bb d2 2e 1f 3d
       -0.007680363 0.058684703 -0.006579129 0.03886301
0003a0 aa f5 46 bd 46 5b 68 bc 4c de f0 3c 46 f7 33 bb
       -0.048574127 -0.0141819175 0.029402874 -0.002746062
0003b0 56 12 0f 3d ee 78 fb 3c 2a 93 85 bc b6 62 9f 3c
       0.034929596 0.030697312 -0.016305525 0.019456249
0003c0 98 8f 84 bd e0 d4 ac bb bc 47 28 3d 5a 33 41 3d
       -0.06472701 -0.0052744 0.041084036 0.047168113
0003d0 a0 12 0f 3d c6 cd a1 bc 94 52 5f bd 26 fd 02 bd
       0.03492987 -0.01975144 -0.054522112 -0.031979702
0003e0 86 30 b1 3a ba b3 7d bd f2 15 33 3d d8 d4 a9 bd
       0.001351849 -0.06193898 0.0437221 -0.0829255
0003f0 26 d4 93 bc 00 88 db bc 9c 7c a4 3c 7c 70 09 3d
       -0.018045496 -0.026798248 0.02007895 0.03355454

pn.fc.0.0.bias f4 [128]
000000 20 15 1d be 46 35 42 3e 38 b3 42 be 9f c0 50 bd
       -0.1534009 0.18965635 -0.19013679 -0.050964948
000010 40 16 fb 3d 7c ff b6 be a6 f1 6b bd f2 d3 30 bd
       0.12260103 -0.35741794 -0.0576035 -0.043170877
000020 93 40 63 3e 26 33 04 3f 5e 2d 3b bd 6e e4 0b bd
       0.22192602 0.51640546 -0.045697562 -0.034153394
000030 5c e7 88 be 0c 19 da bd 17 b1 9c 3d 76 32 21 be
       -0.26739013 -0.106493086 0.07650965 -0.15741906
000040 b0 ae 92 bd 5b fa 05 be b0 b5 c6 bd a2 4b ba bd
       -0.07162225 -0.13083784 -0.09702623 -0.09096457
000050 60 95 43 be dd da ec 3e 92 e5 ea bd 2d 0f 11 be
       -0.19099951 0.4626073 -0.11469568 -0.14165945
000060 a4 cb 77 bf c0 a3 91 be 67 2f 45 bd bf 79 85 3e
       -0.96795106 -0.28445244 -0.04814091 0.26069447
000070 c4 5e 80 bd 9f 05 4a bd 3f e5 8a bd 61 d8 88 3d
       -0.06268075 -0.049321767 -0.067820065 0.06681896
000080 07 a7 f9 3e af d4 aa 3e ea b8 a9 3e db cd 41 3e
       0.48760244 0.3336539 0.3314889 0.18926184
000090 8c 12 b3 bd 64 0e 5e 3e 88 bf 8d 3e ce 1c 1a bd
       -0.08743772 0.21685177 0.2768519 -0.037625127
0000a0 80 5b 5b bd c6 38 10 3f a6 91 12 3f d9 2f 44 3d
       -0.053554058 0.5633663 0.5725349 0.047897194
0000b0 c5 13 62 bf cc d8 ca 3e 3a e1 81 3e e3 65 91 3e
       -0.88311416 0.39618528 0.25367147 0.28398046
0000c0 7e e7 ce bd 36 f3 ce bd 1b 10 71 3e 59 57 0b 3d
       -0.101027474 -0.101049826 0.235413 0.034018848
0000d0 fe f2 93 bd b0 73 d9 3d 31 5b 7b 3e de 1b 27 be
       -0.072240815 0.10617769 0.24546506 -0.16319224
0000e0 80 82 fa 3e 42 08 95 3e 32 0f db 3e c7 0f 4f bd
       0.4892769 0.29107863 0.4278503 -0.050552156
0000f0 6d 34 29 bd f6 39 c9 3e 96 77 40 3e 4b b3 54 3e
       -0.041309763 0.39302033 0.18795618 0.2077152
000100 72 2d 5b be 34 5b 60 3e 00 71 ad bd a8 bf 22 3e
       -0.21404055 0.21909791 -0.08468819 0.15893424
000110 72 5d 54 3e 9e 6f 90 bd 94 6b 2a be 5e b4 17 bd
       0.20738772 -0.07052539 -0.166426 -0.037037246
000120 a1 09 8b 3e 72 42 a9 3b 79 34 40 bd e2 d8 9b 3e
       0.27155784 0.0051653916 -0.04692504 0.30438906
000130 53 c2 0c 3d 20 79 82 3e 61 21 89 be 5c bf 5f bd
       0.03436501 0.25483036 -0.2678328 -0.054625854
000140 1a da b8 3e 3e 79 7f be ed 7a 9b 3e 06 df 0f 3e
       0.36103898 -0.24948594 0.30367222 0.1404992
000150 c1 59 08 3f ba 16 82 bd 24 8c f9 3e 45 6a 7f 3e
       0.53261954 -0.06351991 0.4873973 0.24942882
000160 1f 9b be bd 4a 59 51 be 2d 53 1b be 7e 4c 35 3e
       -0.09306931 -0.20444217 -0.15168448 0.1770496
000170 30 58 06 bf 3b 56 d5 3d 44 93 64 bd 0a d3 c8 bd
       -0.52478313 0.10416838 -0.055804506 -0.098058775
000180 56 98 5b 3e 65 75 60 3e 0e bf 8e bd 7e 55 92 bd
       0.2144483 0.21919782 -0.069700345 -0.071452126
000190 46 18 b0 3e 5e 58 a8 3e 91 73 9b 3e 72 fe 2e be
       0.3439352 0.3287992 0.30361608 -0.1708925
0001a0 ce 12 8f 3e f9 6c 02 be 06 e0 62 bd d4 e8 7a 3e
       0.27944034 -0.12736882 -0.055389427 0.2450288
0001b0 00 52 95 bd 76 8d 25 bd c1 1a 48 3e 50 fa 8a bd
       -0.07291031 -0.04041811 0.19541456 -0.067860246
0001c0 4a d9 d9 bd 28 4e 8d be a6 3e ef ba 85 15 a1 bd
       -0.10637148 -0.2759869 -0.0018252924 -0.07865433
0001d0 d4 db 35 bf 12 de 24 3f fa 5b 68 3e fe e9 81 3e
       -0.71038556 0.6440135 0.22691336 0.25373834
0001e0 5a 36 5a bd 06 33 25 bd 38 9b 8d bd 64 54 36 bd
       -0.05327449 -0.040331863 -0.06914371 -0.044514075
0001f0 ed 2e 8d 3e a8 4a a0 bd 8d 28 28 3d 97 5f d1 3e
       0.27574864 -0.078267395 0.041054297 0.40893242

pn.fc.1.weight f4 [8, 128]
000000 9a fa 02 bd ec a2 8d 3e f0 d7 89 3b f8 0b 06 ba
       -0.031977274 0.27663362 0.00420665 -0.0005113478
000010 b1 5f 89 3e fa 58 a7 bd 2b 00 68 3e d0 97 66 3e
       0.2683082 -0.08171268 0.22656314 0.2251885
000020 71 df 05 bf eb 0a 8e 3d e6 6d 93 bd 60 35 25 3d
       -0.5229407 0.06935676 -0.07198696 0.040334105
000030 82 92 54 3c 76 df 53 3d 0c 94 a1 3e 2a dc 20 ba
       0.012974383 0.05172678 0.31558263 -0.00061363226
000040 8b bd bf bd c0 e7 18 bd 9e f9 82 bd a0 92 50 3c
       -0.09362324 -0.03733039 -0.06395267 0.012730271
000050 e2 05 9f bd c0 dc 84 3e 64 00 ce bc 0f a5 dd 3d
       -0.07764794 0.2594967 -0.02514667 0.10822498
000060 50 00 58 3e b6 fd ce 3d dc b9 41 bd 65 95 76 3e
       0.21093869 0.10106985 -0.04729639 0.24080427
000070 6c 19 93 3d 22 35 d3 3b b2 16 32 3d 46 e9 97 3e
       0.07182583 0.006445543 0.043478675 0.2967016
000080 a2 57 96 3e 79 83 6c 3e a6 a4 7d 3e e3 c9 96 3e
       0.29363734 0.23097028 0.2476984 0.29450902
000090 60 1b fc 3c 83 29 27 be 7c ee aa bd e4 0d 09 3b
       0.030774772 -0.16324429 -0.083462685 0.002091282
0000a0 10 5d 56 bd 4b bb a4 be 1d 01 af 3c 77 80 61 3e
       -0.052334845 -0.32174143 0.021362836 0.22021662
0000b0 86 95 87 3e 26 b4 72 be c6 47 8c 3e 0e bc 9b be
       0.26481265 -0.23701534 0.2739851 -0.30416912
0000c0 14 7e 9e bd ff 34 e6 bc c4 82 4a bf 1c a8 59 be
       -0.07738891 -0.028101442 -0.7910578 -0.21255535
0000d0 c7 37 1c 3d 64 c3 73 be 0e 71 5b 3e 6e 4d 58 3e
       0.03813913 -0.23805004 0.21429846 0.21123287
0000e0 fe 07 6c be b3 80 82 3e 52 63 0b 3e 80 23 4d 3c
       -0.23049924 0.25488815 0.13612106 0.012520671
0000f0 24 c9 0c bd 55 e0 b6 be a4 1c 56 bd 72 d0 72 3e
       -0.03437151 -0.35718027 -0.052273408 0.23712328
000100 38 9a 32 3c f1 99 73 be 4d 10 47 bb 21 e9 6a 3e
       0.010901026 -0.23789193 -0.0030374706 0.22940494
000110 1e 38 fc bb 7a 31 45 bd 70 47 30 bd e3 84 20 3c
       -0.0076971194 -0.048142888 -0.043036878 0.009797308
000120 c2 48 8e 3e ee 27 ac be 46 51 2d 3d 03 5c 67 3e
       0.27789885 -0.33624214 0.042313837 0.22593693
000130 fc f4 1e 3e 17 d0 4c be d8 aa a4 3d 6e f2 7e bd
       0.15523142 -0.20001255 0.08040398 -0.062242918
000140 6e 08 c4 be 06 2a 20 bd 31 c0 84 be 94 41 ed bd
       -0.3828768 -0.039102577 -0.2592788 -0.11584774
000150 74 13 b5 be 0c a1 a7 bd e5 72 49 bf f6 9a 7f be
       -0.35366404 -0.08185014 -0.7869094 -0.24961457
000160 42 83 97 bd 89 37 8a be ba 9a 65 3e 53 af 49 bd
       -0.07398082 -0.26995495 0.22422305 -0.049239468
000170 8a d6 04 bd 4e 06 78 3e c8 a8 c8 bd 30 55 49 bd
       -0.032431163 0.24221155 -0.097978175 -0.049153507
000180 ef 34 8b 3e b3 33 52 3e 82 fd 7d bd be 38 fc bc
       0.27188823 0.20527534 -0.062009342 -0.030788776
000190 5c 8f 33 be 05 04 9f 3e 86 e0 34 3e 40 4b e2 bd
       -0.17535156 0.31057754 0.17663774 -0.11049509
0001a0 a3 72 db be b2 c4 78 3d 8a ef ed 3c 16 75 a1 be
       -0.42860898 0.06073446 0.029044885 -0.31534642
0001b0 f8 65 06 ba 70 8c c8 3c d2 ad cf be 99 29 99 3d
       -0.0005126889 0.024481028 -0.40562302 0.07478637
0001c0 b4 36 b8 bd a2 02 85 3d 70 3a 8c bd e9 03 8c 3d
       -0.08994809 0.06494643 -0.068470836 0.06836683
0001d0 00 56 fc bd 35 e0 c7 be d6 37 c5 bd a6 01 54 3e
       -0.12321091 -0.39038244 -0.096297905 0.20703754
0001e0 64 fc e4 bc 3e ed bd 3c d1 cf 84 3d c9 81 9b bd
       -0.02795238 0.023184415 0.0648495 -0.07593114
0001f0 c7 32 ba be 4f a7 97 bd be 3b d4 be 98 7f 71 be
       -0.36366865 -0.074049585 -0.4145183 -0.2358383
000200 36 82 42 3c ba 38 9a 3e 18 fe bf bd d1 5a 05 3d
       0.011871865 0.30121404 -0.093746364 0.032557312
000210 82 88 3c be a5 e5 d6 bc 56 0e a6 3e a7 a8 8e 3e
       -0.18411449 -0.02623255 0.32432812 0.27863047
000220 ac f1 93 bf f0 ac b7 bf c0 c1 58 bd 8a 10 b1 bd
       -1.1558127 -1.4349651 -0.05291915 -0.08645733
000230 f0 d2 ec 3c 02 9a 40 3d 25 e0 25 3d 06 5c 93 3d
       0.028909177 0.047021873 0.040496964 0.071952865
000240 16 2a db 3c e6 cf 84 3b 5c 85 e5 3c c8 1d 09 bd
       0.026753467 0.0040531037 0.028017692 -0.033475667
000250 50 a8 60 3e c2 a4 64 be 90 23 c7 bc 53 42 70 3e
       0.21939206 -0.22328475 -0.02430895 0.234628
000260 d4 d4 84 bd 8c 10 bb bd fe df 93 bd 7e fb 46 bf
       -0.06485906 -0.091340154 -0.072204575 -0.77727497
000270 ca cb af bd f4 a9 84 bc 6a 8a 9f bd 61 41 45 bd
       -0.085837916 -0.016194321 -0.07790072 -0.048158053
000280 68 ad a3 3e 38 1b 9a bd 36 8d 9a 3e 41 ee b3 bd
       0.31968236 -0.07524723 0.3018586 -0.08785678
000290 30 64 b3 3d 69 9c 25 be c4 05 35 bf 36 65 8a 3d
       0.087593436 -0.16172947 -0.7071192 0.06757586
0002a0 96 cc 06 bd 5a 92 d6 be ee 40 fd 3e e0 f2 5b bf
       -0.032909952 -0.41908532 0.494636 -0.8591747
0002b0 f0 06 0c 3e e4 f2 9d 3e 71 e1 a3 3e 79 6b 87 3e
       0.13674521 0.30849373 0.32007936 0.26449183
0002c0 a2 64 5c bc ce 2a 4f 3d ac 73 4c bf 00 68 c4 ba
       -0.013451727 0.05057793 -0.79864 -0.0014984608
0002d0 5a 5f bf bd 89 a9 15 3e 2b 14 79 3e 8f 9e eb 3e
       -0.09344359 0.14615454 0.243241 0.46019408
0002e0 c3 13 f1 3e cf 83 97 3e 54 c6 07 bf d0 37 0e 3d
       0.4708539 0.2959275 -0.53037 0.034721196
0002f0 0e 95 75 3d cb 39 9f bf cd b3 9b 3e 79 06 93 3d
       0.059956603 -1.2439512 0.30410615 0.07178969
000300 a1 cb 6b 3d 85 19 2e bf 30 6e 0d bd 50 ae e3 be
       0.057567243 -0.6800769 -0.03452891 -0.44468927
000310 fc 3a b0 bf a0 6a 7c 3d cb 61 13 3d 4f 19 50 3d
       -1.3768001 0.061625123 0.035981935 0.050805386
000320 5d 33 8c 3e f1 30 cc be ff bf 22 3d dc 63 84 3e
       0.27382937 -0.3988109 0.039733883 0.25857437
000330 79 fb 60 3e 5d af 8f be bc bb d7 bd 1a 0b 18 bd
       0.21970929 -0.2806348 -0.10533854 -0.037119962
000340 17 21 b6 bd b2 a6 45 3d 54 da 8a 3e 96 9a ca 3e
       -0.0889303 0.048254676 0.27119696 0.39571065
000350 e0 93 83 be 6c dd 01 3d c6 27 2f bf fb 98 96 3e
       -0.25698757 0.031705305 -0.68420064 0.2941359
000360 14 c8 69 bd 12 d0 d5 bd 02 8d a8 3e 43 21 45 be
       -0.057075575 -0.10440077 0.3292008 -0.1925097
000370 84 59 9d 3c 95 f4 8b 3e 36 21 b6 bd 18 bb 83 bd
       0.019207723 0.2733504 -0.08893053 -0.0643217
000380 4e a3 a1 3e 98 9b 83 3e 13 e4 94 3c 2f 1c 1a bd
       0.31569904 0.25704646 0.01817516 -0.037624534
000390 95 b2 af be dc 31 b2 3e bc 25 4a 3e b8 57 03 be
       -0.34315935 0.34803665 0.19740957 -0.12826431
0003a0 f0 ee 82 bf e1 7a 68 3e 76 5b 8d 3d 16 9a d8 be
       -1.0229168 0.22703125 0.069022104 -0.42305058
0003b0 4c 92 9a 3d 2e ce 87 bd 4d 6e 83 bf b2 5a 29 bd
       0.07547435 -0.066311225 -1.0268036 -0.04134626
0003c0 ce 8e 39 3c f2 90 bb ba ac 9b a6 bc 30 3d 8d 3c
       0.011325551 -0.0014310165 -0.020337902 0.01724109
0003d0 bb 91 a7 bd 10 6a a2 3e ce bf 40 be 25 21 d6 3e
       -0.08182093 0.31721544 -0.18823168 0.41822162
0003e0 e2 77 94 3c d5 af 4e 3b 6a 58 8c bd 5c 38 bc 3b
       0.01812357 0.003153791 -0.06852801 0.0057440232
0003f0 5d 79 64 be ce 03 1c 3c 05 88 45 bf 36 ae cc be
       -0.22311921 0.0095223915 -0.77160674 -0.39976662

pn.fc.1.bias f4 [8]
000000 be cb 36 bf 53 c8 4a c0 48 41 37 bf 5e f6 fc bf
       -0.71404636 -3.1684768 -0.71583986 -1.9762685
000010 1f a0 e3 3e b1 49 91 3f f3 3b 4d bf 26 f5 15 3d
       0.444581 1.1350614 -0.801696 0.036610745

onnx::Conv_819 f4 [32, 20, 1]
000000 27 d2 1c bd 18 2d 39 3d 36 ed cc 3a 45 53 3e 3b
       -0.038286354 0.04520902 0.0015634659 0.0029041332
000010 0a 36 1e be ac b9 b5 be 39 d9 1b bf e3 7f 1a be
       -0.15450302 -0.3549322 -0.6087833 -0.15087847
000020 81 b9 0f be 08 90 3c 3d 6c e0 00 3d 7f 89 d9 bc
       -0.14035608 0.046035796 0.031464025 -0.026554821
000030 2d 07 88 3b 7f a2 50 ba c4 58 6f bd 00 c6 ac 3e
       0.004151246 -0.0007958784 -0.058434263 0.33744812
000040 21 91 1f 3e 3d ca 6c 3e 8e 42 7d be 2e 77 ac 3d
       0.15582706 0.23124023 -0.2473242 0.08421169
000050 3a cc 07 3b 3d bd 20 3b 9b ba 8a 3a 61 ad ef 3f
       0.0020721094 0.0024526857 0.0010584177 1.8724786
000060 a4 cc 8e bd 65 20 3b bc 71 33 fb 3b fb 15 9d 3b
       -0.06972626 -0.011421298 0.0076660444 0.00479388
000070 44 5e 90 3b 01 29 8a 3c d2 4e b2 bb 35 f7 35 bb
       0.0044057686 0.016865255 -0.005441525 -0.0027765755
000080 31 3e cd 3c 98 d0 2d 3d 83 94 8c 3c c8 e0 06 be
       0.02505407 0.04243526 0.01716066 -0.13171685
000090 f9 4e 47 bc bc 8c 15 bc 61 04 9e 3b 47 f0 7b bb
       -0.012164825 -0.009127792 0.0048222994 -0.0038442777
0000a0 7f 83 f3 3c 3f f3 15 bd be 57 93 bf 71 f8 f4 3a
       0.029725788 -0.03660893 -1.1511152 0.0018689764
0000b0 c7 90 82 bd ca 5b 10 bb ed 53 71 3c d8 0e 06 3c
       -0.0637527 -0.0022027367 0.014729482 0.00818225
0000c0 c7 8e 6b 3c 83 62 75 3c 18 cc a8 bb 78 a5 a5 bb
       0.0143773025 0.0149771 -0.005151283 -0.005055126
0000d0 24 e4 36 bc 3c d9 f9 3b 74 66 ab bc c5 40 43 be
       -0.011162791 0.0076247733 -0.020922877 -0.19067676
0000e0 17 07 24 3d ca e0 a4 bc 23 18 24 3c c3 51 95 bb
       0.040045824 -0.020126719 0.01001552 -0.004556866
0000f0 04 a8 07 3d 37 41 d4 bc 36 8c 2b bc ff a5 cf ba
       0.033119217 -0.025910003 -0.010470441 -0.0015842317
000100 d8 6d 40 3e f8 f8 16 bc ac 66 67 be 09 51 94 3e
       0.18791902 -0.009214632 -0.2259776 0.28968075
000110 44 57 31 bd f2 91 8c be 73 6a 0c bd 03 1e 29 bc
       -0.043296114 -0.27455097 -0.034281205 -0.010322097
000120 ec f2 07 be af e4 c7 3d 0d 88 a6 be 29 45 29 3d
       -0.13276261 0.09760415 -0.32525674 0.041325722
000130 00 35 14 bf 14 25 a4 3f d2 85 80 3d b1 f1 f1 3c
       -0.5789337 1.2823815 0.06275524 0.029534193
000140 41 48 1d bd f3 c9 f3 3d 67 14 7e 3c 1d 5e 31 bc
       -0.038398985 0.11903753 0.015507794 -0.010825661
000150 9a 65 b4 be 5e 15 3c bd 71 a0 0c 3d 29 16 fc 3c
       -0.35233766 -0.045918815 0.034332696 0.030772286
000160 44 77 ef bf 60 49 6a 3e 7b d0 be 3b 69 7f 41 3d
       -1.8708272 0.22879553 0.0058231927 0.04724065
000170 92 0a e6 ba 92 a0 b0 b9 65 1c df bd 2a f8 72 bd
       -0.0017550758 -0.0003368897 -0.10894088 -0.0593187
000180 61 bd 94 be ae 2e 73 bd 1c 22 97 3d ee d9 77 3d
       -0.29050735 -0.05937069 0.07379553 0.06051057
000190 53 05 b6 be bb 63 d0 3e 1e 8e 0a bc 42 7e ca bb
       -0.35550937 0.40701088 -0.008456735 -0.006179602
0001a0 4c 2d 9e bd 08 fe 3f 3b 79 8b 1a 3e 6c b8 c0 bd
       -0.077234834 0.0029295702 0.15092267 -0.09410176
0001b0 6f a3 9c 3e 0d 51 be bf 8c 2e f0 3d bf fc 8a 3d
       0.3059344 -1.4868485 0.11727628 0.06786489
0001c0 ce d3 50 3c cb 81 34 3b bd 99 99 be 49 45 75 bc
       0.012745811 0.0027543183 -0.30000106 -0.014970132
0001d0 df f4 2e bf 8f 74 65 ba 8c 2a 34 3b c6 76 56 bf
       -0.68342394 -0.00087530253 0.002749118 -0.83774984
0001e0 b6 9d 79 bf 46 4f a0 3e ae 81 b2 bb e1 88 ef ba
       -0.9750627 0.3131048 -0.005447588 -0.0018275046
0001f0 67 c1 43 bd 4c 6d 42 3b db 3a b2 bd 7a 75 83 bc
       -0.047791865 0.0029667197 -0.08702632 -0.016047228
000200 cd f0 ec bd 92 70 0e 3e 0a 24 3c bd c0 fa d4 bc
       -0.115693666 0.1391013 -0.045932807 -0.025998473
000210 01 7d b5 bd e5 17 87 3d 41 1a ce be 01 a9 f5 bd
       -0.08861733 0.065963544 -0.40254405 -0.119951256
000220 bf c0 85 3d 0a 02 81 3d a0 ab 9a be ec 22 08 bb
       0.06530904 0.06299217 -0.30209064 -0.0020772768
000230 d6 e0 a9 bd 9a 16 c6 3d 5f cf c8 be ce b2 43 3b
       -0.08294837 0.0967228 -0.39220712 0.0029861215
000240 f9 c2 1d be 25 d9 8b 3e 84 82 ce 3b dc bf 85 3c
       -0.15406407 0.27314106 0.00630218 0.016326837
000250 b3 c8 83 bd 7e 01 11 3e 7d 47 22 3d 7b 27 04 bc
       -0.06434765 0.14160725 0.039618958 -0.0080660535
000260 36 a8 89 bc 4c f0 13 3d 9f a3 47 be c5 58 bd 3e
       -0.016803842 0.036117837 -0.1949601 0.36981788
000270 35 dd 0e 3e 3f 6a fd 3c c2 ce 09 bc 0a 9c 62 3d
       0.13951571 0.030934451 -0.008411111 0.05532459
000280 cf 33 25 bc 05 9c 9f 3c 2a a1 1b 3f 7c be 92 3b
       -0.010083153 0.019483576 0.6079279 0.004478274
000290 24 40 cf 3d 3e 5e 00 3a 55 ea 77 ba aa c3 18 bc
       0.10119656 0.00048968557 -0.00094572204 -0.009323994
0002a0 13 1c d0 bc 14 1b 4c 3d b7 f7 47 3c e5 d1 06 3c
       -0.025404012 0.04983051 0.012205056 0.008228754
0002b0 fa 60 51 bd 5e 78 ba 3c 51 01 e1 bd 8f e4 fe 3d
       -0.051117875 0.022762474 -0.10986579 0.12445938
0002c0 40 ea 80 3c 6c d7 29 3a d4 ad 4d 3c c3 75 21 3c
       0.0157367 0.0006478939 0.012553651 0.009854737
0002d0 6f 0a db bc 51 59 0f 3d 1b 51 21 ba a5 22 6c 3a
       -0.026738374 0.03499729 -0.0006153748 0.0009007848
0002e0 1c e8 78 bd 78 3e f5 39 ef 5e 78 38 0f 14 2a 3b
       -0.06076823 0.00046776584 5.921622e-05 0.0025951897
0002f0 db 68 78 bd f0 1a 87 3d 6f e2 62 3f 67 23 c0 bf
       -0.060646873 0.06596935 0.8862676 -1.5010804
000300 85 c7 a9 bc c0 90 96 3c df 3b 3a 3c 07 f5 18 bc
       -0.020725021 0.018379569 0.011366813 -0.009335763
000310 be d5 f5 bd 9d cf 09 3c 99 81 0f bc 93 a5 71 3b
       -0.12003659 0.008411315 -0.008758926 0.0036872372
000320 00 11 12 3d 06 45 e9 bc 79 d8 a8 3f d1 10 5a bb
       0.035660744 -0.028475296 1.3191062 -0.0033274184
000330 c8 7f c7 bc 8d 28 b0 ba 00 f1 36 3b fb 53 b9 3a
       -0.024352923 -0.001343982 0.0027914643 0.0014139408
000340 fc b2 0c 3c 24 e1 b4 3b 9a 3a 0a bc ba 75 f9 b9
       0.008587595 0.005520003 -0.008436823 -0.00047580694
000350 0e 58 e0 3c 9c 63 57 bc 16 fd 4c bc 10 e1 17 be
       0.027385738 -0.013146307 -0.012511512 -0.14831948
000360 f3 8f 6c 3d 87 65 b0 bc 0e 33 ce 3b 85 ba 6c bb
       0.05775447 -0.021532787 0.0062927073 -0.0036121916
000370 a0 1c 3d bf ca 64 f3 3d 79 2f 2e 3b f1 47 db bb
       -0.73871803 0.11884458 0.002657859 -0.0066919257
000380 77 0c 2d 3d 14 f7 1e bb ee e2 df bd 6b c9 3c bd
       0.042248216 -0.0024256157 -0.10931955 -0.046090525
000390 c2 c2 9a bd fc d3 b1 3d ba 3e a0 bc 9f e4 26 bb
       -0.07556678 0.08683011 -0.01956116 -0.0025465859
0003a0 45 f6 d5 3c 9c 9b f9 bc 75 8c 7e be 4e 91 18 bd
       0.026118407 -0.030469708 -0.24858268 -0.03724795
0003b0 08 07 36 3c bb 57 92 bd 57 47 83 3e 35 ff dc bc
       0.011110075 -0.071456395 0.25640365 -0.026977161
0003c0 97 ef 65 3d 5b e8 e5 3d b4 16 cf 3c ac 18 0e 3e
       0.056136694 0.11225959 0.02527938 0.13876599
0003d0 2b d4 58 be 72 56 1e 3e d3 a0 90 3c 09 05 32 3c
       -0.21174686 0.15462664 0.017654812 0.010865458
0003e0 2a 77 f6 bc ae 8d e9 3c 40 6c e7 38 c5 46 7c bb
       -0.030086119 0.028509941 0.000110351015 -0.003849433
0003f0 5c 8c 02 3e 77 b7 d8 be 04 42 a0 3c c5 4c 84 3e
       0.12748855 -0.42327473 0.019562729 0.2583982

onnx::Conv_820 f4 [32]
000000 64 d5 87 40 2a 29 e0 3e 9b 1b 95 3f 24 d9 2b c1
       4.2447987 0.43781406 1.164905 -10.740513
000010 a4 3d 99 c0 a7 64 07 bf 7b fd 52 40 6f cc a0 40
       -4.7887745 -0.5288796 3.2967212 5.0249553
000020 40 65 ae 40 a0 d4 c4 3e 50 cd 88 3e c6 f0 12 40
       5.4498596 0.3844347 0.2671914 2.2959456
000030 73 83 4f bf ed 04 27 c0 c4 13 2f 40 0b e2 25 be
       -0.8105995 -2.6096756 2.7355814 -0.1619951
000040 3b f9 d0 3d c9 f7 db 3f 8a ea 6e 40 bd 8c 35 40
       0.10203787 1.7184993 3.7330651 2.836715
000050 f2 c2 d1 bf 72 9a d4 3f 9a d8 36 40 fd df 0c 3e
       -1.6387618 1.6609633 2.8569703 0.1375732
000060 98 1a f6 40 7c 0a 1f 41 fe 17 8d c0 ce 84 9e 40
       7.6907463 9.94006 -4.4091787 4.9537115
000070 b5 09 b5 bf af 16 fb be 84 67 81 40 e0 fd 11 bb
       -1.4143587 -0.49040744 4.043886 -0.0022276565

onnx::Conv_822 f4 [32, 11, 1]
000000 7a 03 08 be cb be 34 3f 08 fa ef bc fa 3b da ba
       -0.13282576 0.70603627 -0.029294029 -0.0016649954
000010 b0 de 9e 3d d0 b3 2a be d1 56 be 3c 01 b7 21 3b
       0.07757318 -0.16670156 0.023234757 0.002467573
000020 67 cb c6 39 2b 0f c6 bc 54 8a 84 3c 90 e7 9b 3a
       0.0003791705 -0.024177155 0.016179241 0.0011894573
000030 b5 c0 e1 3c 61 4d 9e 3b 6f cb a3 3f 3c 42 dc bc
       0.02755771 0.0048310016 1.2796458 -0.026887052
000040 88 5c f9 3b 91 95 f5 bb 6d 36 3b 3b 2f 40 3e 39
       0.0076099075 -0.0074946363 0.0028566376 0.00018143722
000050 ce e9 75 bc 09 23 0d bc 7e f9 d1 bd ac f9 08 3e
       -0.015009357 -0.00861431 -0.10252665 0.13376492
000060 32 6f cb be fd 07 25 3c eb ca 87 3b 1f 52 81 3d
       -0.39733273 0.010072705 0.0041440628 0.063144915
000070 85 54 07 3d 10 28 65 3b e8 12 82 3b 43 a3 57 bd
       0.03303959 0.0034966506 0.003969539 -0.052645933
000080 d0 b4 32 3c cf 26 86 bc c4 54 e3 3d 43 eb d5 3a
       0.010907367 -0.016375927 0.11100152 0.0016320724
000090 f5 53 b5 bb 06 82 aa 3d f2 f3 b4 3d 3c 04 76 3d
       -0.00553369 0.08325581 0.088355914 0.060062632
0000a0 ac 1f 2f 3d 4e 28 57 bc 9e dd a4 bd 07 4c 6a bf
       0.042754814 -0.013132168 -0.080500826 -0.9152226
0000b0 aa 40 0e 3d 31 4d a5 bd 3c 54 8e 3b b9 01 37 3b
       0.034729637 -0.08071364 0.0043435376 0.002792461
0000c0 65 64 0a bd 6b e1 9a bb e8 1d b3 3c 24 77 05 bf
       -0.03378715 -0.004726579 0.021864846 -0.5213492
0000d0 8a ac c2 3a 96 f3 12 3d 90 51 85 3a 3c 7f fd be
       0.0014852446 0.035876833 0.0010171402 -0.49511135
0000e0 be 6f af 3e ff ec e0 bc 56 33 32 bb d3 37 35 3e
       0.3426494 -0.027456759 -0.0027191243 0.17697076
0000f0 fd bc ec bd 63 cd 26 bd bf 66 5c 3d db d5 87 3b
       -0.11559484 -0.040723216 0.053808924 0.0041453666
000100 08 5c 27 3e f4 05 4d 3c 0f cd b4 bb c1 74 84 3d
       0.16343701 0.012513626 -0.005517609 0.064675815
000110 dd c2 0e 3c fa 1c 13 3c 9e 2d 0e be b5 bf 07 3c
       0.008713451 0.0089790765 -0.13884589 0.008285453
000120 ab 65 1b bf dd 96 8c bd 82 5a e2 bc 6e e0 af bc
       -0.6070201 -0.068647124 -0.027631048 -0.021469321
000130 0f 1b 99 be 5b 51 85 3c 52 c3 45 bc 32 0e da be
       -0.29903457 0.016274145 -0.012070494 -0.42588955
000140 2d 98 f5 ba 96 5e b5 bc ec a1 51 bc ac 1a b3 bb
       -0.0018737369 -0.022139829 -0.012794953 -0.005465826
000150 c3 59 13 3c 15 d1 d5 bb 33 ac ce ba d4 38 72 bc
       0.008993569 -0.0065251687 -0.0015767872 -0.014784057
000160 c9 e9 6d bd 5b df 2f 3d ed 7a b5 3e 4f 5b 95 ba
       -0.058084283 0.042937618 0.35445347 -0.001139501
000170 a8 48 5a 3d 05 c6 49 3c 36 62 07 3d 17 98 cf bb
       0.053291947 0.012315278 0.033052646 -0.006335269
000180 f9 91 0e ba f4 be 94 bc 4b fa 6a 3c 36 65 87 3a
       -0.0005438622 -0.01815746 0.014341901 0.0010329846
000190 ee 71 9a 38 cb 4b 23 3b d8 86 25 b9 85 f4 3c 39
       7.364513e-05 0.0024917002 -0.0001578586 0.00018020168
0001a0 e9 81 a1 39 c9 ca a2 b9 a9 90 64 bb 44 1c 7c b9
       0.00030805104 -0.00031050135 -0.0034876263 -0.00024043123
0001b0 72 62 73 ba 18 a8 97 b8 4d 7c f9 bb ac b8 96 3c
       -0.0009284384 -7.231551e-05 -0.0076136948 0.018398605
0001c0 0b c9 17 3f 49 27 43 b9 0e f2 26 3d 28 d0 bb 3c
       0.5929114 -0.00018611284 0.040758185 0.022926405
0001d0 4b 63 1e bd 5b 00 87 3b a1 85 84 3b 42 0f 31 3c
       -0.038668912 0.0041199154 0.00404425 0.01080686
0001e0 59 98 58 bc 46 59 3d bc 49 d2 f3 3b 19 e8 da bb
       -0.013219916 -0.011556929 0.0074408394 -0.0066805
0001f0 cf 85 55 ba 53 95 00 bc 61 22 9b 3e 12 ed 4a 3d
       -0.0008145244 -0.007848102 0.30299667 0.049542494
000200 6f d1 01 3d 14 d8 96 ba bd 4e a9 3c f4 1c 24 bd
       0.031693872 -0.0011508488 0.020667428 -0.040066674
000210 41 cf 10 be ee 00 43 3d 60 92 29 bc d2 6f 6a 3d
       -0.14141561 0.04760831 -0.01034984 0.057235546
000220 46 48 aa bd 6c 98 13 3d 27 f0 43 be 77 a2 48 bf
       -0.08314566 0.036034033 -0.1913458 -0.783729
000230 6b 6f 99 3c 5b 1f 8b be e5 20 d3 bc 06 07 8b bc
       0.018729886 -0.2717236 -0.025772521 -0.016971122
000240 9f cd 41 3d 5e d3 b8 b9 ad 52 c1 bb 1e ec fd bd
       0.047315236 -0.00035252696 -0.0058997483 -0.123985514
000250 66 c9 1d 3d 76 e0 5e be 57 36 ad 3d e4 53 55 be
       0.038522147 -0.21765313 0.0845763 -0.20832783
000260 3f aa 27 bf 6e b1 28 c0 39 a1 ba ba 74 8f 0e bc
       -0.6549415 -2.6358294 -0.0014238722 -0.008701194
000270 41 77 e0 39 38 5e a9 bb e0 dc 37 bc 61 11 81 3b
       0.0004281346 -0.0051687025 -0.011222094 0.0039388393
000280 3f 4f 32 bb a3 45 8b bc e0 20 d7 ba cf d0 57 bc
       -0.002720788 -0.017000979 -0.0016412996 -0.013172342
000290 dc 01 eb bb df e8 13 3b c2 65 c8 bc 32 ef 31 3b
       -0.0071718525 0.0022569222 -0.024462584 0.0027150628
0002a0 3d b1 12 bb 68 53 cc bc 21 24 d4 3b d3 83 28 3b
       -0.0022383474 -0.024942115 0.0064740335 0.002571334
0002b0 5a 55 a9 bc bb 98 95 3b 16 3f 81 bc 16 2f 92 bc
       -0.020670582 0.004565326 -0.015777152 -0.017844718
0002c0 48 93 cc bb 5c d1 eb 3a 59 be aa bd cf 02 dd 3b
       -0.006243143 0.0017991471 -0.08337087 0.0067447196
0002d0 aa 89 24 bc 03 8a 39 bb 2e 38 dc bb f2 7a 2b bb
       -0.010042587 -0.002831102 -0.0067205643 -0.002616581
0002e0 bc 50 c8 39 23 0c 25 3c 10 96 47 3b 84 4e 25 ba
       0.00038207124 0.010073694 0.0030454434 -0.000630595
0002f0 f0 2b 33 3d 8a 47 56 b9 50 ef ac b9 f6 c4 1f 3e
       0.043743074 -0.00020435281 -0.00032984698 0.15602478
000300 10 dd af 3c ad 13 9e 3c 2e 0a 16 3e 94 a7 da bd
       0.021467716 0.019296492 0.1465232 -0.10676494
000310 7e 2a 74 bf 6e 1a 24 c0 71 6d d0 3d 51 77 03 3e
       -0.9537734 -2.5641131 0.10177124 0.12838484
000320 83 18 9c bc 5a 2d df ba 20 68 02 bd 71 b0 92 3d
       -0.019054657 -0.0017027066 -0.031837583 0.0716256
000330 fa ea 1b bd c5 a7 b3 3d 4f d2 c3 ba be 46 b2 3c
       -0.038065888 0.08772234 -0.0014939996 0.021762248
000340 87 9d a1 3c 51 af 98 bd 9c 37 3e 3e 4c 1b db 39
       0.019728435 -0.07455314 0.18575901 0.00041791273
000350 ba 15 ff 3a 50 92 0a 3e 11 63 31 3d 21 25 0d 3d
       0.0019461431 0.13532376 0.043307368 0.034459237
000360 c6 81 9a be 28 b0 66 bc b8 21 6f bd 7a 4a 26 bf
       -0.30177134 -0.014080085 -0.058381766 -0.6495739
000370 9b 45 77 bc 78 bf 40 bd b7 74 8a 3c 54 be 80 3b
       -0.015092279 -0.0470576 0.016901357 0.003928939
000380 b0 7a ed 3d 2c 9e c4 3e b1 ac 1c be 17 21 92 3e
       0.115956664 0.38401926 -0.15300252 0.2854087
000390 91 8f 00 3c 24 4b d0 bc 4a 5a c8 3d 60 e2 ac bd
       0.007846729 -0.025426455 0.09782846 -0.08441615
0003a0 a8 d9 02 bc d7 59 14 bb 94 3f a7 3a 8b 45 e7 3d
       -0.007986464 -0.0022636557 0.0012760037 0.11292561
0003b0 eb a8 3b bd 0e 88 c1 bd 57 96 2b bd 24 d0 39 bb
       -0.04581539 -0.094497785 -0.041891422 -0.0028352821
0003c0 34 97 9f 3d 43 e7 c3 3d 1e 28 b1 3c 30 85 4f 3c
       0.077925116 0.09565594 0.021625575 0.012666032
0003d0 e8 d7 20 bc b2 ff b0 ba 89 94 00 3e 03 9b 60 bd
       -0.009817101 -0.0013503938 0.12556662 -0.05483533
0003e0 a6 58 12 3d 1e 12 8c bd 81 7e f6 3a 4d c4 6c bc
       0.035729073 -0.06839393 0.0018806012 -0.014451099
0003f0 fe 3b 39 3c 47 a6 a5 bc 85 b5 d7 3c 2a 0d 4e 3c
       0.011305807 -0.020220889 0.026331672 0.012576381

onnx::Conv_823 f4 [32]
000000 8a 8d 9b 40 71 c3 5b 3f 5b ec 9b 40 64 8b 2e 41
       4.8610277 0.85845095 4.872602 10.909031
000010 57 b0 88 41 9b 78 18 41 78 0b e5 bf 77 54 3c 3f
       17.086103 9.529445 -1.7894125 0.73566383
000020 ed 9b f8 40 09 90 c3 be d4 97 da 3f 18 14 c1 3f
       7.769034 -0.38195828 1.7077584 1.5084257
000030 b9 c2 23 bf 48 46 86 c0 46 db 34 bf 7f 9a 2b bf
       -0.63969 -4.1960793 -0.70647085 -0.6703262
000040 6b 69 dc 3c 92 a9 b9 3f 0d 4e 4a 3f 6b ee 1a 40
       0.026905736 1.4504874 0.79025346 2.4208019
000050 11 71 92 40 fb 82 97 40 4f 85 20 40 6e a7 90 3f
       4.576302 4.734739 2.5081365 1.1301095
000060 73 c0 39 c0 99 dd 54 40 4a d1 4c 40 9f 02 8b bf
       -2.9023712 3.3260252 3.200274 -1.0860175
000070 9c 0f 6f 41 d4 44 33 40 5f c4 3a c0 f0 f3 f4 3f
       14.941311 2.801076 -2.9182355 1.9136944

onnx::Conv_825 f4 [64, 64, 1, 1]
000000 5c b8 16 be d2 e3 d9 3d 6d ac 7c bd 14 96 28 be
       -0.14718765 0.106391564 -0.061687876 -0.164635
000010 2b 19 b1 3e 99 f2 94 bd 5f cb eb ba e9 10 85 bd
       0.34589514 -0.07272834 -0.0017989686 -0.06497366
000020 8d c9 6d bd dc 3f 9b bc e2 53 07 bd bb be e1 bd
       -0.058053542 -0.018951349 -0.03303898 -0.11022707
000030 20 d7 13 3e 02 a9 cc 3d 4e 4c d1 3c 2b 9b 23 3e
       0.14437532 0.09993173 0.02554908 0.1597716
000040 53 8f 66 3d 0c 02 89 3d 88 2d cd bd 12 f8 ec bd
       0.05628903 0.066898435 -0.1001845 -0.11570753
000050 c1 33 f2 bd 2c 15 28 3e c0 1d 45 3e a9 fc 16 3e
       -0.118262775 0.16414326 0.1924963 0.1474482
000060 fb a8 a9 bd ac a4 16 be fd 76 f7 3d 21 3f 15 3e
       -0.082841836 -0.14711255 0.12083242 0.14574863
000070 ba 3e ae 3e bd b4 93 bb e0 f1 06 3d b8 d6 95 bd
       0.34032232 -0.0045076297 0.032945514 -0.07316345
000080 31 b7 33 be df b1 a6 be 99 13 9d be c8 00 45 be
       -0.1755035 -0.3255758 -0.30679014 -0.1923858
000090 84 30 c8 3d 4c 19 29 be 27 24 89 be 8f 19 b0 be
       0.097748786 -0.16513556 -0.26785395 -0.343945
0000a0 15 c8 94 bd 64 3e a5 3d d2 ae 9d be f3 c6 79 3e
       -0.07264725 0.08068541 -0.3079744 0.243923
0000b0 5d 12 ea bc 5a 0d d0 bc be 5a 83 bd 07 3e fe 3d
       -0.02857321 -0.025396992 -0.06413792 0.124141745
0000c0 99 d2 01 3c 9b 38 c3 bd 19 68 cd 3d cb da 09 be
       0.007923746 -0.09532281 0.10029621 -0.13462369
0000d0 b9 df a2 3b 94 6a 14 3e b0 3a 95 3d 45 eb a1 be
       0.0049705175 0.14493781 0.072865844 -0.3162481
0000e0 ab 05 94 bd a7 67 eb ba b5 30 ec bc ed a5 37 3e
       -0.072276436 -0.0017959968 -0.02883182 0.1793439
0000f0 14 21 8c 3e 9d 03 01 be 5e 7f c0 3d c9 37 0a 3e
       0.27368987 -0.12599035 0.09399293 0.13497843
000100 36 6c 28 3e e5 86 53 3d b7 e9 9c ba c8 7c 8d be
       0.16447529 0.051642317 -0.0011971508 -0.27634263
000110 6b 23 27 3e 4e 7d df 3c 44 87 52 3e 5b 09 4e 3e
       0.16322105 0.02728143 0.20559412 0.20120756
000120 f7 bc 89 bd a2 62 af 3e b0 5c ce 3d ab dc 8d 3e
       -0.06725495 0.34254938 0.100762725 0.2770742
000130 e7 af 37 3e 46 02 0e 3e 29 fb 87 bd 91 26 8c be
       0.17938195 0.13868055 -0.06639702 -0.27373174
000140 f0 0a 45 3e 07 39 08 be 54 d1 ba 3e 91 1d 8b bd
       0.19242454 -0.13303004 0.3648783 -0.06792749
000150 62 5a 35 be 70 e2 f5 be 2d 5a 7a be 80 68 b4 3c
       -0.1771026 -0.4802432 -0.24448462 0.022022486
000160 c3 27 d9 3d a4 31 80 3c ad 85 36 3e ec 84 d5 bc
       0.10603287 0.01564867 0.17824431 -0.026064359
000170 ff 04 81 be a5 23 63 bc 70 b4 e1 3c ac 68 3f 3e
       -0.25199124 -0.013863479 0.02755186 0.18692273
000180 20 75 53 3e e3 9f 24 3e 90 c5 9d 3e 91 c1 fa be
       0.20650148 0.16076617 0.3081479 -0.48975804
000190 dc 11 e0 3e 7d 5d d6 3d 7b c9 92 3e fc 8b da 3e
       0.43763626 0.1046705 0.28669342 0.42684925
0001a0 fa c9 83 3e 2f 05 e6 3e 2b f9 40 3e 97 7d 2d 3e
       0.25740033 0.4492583 0.1884505 0.1694244
0001b0 10 b7 7b 3e b8 4b 06 be 3b c7 0c bd de d1 80 be
       0.24581552 -0.13114822 -0.03436969 -0.25160116
0001c0 50 bd 8a 3e 86 6e 3d be 10 1c ba 3e a8 34 77 3d
       0.2709756 -0.18499193 0.36349535 0.06035295
0001d0 56 28 7f be db 64 f1 be ad f5 4f be fe 61 f4 3d
       -0.2491773 -0.4714726 -0.20308562 0.11932753
0001e0 28 0b c3 3d fe 2d a1 bd f2 b1 da 3e 4f 6b 7a be
       0.09523612 -0.078701004 0.42713886 -0.24454997
0001f0 de 9f 0d 3d 26 a8 22 3d bd 63 11 be 83 43 18 3e
       0.03457629 0.03971114 -0.14198203 0.14869504
000200 f2 96 f8 bd e0 06 bc 3d 77 d2 1c 3d 6a 9a d0 bd
       -0.121381655 0.09180999 0.038286652 -0.10185702
000210 00 ac 9b 3c ce 59 25 bb 79 5d 42 bd 88 4c 76 3d
       0.019002914 -0.002523053 -0.047452424 0.06013158
000220 c6 2d 4e 3c 66 e2 dc bd 71 ef 25 3d d7 b4 a9 bd
       0.012584155 -0.107853696 0.040511552 -0.082864456
000230 82 b6 6e 3e 5a 1c 1a be cb f8 8a 3d 46 99 1c be
       0.23311809 -0.15049878 0.06785735 -0.15292844
000240 85 e6 a2 bd 30 eb 09 be 3f 4d ce bd b0 43 f1 bd
       -0.07954124 -0.13468623 -0.10073327 -0.117804885
000250 b9 21 fa bc c0 17 a2 bd 78 fa b9 bd 50 a2 ee 3d
       -0.030533658 -0.07914686 -0.09080976 0.116520524
000260 13 1a 5a 3d a6 94 02 bc 43 00 35 3e 74 6d 03 3f
       0.053247523 -0.007970011 0.17675881 0.5133889
000270 a1 cb ba 3e ce 42 95 3c 20 f9 49 3c 79 51 a5 bd
       0.36483482 0.018220332 0.012327462 -0.0807218
000280 7b 7b b3 bd 89 9c 52 3b 11 02 45 bd 18 b1 9b bb
       -0.087637864 0.003213676 -0.048097674 -0.004751336
000290 57 02 c4 3c 3a 4b 4f bd 99 0b 8b bd 1f c9 80 bd
       0.023926897 -0.05060885 -0.067893215 -0.06288361
0002a0 da 2f cc bc 9c be c6 bd 61 d1 68 bc c0 c8 a6 bd
       -0.024925161 -0.097043246 -0.014210076 -0.08143759
0002b0 3b 59 63 3e 42 5b 08 be df 41 25 3d ee c0 d9 bd
       0.22202007 -0.13316062 0.040346023 -0.106325015
0002c0 b4 bc 04 be 2d 14 b8 bd 81 df 4c bd 0f c6 8f bd
       -0.1296261 -0.08988223 -0.050017837 -0.070201986
0002d0 72 57 82 bd 10 bb a9 bd ee 4f 90 bd 71 98 53 3d
       -0.06364335 -0.082876325 -0.070464954 0.05165905
0002e0 55 88 8b 3d 65 3e 9a 3d f9 f3 38 3e c6 c9 06 3f
       0.06813113 0.07531432 0.18061818 0.5265163
0002f0 b5 62 da 3e da 73 67 bd 62 8c 50 3c a0 d1 40 bb
       0.42653432 -0.05650697 0.012728782 -0.0029421821
000300 2a 45 c0 3d 74 b5 2c 3d e1 ce c9 bc ec cc b0 3c
       0.09388192 0.042165235 -0.02463478 0.02158209
000310 af 11 07 bb e5 e6 9b be 97 25 8b bc 76 53 ba 3b
       -0.0020609905 -0.30449596 -0.016985698 0.005686219
000320 5c cd 0b bd 64 6c 80 bf b9 db d0 3b d2 21 66 bd
       -0.034131393 -1.0033078 0.006373849 -0.056184597
000330 1d 4b 29 3d 80 7e c8 bd 5b f3 f8 bd 33 b9 f5 bd
       0.0413314 -0.09789753 -0.12155791 -0.119982146
000340 41 52 f1 bd c6 f7 3d bd 9f fa 58 bc 41 24 a4 bd
       -0.11783267 -0.046378873 -0.0132433465 -0.080147274
000350 50 b1 9a 3d fb 90 4f bd b9 17 d0 bd 53 ae 4a 3d
       0.07553351 -0.050675374 -0.10160775 0.049482655
000360 51 a6 4c bd 4a c7 a8 3b 67 0d 84 be 58 8d 9e 3d
       -0.0499633 0.00515071 -0.25791475 0.07741803
000370 0f f6 c8 bd f4 8b 68 be d0 a5 81 3e fa 3e 63 bd
       -0.09812557 -0.22709638 0.25321817 -0.05547998
000380 a0 5f 74 3e 97 70 dc 3c b1 65 07 bd e5 73 a7 bd
       0.23864603 0.026909156 -0.033055965 -0.08176402
000390 c7 ec 79 b9 06 f0 84 be 3e da 64 bd d7 0a 60 3d
       -0.00023834697 -0.25964373 -0.055872194 0.054697838
0003a0 87 4d a0 3b 44 24 c7 3e 8a d8 83 bc ac 00 9a bd
       0.0048920545 0.38894856 -0.016094465 -0.075196594
0003b0 7e 03 04 bd 99 e8 ae 3d f8 d5 8e 3d f1 72 c9 bd
       -0.032229893 0.08540458 0.06974405 -0.098363765
0003c0 ad 7f 15 bd 0e 75 dc bd 33 2e 35 bf b8 81 7a bd
       -0.036498714 -0.10764514 -0.7077362 -0.061158866
0003d0 b2 e3 a2 3e b7 5c ab 3d 75 80 98 bd 1d b8 a3 3c
       0.31814343 0.08367293 -0.07446376 0.019985253
0003e0 be b0 f5 3c da bc 6b 3e 1b 0c 8c be 0a 31 01 3e
       0.029991504 0.2302126 -0.27352986 0.12616363
0003f0 55 cd 72 bd 61 98 2e be 26 28 aa 3e b7 d8 93 bd
       -0.05927785 -0.17050315 0.33233756 -0.072190695

onnx::Conv_826 f4 [64]
000000 56 b7 be c0 f7 10 ca c0 38 eb 09 c0 d2 2b c0 3f
       -5.95988 -6.314571 -2.1549816 1.5013373
000010 04 67 ec c0 cb b2 8c c0 e6 6f 1a 40 cb 1c 10 40
       -7.387575 -4.3968253 2.4130797 2.2517574
000020 e6 82 84 40 4a de 23 bf 48 e1 6a c0 70 c6 5d bf
       4.140979 -0.6401106 -3.67 -0.86630917
000030 83 7d 08 3f 19 56 45 3f 29 42 51 c0 1b 4d 0c 40
       0.53316516 0.770845 -3.269663 2.1922061
000040 80 23 5a 3f 95 d0 93 3f 30 2d 0f 40 da 63 8d 40
       0.8521042 1.1548029 2.237133 4.418439
000050 00 18 b3 40 00 89 9d bd e0 9c 4b c0 ee 4d 86 3f
       5.5966797 -0.07692146 -3.18145 1.0492532
000060 ff e5 a4 c0 c2 fc 47 c0 cc 4b 3a bf b8 59 a4 3f
       -5.1530757 -3.124802 -0.72771907 1.283988
000070 80 1a fb bd e3 80 8f 40 6f 78 e7 bf b0 d0 5c c0
       -0.12260914 4.4844832 -1.8083628 -3.4502373
000080 1c 9f 00 40 f0 de 19 be 32 00 1a 40 e0 4b 8f bf
       2.0097113 -0.1502645 2.406262 -1.119503
000090 d1 cc 5a c0 5c 0f 56 bf d8 86 a9 c0 94 ef 2b 40
       -3.418751 -0.83617187 -5.2977104 2.6864977
0000a0 0c c0 0d 40 9d 78 35 40 85 d1 f4 bf 9b 75 a7 c0
       2.2148466 2.8354867 -1.912644 -5.233106
0000b0 3a 25 bb c0 38 00 2f c0 58 cd 23 40 d6 e7 d6 40
       -5.8482943 -2.7343884 2.5594082 6.7158003
0000c0 76 64 ac 3f 1a 1b a0 bf 4e 0c 1b 3f 28 66 da 3f
       1.3468158 -1.2508271 0.6056565 1.7062426
0000d0 78 dd 9b c0 20 fa a3 3e b5 0f 7b 40 90 61 49 3e
       -4.8707848 0.32026768 3.9228337 0.19666123
0000e0 e6 cf 61 40 5c 1d 24 be 54 c0 b5 c0 e0 3f c9 3c
       3.528314 -0.16026825 -5.6797276 0.02456659
0000f0 40 15 7f 3e e0 f7 96 be 80 1d ce 40 88 cd c0 3f
       0.2491045 -0.2948599 6.441101 1.5062723
