models/particlenet_AK4/1/model.onnx (onnx, 946165 bytes, 42 tensors)

pf_conv.conv.0.running_mean f4 [20]
00000000: 0000 0000 0000 0000 0000 0000 0000 0000
00000010: 0000 0000 0000 0000 0000 0000 0000 0000
00000020: 0000 0000 0000 0000 0000 0000 0000 0000
00000030: 0000 0000 0000 0000 0000 0000 0000 0000
00000040: 0000 0000 0000 0000 0000 0000 0000 0000
0.0 0.0 0.0 0.0 0.0 0.0 0.0 0.0
0.0 0.0 0.0 0.0 0.0 0.0 0.0 0.0
0.0 0.0 0.0 0.0

pf_conv.conv.0.running_var f4 [20]
00000000: 0000 803f 0000 803f 0000 803f 0000 803f
00000010: 0000 803f 0000 803f 0000 803f 0000 803f
00000020: 0000 803f 0000 803f 0000 803f 0000 803f
00000030: 0000 803f 0000 803f 0000 803f 0000 803f
00000040: 0000 803f 0000 803f 0000 803f 0000 803f
1.0 1.0 1.0 1.0 1.0 1.0 1.0 1.0
1.0 1.0 1.0 1.0 1.0 1.0 1.0 1.0
1.0 1.0 1.0 1.0

pf_conv.conv.0.weight f4 [20]
00000000: 0000 803f 0000 803f 0000 803f 0000 803f
00000010: 0000 803f 0000 803f 0000 803f 0000 803f
00000020: 0000 803f 0000 803f 0000 803f 0000 803f
00000030: 0000 803f 0000 803f 0000 803f 0000 803f
00000040: 0000 803f 0000 803f 0000 803f 0000 803f
1.0 1.0 1.0 1.0 1.0 1.0 1.0 1.0
1.0 1.0 1.0 1.0 1.0 1.0 1.0 1.0
1.0 1.0 1.0 1.0

pf_conv.conv.0.bias f4 [20]
00000000: 0000 0000 0000 0000 0000 0000 0000 0000
00000010: 0000 0000 0000 0000 0000 0000 0000 0000
00000020: 0000 0000 0000 0000 0000 0000 0000 0000
00000030: 0000 0000 0000 0000 0000 0000 0000 0000
00000040: 0000 0000 0000 0000 0000 0000 0000 0000
0.0 0.0 0.0 0.0 0.0 0.0 0.0 0.0
0.0 0.0 0.0 0.0 0.0 0.0 0.0 0.0
0.0 0.0 0.0 0.0

sv_conv.conv.0.running_mean f4 [11]
00000000: 0000 0000 0000 0000 0000 0000 0000 0000
00000010: 0000 0000 0000 0000 0000 0000 0000 0000
00000020: 0000 0000 0000 0000 0000 0000
0.0 0.0 0.0 0.0 0.0 0.0 0.0 0.0
0.0 0.0 0.0

sv_conv.conv.0.running_var f4 [11]
00000000: 0000 803f 0000 803f 0000 803f 0000 803f
00000010: 0000 803f 0000 803f 0000 803f 0000 803f
00000020: 0000 803f 0000 803f 0000 803f
1.0 1.0 1.0 1.0 1.0 1.0 1.0 1.0
1.0 1.0 1.0

sv_conv.conv.0.weight f4 [11]
00000000: 0000 803f 0000 803f 0000 803f 0000 803f
00000010: 0000 803f 0000 803f 0000 803f 0000 803f
00000020: 0000 803f 0000 803f 0000 803f
1.0 1.0 1.0 1.0 1.0 1.0 1.0 1.0
1.0 1.0 1.0

sv_conv.conv.0.bias f4 [11]
00000000: 0000 0000 0000 0000 0000 0000 0000 0000
00000010: 0000 0000 0000 0000 0000 0000 0000 0000
00000020: 0000 0000 0000 0000 0000 0000
0.0 0.0 0.0 0.0 0.0 0.0 0.0 0.0
0.0 0.0 0.0

pn.fc.0.0.weight f4 [128, 256]
00000000: b062 3d3c fc5a 2d3d 40ee d3bb a093 52bc
00000010: 4610 71bd 4038 5dbd 4e9f 563d 163a 22bd
00000020: e8cd adbc 20d6 3f3b e67f 7fbd d40a 3fbd
00000030: 5607 083d b87b ad3c 70f4 673c 0003 583b
00000040: 2033 a1bc 4878 013d d8f9 b6bc 8481 dd3c
00000050: 58b7 a53c 902b f93b 4cf2 22bd aeb6 2fbd
00000060: 7082 b93c 805b fcba 38ae 51bd d0e1 0cbd
00000070: 1eed 173d 382f 253d c6a2 0d3d a0df fd3b
00000080: 2896 f6bc a0f8 493c 44b1 35bd e0c9 3fbd
00000090: a898 96bc dcac 653d 3889 e3bc 9840 663d
000000a0: 644a acbc 7c32 3b3d 405e d43c c88d 64bd
000000b0: f42a 23bd 7cfa 1e3d 6e98 163d 5c63 3abd
000000c0: 9046 423c 206b aebc 7a5c 25bd c896 b03c
000000d0: c89b cebc f4fa 1b3d 4a2d 03bd 8c6d ec3c
000000e0: 2ef7 153d a018 25bd b0ed d53b bc12 e53c
000000f0: 5880 59bc 664c 69bd 8032 42bb 0aee 413d
00000100: 9c89 d63c 40cd 6cbb 8048 be3b a83c 2e3d
00000110: d4dd 763d 2012 d5bc 301a 6fbc 72b2 363d
00000120: 08d2 16bc 6e3e 373d 7a3d 61bd c05e 00bb
00000130: 7042 bcbc 565f 083d 24b6 c13c 8e16 213d
00000140: 481d 883c e8bc a93c 409a 023d 761e 703d
00000150: 5e21 7ebd b664 323d 7043 d8bc d496 163d
00000160: 12a0 3bbd 3857 44bc 52d3 6f3d 2008 a5bb
00000170: 3e68 2abd c0d5 aabc 726a 593d faf3 61bd
00000180: 06a4 0dbd 82e2 42bd 7859 03bc 647a 033d
00000190: 2811 57bd f871 96bc a434 94bc 0073 0e3c
000001a0: 02ab 40bd 50ec 13bc 3892 513d c092 c8bc
000001b0: 6c5a 9fbc 5efd 523d dcca a73c 12a7 683d
000001c0: 3e51 6abd 166a 423d 269c 3a3d 4ed3 363d
000001d0: 98d5 1bbc 680f 543d 5e9d 233d 7c72 72bd
000001e0: 48dc eebc 08f5 16bc 82fc 483d c086 babc
000001f0: 3eee 3dbd 5cfd c53c b8df 30bd 3026 063c
00000200: da3c 0c3d e4c4 24bd ec88 95bc 3c24 4dbd
00000210: 8069 f13b 00d9 6fbc 986b 463d c8c1 733c
00000220: 14d3 613d d00a 643d 6886 a03c e0c7 6d3b
00000230: 0856 5c3d 1045 cebb d8c1 993c 2c09 173d
00000240: 805f 193b be12 3b3d 0cdc e23c 28ae 6fbc
00000250: faf1 053d 58ad 7cbc 52ad 793d d6c9 1e3d
00000260: 8668 7fbd ae2e 64bd 54b8 8f3c 5428 1a3d
00000270: 9029 b33c 0421 0bbd 200e 9d3c 0a39 56bd
00000280: e8a1 c03c c031 5d3c f0ac 93bc 109e 8dbc
00000290: 1040 21bc 0087 553c caa8 1ebd 8894 383d
000002a0: 04a5 2f3d 7816 e9bc 305f 34bc 7e3d 113d
000002b0: 2a82 1ebd 4443 92bc 94de e23c d64c 783d
000002c0: c820 c5bc 681d 713d 0819 133c e0ec 68bd
000002d0: 882d 7d3c 80f6 aeba 96f9 67bd 24c3 103d
000002e0: 5ca6 6ebd 403e a13b b07f 94bb 18a2 603c
000002f0: 6874 c2bc 8252 30bd 485f 3dbc 8c87 633d
00000300: c83c a0bc e056 153d 38b8 683c d061 bb3b
00000310: 3892 e53c c01a 3bbc 7ee2 08bd dafd 5fbd
00000320: cc8e ca3c ecf2 933c 52c2 5dbd 0083 233b
00000330: 70d1 6a3c b045 05bc 7a0a 013d cc91 2bbd
00000340: 282d 353c cab1 72bd 503c c0bb dcc1 633d
00000350: 9c4a 983c fe4e 383d d859 3abd ca42 6b3d
00000360: 6269 743d 58e1 47bc 004b 713d 96c1 26bd
00000370: 5066 e5bc 60dc 483b f640 2f3d 9ed3 183d
00000380: a860 bfbc 8c40 44bd f655 363d 1656 6c3d
00000390: 3c16 b5bc 4a57 613d 0e69 6ebd 5854 cd3c
000003a0: 40e2 44bc c099 5d3c 843a bdbc cafb 42bd
000003b0: 2acf 14bd 7872 663d eade 66bd 48d5 ac3c
000003c0: c039 183d 5019 c0bc 1cb9 213d ccff 6d3d
000003d0: 7452 bf3c 38e6 57bc 2866 613d 8023 fcbc
000003e0: a6f9 51bd 1889 143c 3e28 69bd 70be 65bd
000003f0: d864 f03c 40af 5b3b 3818 64bd 7833 3abd
0.011559173 0.042323098 -0.0064676106 -0.012852579 -0.05885341 -0.054008722 0.05239802 -0.039606176
-0.021216348 0.0029271916 -0.062377833 -0.046641186 0.03321012 0.021177158 0.0141574 0.0032960773
-0.019677699 0.03160885 -0.022335932 0.027039297 0.020229027 0.00760407 -0.039781854 -0.042898826
0.022645205 -0.0019253343 -0.05119154 -0.03439504 0.037091367 0.040328234 0.03457906 0.0077476054
-0.030100897 0.012327343 -0.044358507 -0.046823382 -0.018383339 0.056073055 -0.027775392 0.056213945
-0.021031566 0.045702443 0.025923848 -0.055799276 -0.039835885 0.0388131 0.036766462 -0.045504913
0.011857644 -0.021291316 -0.040371396 0.021556273 -0.025220767 0.038081124 -0.032025613 0.02886083
0.036612682 -0.040306687 0.0065285787 0.027963035 -0.013275228 -0.056957625 -0.002963215 0.047346152
0.026188664 -0.003613308 0.0058069825 0.042538315 0.060270146 -0.02600962 -0.014593646 0.044603772
-0.009205349 0.044737272 -0.05499027 -0.0019587725 -0.022980899 0.033294044 0.023646422 0.03932815
0.016615525 0.02071996 0.031885386 0.0586228 -0.06204354 0.043553077 -0.026399344 0.036764935
-0.04580695 -0.011983685 0.05855114 -0.005036369 -0.04160332 -0.020853877 0.05308003 -0.055164315
-0.034580253 -0.047579296 -0.0080169365 0.032099143 -0.052506596 -0.018364891 -0.018091507 0.00869441
-0.047038086 -0.009028509 0.051164836 -0.024484038 -0.019452296 0.05151116 0.020482473 0.056799956
-0.057206385 0.047464453 0.04555907 0.04463511 -0.009511374 0.051772505 0.039945 -0.059191212
-0.029157773 -0.009213693 0.049068935 -0.022769332 -0.046369784 0.024168663 -0.043182105 0.008187816
0.03423772 -0.040226832 -0.018253766 -0.050083384 0.007367313 -0.014639139 0.048442453 0.014877744
0.05513294 0.055674374 0.01959534 0.0036282465 0.053792983 -0.006294854 0.01876919 0.03687398
0.002340287 0.04567217 0.027692817 -0.014628924 0.03270147 -0.015422188 0.060956307 0.038766704
-0.06235554 -0.05570858 0.01754395 0.037636116 0.021870404 -0.033967033 0.019171774 -0.05230049
0.023514703 0.013500631 -0.018026799 -0.017287284 -0.009841934 0.013032675 -0.03873519 0.045063525
0.04288198 -0.028453097 -0.011009023 0.035459034 -0.038698353 -0.01785434 0.027694024 0.06062015
-0.024063483 0.058865935 0.008978136 -0.056866527 0.01545275 -0.0013348609 -0.056634508 0.03534235
-0.05826412 0.004920751 -0.004531823 0.013710521 -0.023737147 -0.043047436 -0.011558361 0.05554919
-0.019560233 0.036459804 0.014204077 0.0057184473 0.028023824 -0.011419952 -0.033419125 -0.05468545
0.024726294 0.01806017 -0.054140396 0.0024949908 0.01433216 -0.008134291 0.03150413 -0.04188709
0.011058129 -0.059251584 -0.005866565 0.0556048 0.018590264 0.044997208 -0.045495838 0.057436742
0.059670813 -0.012199722 0.058909416 -0.04071196 -0.028002888 0.0030648932 0.04278656 0.03731119
-0.023361519 -0.04791312 0.044515572 0.057699285 -0.022105329 0.055014886 -0.058205657 0.025064632
-0.012016833 0.013525426 -0.023099191 -0.047603406 -0.03633038 0.05626151 -0.05636493 0.021097794
0.03716445 -0.02344957 0.039483175 0.058105275 0.023354746 -0.013177447 0.055029064 -0.030778646
-0.051263474 0.009065889 -0.056923144 -0.05608982 0.029344961 0.0033521205 -0.05568716 -0.04545924

pn.fc.0.0.bias f4 [128]
00000000: bcad 753d e47b 86bc 80ed da3a b4fe 1fbd
00000010: ea61 69bd 80ae 0eba 9010 4bbc 107c 66bd
00000020: 7881 103c 6e0e 603d 1807 16bc 460a 46bd
00000030: bc73 193d a8ee 7e3d 8247 07bd fc57 6abd
00000040: 7899 d8bc 0e5a 3a3d b633 7ebd cc21 36bd
00000050: 0863 08bc 84a0 e3bc cec7 4abd 2e7a 36bd
00000060: 30fa bb3b 0c49 463d c02c 4abc 5280 743d
00000070: d05b abbc c491 23bd a407 23bd 7a43 7a3d
00000080: 5633 283d b048 64bd a870 613d 10df 67bc
00000090: 702f 9f3b dacd 62bd 3484 c73c 0a58 463d
000000a0: 08db 48bd 82c3 7b3d f276 78bd 00e8 5a3d
000000b0: 0046 b13a 36bf 08bd dcd3 85bc 48ab 60bc
000000c0: 70b9 b9bb 5289 473d c84a f93c 7c23 83bc
000000d0: 9ee3 153d f223 083d 4079 ca3c 1a1a 4bbd
000000e0: 3c84 fa3c 2ae8 72bd 7cb3 8dbc c00c 573b
000000f0: c0f2 043b 34ab 87bc 1e6c 273d b8d2 3d3c
00000100: 001c 9639 d069 093c 5c5d ff3c 1660 2f3d
00000110: 2e4b 1dbd 28c9 2c3d 5ade 6cbd c088 ee3b
00000120: 00eb 9bbc 004e 14bc 404a 853a d40c b7bc
00000130: d031 cfbc 48ac 0a3c 0040 9d3b 0024 753a
00000140: 7414 68bd 18e6 253c 34b2 123d cc66 22bd
00000150: e00c a3bb 5c19 babc 8074 4b3c 945b 543d
00000160: 287f 223c 169f 1d3d bc01 dabc ee3d 033d
00000170: 34a5 3fbd 0c22 f13c a8c2 79bc ccde b2bc
00000180: c61c 03bd e809 3b3d 4210 6cbd 0453 5ebd
00000190: 0843 363d ce93 1e3d ec03 3dbd 28de 7abd
000001a0: e066 70bc 0471 2c3d f011 b63b 16e2 613d
000001b0: 20c0 ae3c c0e1 c6bb 427b 283d 74d6 b5bc
000001c0: 52f8 74bd b088 fcbb b84b cfbc 3a56 783d
000001d0: 1c21 94bc 64c8 50bd 209d 08bd 32be 21bd
000001e0: 0e61 49bd 10b4 dcbb a0a1 9e3c 50f5 f33c
000001f0: c8cb 24bc 7afb 273d fc6a 203d 58f1 41bc
0.05998014 -0.016416498 0.0016702861 -0.039061263 -0.056978144 -0.00054428726 -0.0123940855 -0.05627066
0.00881993 0.05470126 -0.009156965 -0.04834964 0.03746389 0.06223932 -0.03302718 -0.057212815
-0.026440367 0.04549604 -0.062061034 -0.044465825 -0.008324392 -0.0277865 -0.049506955 -0.044550113
0.005736612 0.048409507 -0.012339771 0.05969269 -0.020917803 -0.039933935 -0.03980221 0.061099507
0.041064583 -0.055733383 0.055039078 -0.014152303 0.00485795 -0.055372097 0.024355032 0.048423804
-0.04903701 0.061465748 -0.06066031 0.05344391 0.001352489 -0.033385478 -0.016336374 -0.013712712
-0.005667858 0.048714943 0.030431166 -0.016008131 0.036594026 0.033237405 0.02471602 -0.04958544
0.030580632 -0.05930344 -0.017297499 0.0032813996 0.0020286292 -0.016561128 0.040874593 0.011585884
0.0002863109 0.008387044 0.031172447 0.042816244 -0.038401775 0.042184025 -0.05782924 0.0072794855
-0.019032955 -0.0090518 0.0010169223 -0.022344984 -0.025292307 0.008463927 0.004798889 0.0009351373
-0.05666013 0.010125659 0.03581448 -0.039648816 -0.0049759 -0.02271717 0.0124179125 0.05184515
0.009918012 0.038481794 -0.026612155 0.032041483 -0.04678841 0.02943518 -0.015244164 -0.021834753
-0.032009862 0.045663744 -0.057632692 -0.05427839 0.04449752 0.038715176 -0.04614632 -0.06124702
-0.014672965 0.042099968 0.0055563375 0.055147253 0.021331847 -0.006069392 0.041133173 -0.022196986
-0.05980713 -0.007706724 -0.02530466 0.060629107 -0.018082194 -0.050972357 -0.03335297 -0.039488025
-0.049164824 -0.0067353323 0.019364178 0.02978006 -0.010058351 0.04101131 0.03916453 -0.011837326

pn.fc.1.weight f4 [8, 128]
00000000: df30 023d d66a aebd 9b06 20bd 48e2 82bd
00000010: d3fe dfbc 5159 9ebd 4387 b13d f47d 63bd
00000020: 8470 933d 88e9 223d c9ad e5bc 9db6 a93d
00000030: dea6 d0bc c462 6b3d f8aa 30bd 7948 9b3d
00000040: ba36 28bd 8c5f b43d 8ec7 943d a3dd 86bb
00000050: c0ca 0bbd 93b7 9b3d 3e54 6ebd c7ec 6cbd
00000060: 312f 08bc f476 43bd 6e5e 2b3d 9ab1 2dbd
00000070: fd60 08bd 84d4 1a3b 0765 e33c 7d8d 8b3d
00000080: 9539 a53c 6444 0dbd 7689 0c3d b9bd ecbc
00000090: 0c17 9b3d 855c 20bd 3629 153d dc8c 50bb
000000a0: 54a1 af3d b2ee 7c3c 4c01 ac3d 0b14 2a3d
000000b0: eddd 9bbd 239e 1e3c cff8 5c3d 2173 0c3d
000000c0: c36e e53c 6c4b 23bd b134 543d 6dd0 90bd
000000d0: f381 2bbd 724e 78bd 77cd 7b3d 5ab3 72bc
000000e0: cf26 5ebd b39b 7abd a732 bcbc 81ea a1bd
000000f0: 6605 ea3c 549a 17bd 0947 b2bd d327 8e3c
00000100: 58fb 723c f7ad 4f3d e7fd 033d e285 75bc
00000110: 6bfd 01bc 1d0a 34bd 0322 32bd c626 583d
00000120: 02ce c63a 7317 603d 3614 583c eb87 87bd
00000130: 47fd 70bd 3ac1 c83c 0308 a53d 478d 613d
00000140: d7d0 8bbd 3f46 783c 72d9 6ebd 7b40 f8bc
00000150: 90e4 99bd e0ca 78bd c62e 6d3d 652a 393d
00000160: d153 2c3c d886 033d 1a31 7cbc cb66 cfbb
00000170: ee1d 1cbd 7ebd 463d 1475 7d3d 8dfd d9bc
00000180: 5eb5 90bd 92fc 3d3b d052 34bd a549 51bd
00000190: 77e5 80bd 2eb2 893d 492f ec3b 2bfa 663c
000001a0: d19c 99bc fea1 22bd 4ef3 9a3d 7e9f 4f3d
000001b0: f534 e93c 23f7 7e3d b52b a23d 566d 9cbd
000001c0: e98d 87bd 83fa 18bd e0a5 8c3d 8914 663c
000001d0: 2125 b83c d1f9 443d 8f55 07bd 22d5 a93d
000001e0: c9ae 9a3d 1fdf f33c e130 b53c f2d0 98bb
000001f0: 8875 a93d a659 a23d 4fb5 adbd cb65 9dbc
00000200: 73c4 933d da49 28bc e26b b13d 0d3f 46bd
00000210: dad4 8d3c 32ce 923c 5d39 2fbd fe58 e63c
00000220: ef91 9b3c 5638 61bd fd7d 56bd de36 80bd
00000230: c60c e7bb 4ed6 ea3c d6be 25bd b8b7 413d
00000240: f7e7 cc3c 165f 11bd bcfd 903d 583d 9bbc
00000250: 936a b43d e3ed 91bc a21a 8abc 3fce 713d
00000260: 20be 4e3d c7c0 1b3c da6b 7d3d 0cd0 c1bc
00000270: 64e5 b9bc b0a4 423d 18ab 8dbd 0387 57bd
00000280: 86c9 7d3d b9c0 883d ac97 57bc 6712 f5ba
00000290: 10f2 d0bc 7210 b0bc 6eac a13d d5f3 a53d
000002a0: 73f3 e63c 45fd 71bc 5f61 4a3d b2c5 60bd
000002b0: e209 debc 9ad7 b3bd e850 9f3d 2b62 a6bb
000002c0: 122c 333c 78c8 c53b 78bf 83bc 3d20 48bd
000002d0: 820e e9bc a54c bfbc 611d 803d 54de 4abd
000002e0: c0b2 a43d 2720 56bd f2d0 713c 3019 1ebd
000002f0: 4238 743c 19e4 fa3b 9405 6a3d f07c 63bd
00000300: 3d65 a6bd e95c 3b3d 9a1c 27bd 296b 78bd
00000310: e237 8bbc 9988 a13c dcf1 81bc c62d 4abd
00000320: 977f fc3c cc5b a23d 17ae 093c fa43 fbbc
00000330: 8d2e 9b3d cf31 61bd 9a57 9f3d 9f08 b2bd
00000340: 723e 6cbd ec1d 5a3b 0278 b4bd 0d16 87bd
00000350: 07dc 42bd a84f 3ebd b916 803d 7ea0 563b
00000360: 100d ac3d 73f9 5e3d 96e3 66bd f1fd 7a3d
00000370: adff aebc e231 2fbd 3ce0 ed3c 211f 8f3d
00000380: 6533 e43b 0202 dbbc 3433 413c ff6b 10bd
00000390: 1bc6 a43d a38c 1cbd 12be 7c3d ba61 3bbd
000003a0: 0d8f 4fbd 2516 2cbd 4237 edbc afa3 783d
000003b0: 99d9 773d f8d8 533b 33ad b03d 2ddc 0b3b
000003c0: da76 85bd 097f 4e3c c0fd 9a3d e23a 213b
000003d0: 28c8 7abd 87a4 9ebd 479f a2bd 1202 903d
000003e0: 5917 81bd 8244 aa3d 6de9 adbd 2789 98bc
000003f0: f9d3 9fbd 2c32 f63c 412e 8e3d 5531 a3bd
0.03178489 -0.08516471 -0.0390688 -0.06390816 -0.02734319 -0.077318795 0.08668377 -0.05554004
0.07199195 0.039773494 -0.028036969 0.08286784 -0.025470193 0.057467237 -0.0431318 0.075821824
-0.041067816 0.088072866 0.072646245 -0.0041157766 -0.034128904 0.076033734 -0.05818581 -0.057842996
-0.008312033 -0.047720864 0.041838102 -0.042405702 -0.03329562 0.0023625204 0.027758135 0.06814096
0.020169059 -0.03448905 0.03431078 -0.02889906 0.07572755 -0.039150734 0.036416255 -0.003182224
0.08575693 0.015437769 0.08398685 0.04152302 -0.07610688 0.009681257 0.05394822 0.034289483
0.028006917 -0.03986685 0.051808063 -0.07071004 -0.041871976 -0.060621686 0.061475243 -0.014813269
-0.05423623 -0.061183643 -0.022973372 -0.07906056 0.028567027 -0.037012413 -0.08704955 0.017352974
0.014830433 0.050703015 0.032224562 -0.014985533 -0.007933955 -0.043954957 -0.043489467 0.052771352
0.0015167596 0.054709863 0.013188412 -0.06617721 -0.058835294 0.0245062 0.08058169 0.055066373
-0.068269424 0.015153467 -0.05831284 -0.030304184 -0.07514298 -0.06074035 0.057905935 0.045206446
0.01051803 0.03211102 -0.015392566 -0.0063293925 -0.03811448 0.048520558 0.061879233 -0.02661016
-0.07065843 0.0028989655 -0.04402429 -0.051095624 -0.06293767 0.06723438 0.0072077853 0.014097731
-0.018751534 -0.03970527 0.07565938 0.050689213 0.028467635 0.062247407 0.07918493 -0.07638042
-0.06618864 -0.03734828 0.06867576 0.014042982 0.022478642 0.048089806 -0.03304058 0.08292605
0.07552869 0.029769478 0.022118034 -0.00466358 0.082743704 0.07927255 -0.084818475 -0.019213578
0.07215204 -0.010271514 0.08663155 -0.048399974 0.01731341 0.017920587 -0.042779315 0.028118607
0.018990485 -0.054985367 -0.052366246 -0.06260465 -0.0070510833 0.028666642 -0.0404652 0.04729435
0.025012953 -0.03549107 0.07079646 -0.01895015 0.0880939 -0.017813629 -0.016858403 0.059034582
0.050474286 0.009506411 0.061870433 -0.023658775 -0.02269239 0.04752034 -0.06917399 -0.05261899
0.061959766 0.06677384 -0.01315872 -0.0018697501 -0.02550605 -0.021492217 0.078942165 0.08103148
0.028192258 -0.014769857 0.049409267 -0.054876037 -0.027104322 -0.08781357 0.077791035 -0.0050776205
0.0109358 0.0060358606 -0.01608251 -0.04885887 -0.0284493 -0.023351977 0.062556036 -0.049528435
0.08041906 -0.052276757 0.014759289 -0.03859824 0.014905991 0.007656586 0.057134226 -0.05553907
-0.081247784 0.045742903 -0.04079876 -0.06064907 -0.01699442 0.019718455 -0.015862398 -0.04936006
0.030822558 0.07927665 0.008403323 -0.030672062 0.07577238 -0.05497914 0.077803805 -0.086930506
-0.05767674 0.0033281995 -0.08811952 -0.06596003 -0.047573116 -0.046462685 0.06254334 0.003274947
0.08400929 0.054437112 -0.056369387 0.061277334 -0.02136215 -0.04277218 0.029037587 0.06988359
0.0069641345 -0.026734356 0.011791993 -0.035259243 0.08045598 -0.03822006 0.061704703 -0.045747496
-0.050673533 -0.042013306 -0.028957013 0.060702976 0.06051025 0.0032325368 0.08626785 0.0021340952
-0.0651681 0.01260353 0.0756793 0.0024601747 -0.06122604 -0.07746225 -0.07940536 0.07031645
-0.06303281 0.08313848 -0.08491788 -0.018620087 -0.078041025 0.03005322 0.06942416 -0.07968394

pn.fc.1.bias f4 [8]
00000000: b3be 813d 950c b0bd 95ca 7dbd 677e 85bd
00000010: 9e1a e5ba daba af3d d236 aabd 66ca a83d
0.06335201 -0.0859615 -0.061960775 -0.0651825 -0.0017479246 0.08580561 -0.083112374 0.082417294

onnx::Conv_404 f4 [32, 20, 1]
00000000: 18c4 d53d eb75 22be 472e 6e3d 271a 46be
00000010: 9aa9 91bb 6a64 e8bd efa2 34be b413 49be
00000020: 0ac0 9f3d 2ce3 e7bd 7e13 24be 817d 083e
00000030: 6530 633e 84a8 e2bd d939 01be f0fa e33d
00000040: 80e3 513e e49c 5fbe 457f e1bc c139 0d3e
00000050: b45a a0bc ca90 d3bd aaac cb3d a170 023d
00000060: a50a 923b 0442 323e 1138 22be 64dc fc3c
00000070: bf5a 39bd 0418 3cbe a2b7 0abe 7192 bdbd
00000080: e7bd 1f3b 02e4 64be 89ac 193e 6911 10bc
00000090: f01f 63be 2e03 8fbb ff0d 0ebd dd2b a73d
000000a0: 914c acbc b2f9 4abe c118 3c3d 1c8c 3cbe
000000b0: d9da 093d 662f de3d 711d 193e f601 293e
000000c0: be68 abbd 4c58 cdbd 5b72 433e d755 1cbb
000000d0: 0eae a9bd 7aa3 a73d 9352 59bd 9223 5e3e
000000e0: 74f2 34be b601 a2bc 505d e6bd 10f8 4c3e
000000f0: 9bde a13a 2fe1 2d3e 92d4 553d 7ef9 143e
00000100: 51f4 e7bd 9b87 b93d 39e9 05be 8d90 bc3c
00000110: ff25 24be 3128 4abb 9f53 3b3e 63b2 a4bd
00000120: 181e 083d 1a0c 36be 45d6 29be d293 a0bd
00000130: 3e51 efbd d95d 0dbe 658c dcbd ecf7 4b3e
00000140: 9895 e83d 1c5a 0dbe 84f1 3fbe 0543 513e
00000150: e453 f73d 50e3 07be 3907 b03d 8334 8ebc
00000160: a271 4cbe a8c7 9cbd d6a6 e2bd 6039 c0bd
00000170: 7493 e23d dcf6 7fbd 6d91 56be ba61 2fbd
00000180: 7ed1 e83d f6cd 09bd a543 0bbe 3454 2c3e
00000190: 3117 333e 9f19 d7bd 94a6 44bd e455 f73d
000001a0: cc79 e93c 181a 32bc 940a 223e 7349 143e
000001b0: bba2 18bd b944 c0bd 8734 4cbe cf5e 003e
000001c0: e9c1 b63c faae bf3d 173d 1c3e c906 bbbc
000001d0: c6fd aa3d 5a45 d53c 2830 7abd 0263 d93d
000001e0: 8c9a 22bd 6573 47be f598 433e 3df3 dcbc
000001f0: 4dd1 4bbe 6a46 3bbe d272 26be 81ba 51be
00000200: 182c b23d 27ac 2a3e 3849 b9bd 5884 c1bc
00000210: f136 89bd 1e6a 39bd 3036 8ebc 724a 213e
00000220: f5ae 023d 9e04 a23b 0f61 5a3e 8836 d1bc
00000230: f2fc 243e 6ceb 4e3e 6095 263d 1e1e 02be
00000240: 449b c9bc 766b 873d 44ed 8ebd dc23 163d
00000250: 5712 b93d d332 fa3d a226 4bbe 3cb5 253e
00000260: c22d d13b 155c 4b3e 0554 59be 6ac6 083c
00000270: 70e6 24be f8d5 d8bd 2dbf ee3d 9664 6f3d
00000280: 77a3 2abd 8109 ca3d 68ca d1bd 60d0 0a3e
00000290: b95b 143e d93b d63d 2400 d1bb 3499 ba3d
000002a0: c28a 2dbd bac4 2b3c 0ce7 ba3d 09bc 543e
000002b0: 68f5 b3bd 794b 3f3e 131f 11bd 67d5 e13d
000002c0: 7c7f 1b3e 36cf 0b3e 31f3 f03d 9969 5bbe
000002d0: 7497 99bd 43b0 61be 3e56 b6bc c2da 3d3e
000002e0: ef6a 3dbd a031 cebd 0d21 df3d b351 4e3d
000002f0: aa7c d73d f7c9 5f3e b10c 203d 7e0a c6bd
00000300: 281f e93d 47cd 583d 0715 a73d 2e11 50be
00000310: df2f 2fbe ec68 c23d c67e 37be 61e9 edbc
00000320: 5d6a 633d 0716 1bbd f6b4 a9bd 6674 62bd
00000330: 478d 62bd e952 1c3e d87a 293e 5486 21be
00000340: 7bd0 5b3e 1470 053e 82da d13d 0995 023e
00000350: 8849 dabd 4312 123e c5cb c4bd e481 203c
00000360: 9942 0ebd 5eb5 4f3e bf20 32be 26e8 b4bd
00000370: d866 323d 878d 64be ebe0 17bd 6a91 00be
00000380: f47a 133e 0bfb 05bd fc3a 8e3d a451 05be
00000390: 2590 a0bd 1540 0cbe 3101 48be c3b0 183e
000003a0: 3596 933b 4459 ed3b 62de 8d3d 48db a8bc
000003b0: 2d21 e43d ebb8 e33d 8ec1 4abd 3492 0c3d
000003c0: 0794 4ebd 26a5 0fbe 7678 d8bd 77ed e0bd
000003d0: 9d78 1a3e 6e5a 59be e4ab f53c 33d9 bd3d
000003e0: e463 afbd e2ba 63be 56c9 243d 80a7 5abe
000003f0: cffd 84bc b1c4 b7bd 3a4a 2f3e 4d83 2cbe
0.104377925 -0.15865295 0.058149602 -0.19345914 -0.004445267 -0.113472775 -0.17640279 -0.19636422
0.078003004 -0.113226265 -0.1602306 0.13329126 0.2218643 -0.11067298 -0.12619723 0.11131847
0.2049694 -0.21837193 -0.027526507 0.13791563 -0.0195745 -0.10330351 0.099450424 0.031845693
0.0044568353 0.17407995 -0.158417 0.03086681 -0.045252558 -0.18368536 -0.13546613 -0.09256447
0.0024374665 -0.22352603 0.15007223 -0.008793213 -0.22180152 -0.0043643927 -0.034681316 0.08162663
-0.021032603 -0.19821814 0.045922045 -0.18412822 0.033655975 0.10848884 0.14952637 0.16504654
-0.08369587 -0.10026607 0.19086592 -0.0023854875 -0.082851514 0.081854776 -0.053057265 0.21693256
-0.17670614 -0.019776206 -0.11248267 0.20016503 0.0012349667 0.16980432 0.052204676 0.14548299
-0.113258965 0.09059068 -0.13077249 0.023018146 -0.1603012 -0.003084671 0.18293618 -0.08041837
0.033231825 -0.17778054 -0.16585644 -0.078406945 -0.116854176 -0.13805331 -0.10768966 0.19918793
0.11356658 -0.13803905 -0.18744475 0.20435722 0.12076548 -0.13270307 0.085951276 -0.017359024
-0.19965222 -0.07655269 -0.11066978 -0.093859434 0.11063281 -0.062491283 -0.20953913 -0.04281781
0.113680825 -0.033643685 -0.13600023 0.16828996 0.17489316 -0.10502934 -0.048010424 0.12076929
0.02850046 -0.010870479 0.15824348 0.14481144 -0.037264567 -0.09388108 -0.19941913 0.12536167
0.02230926 0.09359546 0.15257679 -0.022830384 0.08349185 0.026034046 -0.06108108 0.10614587
-0.03969817 -0.19477613 0.19101317 -0.026971454 -0.1990406 -0.1828858 -0.16254738 -0.20481302
0.086998165 0.16667233 -0.090471685 -0.023622677 -0.06699932 -0.045267217 -0.017359823 0.15751055
0.031905133 0.004944398 0.21326087 -0.025538698 0.16112116 0.20206994 0.0406698 -0.12706801
-0.02461017 0.066122934 -0.069788486 0.036655292 0.09036701 0.12216725 -0.19838956 0.16182417
0.0063836286 0.19859345 -0.21223457 0.008348087 -0.1610353 -0.10587686 0.11657558 0.058445536
-0.0416598 0.09865094 -0.10243684 0.13556051 0.14488114 0.10460634 -0.0063781906 0.091112524
-0.042368658 0.010483915 0.091261 0.20774855 -0.08787042 0.18681134 -0.035430025 0.110270314
0.1518535 0.13653263 0.11765135 -0.21427001 -0.074995905 -0.22039895 -0.02225792 0.1854048
-0.046244558 -0.10068059 0.10894976 0.050370883 0.10521825 0.21854387 0.039074603 -0.0966997
0.11382896 0.052930143 0.081583075 -0.20319054 -0.17108105 0.094926685 -0.17919454 -0.029041948
0.055521358 -0.037862804 -0.08286469 -0.055286787 -0.055310514 0.15266003 0.16550767 -0.15773898
0.21466248 0.13031036 0.10246755 0.12752165 -0.10658556 0.14264779 -0.096091785 0.009796593
-0.03473148 0.2028403 -0.17395304 -0.08833341 0.04355511 -0.22319613 -0.037079733 -0.12555471
0.14402372 -0.032710116 0.06944844 -0.13019425 -0.078399934 -0.1369632 -0.19531704 0.14911179
0.00450399 0.0072433073 0.06927182 -0.020612374 0.1113914 0.11119255 -0.049500994 0.034319118
-0.05043414 -0.14027843 -0.10569851 -0.10982793 0.15085073 -0.21225902 0.02998919 0.09269943
-0.085639745 -0.22239259 0.04023107 -0.21352959 -0.016234307 -0.08973063 0.17118159 -0.16846962

onnx::Conv_405 f4 [32]
00000000: 0000 0000 0000 0000 0000 0000 0000 0000
00000010: 0000 0000 0000 0000 0000 0000 0000 0000
00000020: 0000 0000 0000 0000 0000 0000 0000 0000
00000030: 0000 0000 0000 0000 0000 0000 0000 0000
00000040: 0000 0000 0000 0000 0000 0000 0000 0000
00000050: 0000 0000 0000 0000 0000 0000 0000 0000
00000060: 0000 0000 0000 0000 0000 0000 0000 0000
00000070: 0000 0000 0000 0000 0000 0000 0000 0000
0.0 0.0 0.0 0.0 0.0 0.0 0.0 0.0
0.0 0.0 0.0 0.0 0.0 0.0 0.0 0.0
0.0 0.0 0.0 0.0 0.0 0.0 0.0 0.0
0.0 0.0 0.0 0.0 0.0 0.0 0.0 0.0

onnx::Conv_407 f4 [32, 11, 1]
00000000: e69e 793d 83d9 cd3d 1305 e13d 1186 113d
00000010: dde2 703e aa46 58be a687 443e f01c b2bd
00000020: 014e e2bd ef6d 813e 768f 703e 348d 77be
00000030: 929c 4d3e 9346 f9bd 052d 04be 6f71 58be
00000040: 18fd 4f3d 783b 823e 7a9e 433e cc41 4fbe
00000050: cdf2 8cbe b1ff 443e 4e0b 1e3c 6400 94be
00000060: d85a 9c3d 3dc8 7f3e 7945 823e 8d60 8fbe
00000070: 6695 99be 888a 8dbd 56a9 8d3e c3e1 5f3e
00000080: d178 8f3d e0f0 0fbe 6342 233c 1b16 81be
00000090: be8f b73c 89fa 21be 307f ad3d 6c25 553e
000000a0: 320d 8a3d d360 8ebe 9041 83be 1c1e 7f3e
000000b0: 547c 293e 680f ac3d 2c85 4b3e b6ad d9bd
000000c0: 7a63 72bc 4c35 6ebe da13 713e 366a 453d
000000d0: 8c4e c53d 2cdb 693e 2745 8e3e 4325 85be
000000e0: b255 763e c13d 4e3e 5c38 433e e57f 3b3e
000000f0: 3783 76ba 48b0 153d 9752 75be aae6 17bd
00000100: 11bc 3ebe d56b 4fbe 7e4d 7cbe 5689 49be
00000110: 9f26 583e 1844 76be 839a 2fbe 8891 1c3e
00000120: ce5b 78be 455a 89be d6d6 ccbd cbb1 963e
00000130: 0d91 893e 5919 423d e143 f7bb 2cb3 03bd
00000140: 0c77 44be 8f94 32be fca0 7abe ee09 74be
00000150: 24ca 9c3d 5ced 1b3e 0108 4f3b b677 4abe
00000160: f620 743d 2901 d13d 8c8a 60bd e83a 853d
00000170: afd1 ddbc 292d e63d e867 2dbe 49ab 3dbe
00000180: fa97 84be db68 5cbd 21f7 773c 1bba 30be
00000190: a108 85be 4156 0a3d 39e8 4cbe 2cf3 313e
000001a0: 4a4b 89be e268 82bd f09a 173e c553 2fbd
000001b0: 9688 f9bb 88d0 583e 4b38 0a3d e986 7bbe
000001c0: 0477 633e 5f7e bfbd f7b6 0cbd 4b4f 6b3d
000001d0: c96c 6e3e ec2a 023e bf74 95be b61a 2db9
000001e0: 8c31 1d3e 9038 e7bc aaf1 35be 07ab 80bd
000001f0: 4e77 15be bdfa 51be e1ee 933d c259 42be
00000200: 5740 6f3e b562 893d a2a7 6a3e 9893 52be
00000210: 1427 9e3d 0fcb 91be 3ca9 783e 33b4 af3d
00000220: 5d14 cabd b363 b8bd 8d3b 313e 8cbe 81bc
00000230: f215 40be 4826 69bc 8d45 0f3e 9f73 513e
00000240: 7d29 4f3e 6e12 2fbe f5a6 983e e8fa 173d
00000250: 137e 8a3d d3e8 803e bf9b d0bd 32b2 913e
00000260: fd1f af3d bd9a 873e a656 313e b86d 033e
00000270: 4747 3abe 4fee 383e 0551 143e 49a3 7d3e
00000280: 4c2b ca3c e7ef 68bd d0c3 353e 1f26 47be
00000290: ebe8 8d3b 92c6 803e bdb0 953e 207a cfbc
000002a0: 657a 96be ddd5 8a3d 3da6 513e be3a 513e
000002b0: 8c8f 4e3e 5755 5c3e a376 333d d675 16be
000002c0: 64ff 933e cf0b 683e 3144 8e3e 7ee8 053e
000002d0: 8495 c23d 4889 3cbd 5c3f 5c3e 34d2 84bd
000002e0: 6720 083e bbd7 d6bd 5193 073e f0be e63d
000002f0: 32d0 503e 070d e33d 52cf 943e 5ed9 1ebe
00000300: 1bc1 dfbd 21ef 353d 6f36 22be f548 853e
00000310: ef7e d8bc 2f39 97bd 682d 69be a82e 853c
00000320: a7ea 8f3e 7f20 12be 0d06 243e 3cc5 8a3e
00000330: 3127 823e 09d4 86be 2e98 33bc 5290 86be
00000340: c24b c3bc eaec c23d df42 0cbe 57c6 c33d
00000350: 5885 84be 6914 8ebe fca5 603b 2d7d 973d
00000360: 0ba2 8e3e d058 d7bc cfe9 4abd 7d38 4e3e
00000370: e42f 6ebe 403e fdbd b3e4 53be 5591 0fbe
00000380: c851 91be fe9e 423c 8bd5 90be eb6b 55bd
00000390: 86f8 ac3d 33db 713d 8382 463e c5a0 80be
000003a0: 4725 43be 1bf8 4bbe 73cb f93c d96e 8f3d
000003b0: 2ebe 253e 3906 80be 8082 f43d 4774 39be
000003c0: 784e 423e c9e9 42be 8db7 533e aad7 aebd
000003d0: 04fb 4dbe dc06 3f3d 3481 abbd b92f 3abe
000003e0: dbdb 1e3e 7b19 45be 51f2 b8bc 9114 c63d
000003f0: bce6 333e 787f 8f3e 4358 8a3e b90a 66be
0.060942553 0.10051253 0.10987296 0.035528246 0.23524041 -0.21120706 0.19192371 -0.08696926
-0.11050034 0.25279185 0.23492226 -0.24174958 0.20079258 -0.12171664 -0.12907799 -0.21137021
0.05077848 0.25435996 0.19103423 -0.20239943 -0.27528992 0.19238164 0.00964625 -0.28906548
0.076345146 0.24978729 0.25443628 -0.2800335 -0.29996794 -0.06911188 0.27668256 0.21863465
0.07005466 -0.1405673 0.009964558 -0.25212178 0.022407409 -0.15818228 0.08471525 0.20815057
0.06740798 -0.27808246 -0.25635958 0.2491383 0.16551334 0.08401376 0.1987502 -0.10628836
-0.014794225 -0.23262519 0.23542729 0.048196994 0.09634122 0.22837514 0.27787134 -0.2600499
0.24056128 0.20140745 0.19064468 0.18310507 -0.0009403708 0.036545068 -0.23957287 -0.037085213
-0.18626429 -0.20255978 -0.24638936 -0.19681296 0.21108483 -0.24049413 -0.17148785 0.15289891
-0.2425377 -0.26826683 -0.10001914 0.2943252 0.26868477 0.047387455 -0.0075459336 -0.032153293
-0.19186038 -0.17439483 -0.24475473 -0.23831913 0.07655743 0.15227264 0.0031590464 -0.19772229
0.059601746 0.102052994 -0.05481963 0.06505376 -0.027077524 0.11239082 -0.16934168 -0.18522371
-0.258972 -0.053810935 0.015134604 -0.17258494 -0.25983146 0.033773664 -0.20010461 0.17377919
-0.26815253 -0.06367661 0.14805198 -0.0428045 -0.0076151593 0.21173298 0.03374509 -0.24563183
0.2221337 -0.09350275 -0.034354176 0.057448667 0.23283686 0.12711686 -0.29190633 -0.00016508516
0.15350932 -0.028225213 -0.17767969 -0.06282621 -0.14596292 -0.20505805 0.07223297 -0.18979552
0.23364387 0.0670828 0.2291551 -0.20564115 0.07722297 -0.28475234 0.24283308 0.08579292
-0.09867165 -0.09003391 0.17307873 -0.01583793 -0.18758371 -0.014230318 0.13991375 0.20454262
0.2023067 -0.17096874 0.29814878 0.037104517 0.06762328 0.2517763 -0.10185956 0.28456265
0.08551023 0.26485243 0.1731821 0.12834823 -0.18191253 0.18059658 0.14484031 0.2476932
0.024678849 -0.056869414 0.17750478 -0.19448136 0.0043307445 0.25151497 0.29236403 -0.025326788
-0.29390255 0.067790724 0.20473571 0.20432565 0.20171946 0.2151693 0.043814313 -0.14693388
0.28905785 0.22660755 0.277864 0.1307697 0.09501174 -0.04602936 0.21508545 -0.064854056
0.1329361 -0.10490366 0.1323979 0.11266887 0.2039192 0.11086469 0.29064423 -0.15512607
-0.10925504 0.044417504 -0.15841077 0.26032224 -0.026427714 -0.07383954 -0.22771227 0.016257599
0.28108713 -0.14270209 0.16017933 0.27103603 0.25420526 -0.26333645 -0.010961575 -0.26281983
-0.023839835 0.09517844 -0.13697384 0.09559315 -0.25882983 -0.27749947 0.0034278622 0.07396922
0.27858004 -0.026287466 -0.049539384 0.20138736 -0.23260456 -0.12365389 -0.2069271 -0.14020284
-0.28382707 0.011878727 -0.2828792 -0.05210487 0.084458396 0.059046935 0.19385724 -0.25122657
-0.19057189 -0.19918863 0.03049252 0.070035644 0.16185829 -0.25004748 0.119389534 -0.18110763
0.18975246 -0.19034494 0.20675488 -0.085372284 -0.20115286 0.0466374 -0.08374253 -0.18182267
0.15513556 -0.19248001 -0.022576483 0.096718915 0.17568487 0.28026938 0.27020463 -0.22465028

onnx::Conv_408 f4 [32]
00000000: 0000 0000 0000 0000 0000 0000 0000 0000
00000010: 0000 0000 0000 0000 0000 0000 0000 0000
00000020: 0000 0000 0000 0000 0000 0000 0000 0000
00000030: 0000 0000 0000 0000 0000 0000 0000 0000
00000040: 0000 0000 0000 0000 0000 0000 0000 0000
00000050: 0000 0000 0000 0000 0000 0000 0000 0000
00000060: 0000 0000 0000 0000 0000 0000 0000 0000
00000070: 0000 0000 0000 0000 0000 0000 0000 0000
0.0 0.0 0.0 0.0 0.0 0.0 0.0 0.0
0.0 0.0 0.0 0.0 0.0 0.0 0.0 0.0
0.0 0.0 0.0 0.0 0.0 0.0 0.0 0.0
0.0 0.0 0.0 0.0 0.0 0.0 0.0 0.0

onnx::Conv_410 f4 [64, 64, 1, 1]
00000000: 128e 8bbb bb93 3a3d 9cc7 043d 7591 a8bd
00000010: 7bec ebbd 3a2a 7abd 86a0 af3d fd78 1abc
00000020: 46fb 163d 4a36 d6bd 5f43 fe3d c248 913d
00000030: 6d74 ae3d 30ae 80bd e77c 47bd a9e9 033d
00000040: 13d5 083d ea87 abbd 158e 8ebd 29dd a8bd
00000050: 692d fcbd 5f03 c73b f1c5 1b3d 8eed d33d
00000060: 9705 c5bd cf85 83bd f05b db3d 0ff5 153c
00000070: dec1 0cbd 50f0 2a3d 0a1a 3ebd f9b3 fdbd
00000080: 1393 88bc 5096 f4bd 61aa 8abd 9467 5bbd
00000090: 7b0f d23d a94d 34bd c0f2 a33d 5260 243d
000000a0: 7c25 d0bd 54fc ec3d f968 cb3d 7fa3 453c
000000b0: 1c18 aabd 2f81 ad3d 7811 ac3d 30cb b63d
000000c0: a6bf 31bd 2072 733d b009 91bb 3c61 9fbc
000000d0: 34a0 413d cd21 4c3c 4054 a4bd 732c 783d
000000e0: 135a 0a3d cdb8 fbbc ba8f bcbc c15d 7c3d
000000f0: c64b fabc 8c3a 1ebb d1ab 02bd c994 7c3d
00000100: b55e 9cbc e826 e03d 66fe 853d c9f8 eb3d
00000110: 74df ce3c 7b8d bf3d e95b 403d 3536 843c
00000120: e165 f13c b3cc cb3d 696a 263d bfd9 223d
00000130: 4053 7fbd bf1c af3d 3ebf af3c dee1 7abc
00000140: 6d8c 9c3c 8d7b fbbc f485 cf3d 8f3b 513d
00000150: 79c7 f73d 99f3 82bd d7de e53d b8c2 5cbc
00000160: eef0 313d 5036 d6bd fb43 a2bc 4f8d a7bd
00000170: 99b3 b23d 583d afbd b0f1 97bd 5911 dfbd
00000180: cd3a 35bd f982 f13c 71ce 01bd 90e9 9fbd
00000190: 4932 273b 1010 50bd ad98 943d d442 5abd
000001a0: a0e4 cf3d a26f a5bc c355 d3bc b905 d93d
000001b0: 15db fc3d 7309 de3d 8294 793d 68c7 febd
000001c0: 5bef c43d 5050 723d e347 76bd 704c b73d
000001d0: 189e dc3d 19db 87bd f343 d9bd 8935 59bd
000001e0: 040b b1bd fbbe ac3d 7209 bebd 2616 bcbd
000001f0: 5556 413d def2 c93b 3722 88bd a5ee a63d
00000200: 6c5b 5cbd 5cac 9fbc 8b2f 8fbd dd1c b9bd
00000210: 12db 6ebd 3699 003d 098c a03d 9edd bbbd
00000220: 043c c93d c654 fbbc 52bf ed3b 50d3 f2bd
00000230: 2a27 fabd 129d a93d 6522 a93d fe88 493b
00000240: 8bc4 ad3d 45fb e33d c93e 89bd 7c9e e73d
00000250: 4aad 9dbd 8d26 71bd cc3f 9fbc ff6f febd
00000260: dc4f e73c 75fc 823b adcd b4bc 529d d53d
00000270: c6eb 9dbd 46c9 a53d a422 503d e3f9 8ebd
00000280: e061 c83d ed4c 1abd f2fe ed3b 4664 23bd
00000290: 83c0 c4bd cef2 d33d a50f 1abd 0e2b 603d
000002a0: 6a23 183d af16 78bd 73d5 dd3d e6e0 803c
000002b0: 5978 a7bd b7bd f53c 27db fbbd 68db e8bd
000002c0: c37c 393b 05c4 7bbd 4555 b33c 1d41 4bbc
000002d0: 5cc2 503d 8a4a 0cbd 2322 09bc 47bf b3bd
000002e0: d5db b2bd d85c dcbd 487a a93d e46d e0bd
000002f0: 7c2e 91bd f5bc a73d 0262 bdbd 1451 ecbd
00000300: 7462 813d dab0 0c3d 7531 8ebd 31c2 a2bd
00000310: 8289 d43c 3abb 553d a6e0 99bc c4c2 e83c
00000320: 3313 9b3d fb73 773d 1e67 923d 709e 5abd
00000330: 9268 d53c b105 f73d 195f 03bd e34e bbbc
00000340: c880 863d b54f d23d be4d 303d 7b8b fdbd
00000350: 8393 a1bd 068a 603d 1e35 60bd d0d3 353d
00000360: 0ad8 843d 0bac 873c 1e51 b83d f029 863d
00000370: 5ab5 9ebd edca 4c3c 34d4 663b cc8e b5bc
00000380: aad8 cfbd d889 d0bd d1ec fc3d fade c33d
00000390: e539 7ebd 80de 41bc aacf cf3d 4d06 4dbc
000003a0: d857 f2bd bddb d83d fa70 bd3d a578 e43c
000003b0: 178f 08bd 55ae 82ba 54ab 4ebd dad4 3bbd
000003c0: 3b3b a23c 6e4e 973c 4801 2cbb 5789 813d
000003d0: 3f45 473c fc75 873c e538 9b3c 87b9 763d
000003e0: 757c fc3c ee69 e2bd 5139 8e3d d4a4 85ba
000003f0: c8df aabd c455 66bd fb19 cbbd bee2 19bc
-0.0042588795 0.045551043 0.032416925 -0.08230869 -0.115197144 -0.061075427 0.08575539 -0.00942826
0.036860727 -0.104595736 0.12415194 0.070939556 0.085183 -0.06283224 -0.0487031 0.032205258
0.03340633 -0.08375533 -0.06960694 -0.08245308 -0.12313349 0.0060734 0.03803057 0.10348044
-0.09620207 -0.06422006 0.10710895 0.009152665 -0.034364574 0.041733086 -0.04641155 -0.12387843
-0.016671693 -0.11942732 -0.067707784 -0.053565577 0.10256859 -0.044019375 0.08005285 0.04013092
-0.101633996 0.11571565 0.09932131 0.012062906 -0.0830538 0.084719054 0.084017694 0.08925474
-0.04339566 0.05943501 -0.0044262037 -0.019455545 0.047271922 0.012459231 -0.08023882 0.060589265
0.033777308 -0.030727768 -0.023017753 0.06161285 -0.03055371 -0.0024143783 -0.03190214 0.06166533
-0.019088129 0.10944921 0.06542663 0.115220614 0.025253035 0.09353157 0.046962652 0.01613913
0.029467525 0.09951153 0.040628824 0.03975844 -0.062335253 0.08550405 0.021453496 -0.01531264
0.019109929 -0.030698562 0.101329714 0.05108219 0.12098593 -0.06394119 0.11224144 -0.013474159
0.04344266 -0.10459578 -0.019807806 -0.08181249 0.08725662 -0.08556622 -0.07419145 -0.10891981
-0.04424553 0.029481398 -0.03169102 -0.078082204 0.002551215 -0.05079657 0.07255683 -0.05328639
0.10151029 -0.020194832 -0.02579773 0.10596795 0.12346474 0.10841646 0.060932644 -0.124403775
0.09615966 0.059158623 -0.06012715 0.08950126 0.107723415 -0.066335864 -0.106086634 -0.05302957
-0.08644679 0.08434864 -0.09279145 -0.09183912 0.047201473 0.006162985 -0.06647151 0.081509866
-0.053798124 -0.019491367 -0.0699149 -0.09038708 -0.05831439 0.031396113 0.078392096 -0.091731295
0.098259 -0.030680072 0.007255473 -0.11856711 -0.12214501 0.08281912 0.08258513 0.003075182
0.08484753 0.1113191 -0.067014284 0.11309525 -0.07699068 -0.058874656 -0.0194396 -0.12423705
0.028236322 0.0039973804 -0.02207073 0.10430397 -0.07710986 0.080950305 0.050814286 -0.06981256
0.09784293 -0.03767102 0.007263058 -0.03989055 -0.09607031 0.10349046 -0.037612576 0.05472856
0.03714315 -0.060568508 0.10831728 0.01573224 -0.08177251 0.02999769 -0.12297659 -0.113699734
0.0028303124 -0.061466236 0.021891246 -0.012405661 0.050966606 -0.034250773 -0.008369955 -0.08776718
-0.08733336 -0.10759896 0.082752764 -0.1095846 -0.07088944 0.081903376 -0.09247209 -0.11538902
0.063176066 0.034348346 -0.06943027 -0.07947195 0.025944475 0.052180506 -0.018783879 0.028413184
0.07572021 0.060413342 0.07148574 -0.053373754 0.02605084 0.120616324 -0.032073114 -0.022864765
0.06567532 0.10269109 0.04304289 -0.123801194 -0.07889464 0.05481913 -0.054738156 0.044391453
0.06486519 0.016561529 0.08999847 0.06550968 -0.07749434 0.012499553 0.0035221698 -0.022162817
-0.10148747 -0.101825416 0.12349857 0.09564014 -0.06206693 -0.011832833 0.10147031 -0.012513709
-0.11833161 0.10588787 0.09250064 0.027889559 -0.033339586 -0.0009970168 -0.05045636 -0.045857288
0.019803634 0.018470015 -0.002624588 0.063250236 0.012162506 0.016535752 0.018948028 0.060235526
0.030821064 -0.11055361 0.06944526 -0.0010196217 -0.08343464 -0.056234136 -0.09917065 -0.009392438

onnx::Conv_411 f4 [64]
00000000: 0000 0000 0000 0000 0000 0000 0000 0000
00000010: 0000 0000 0000 0000 0000 0000 0000 0000
00000020: 0000 0000 0000 0000 0000 0000 0000 0000
00000030: 0000 0000 0000 0000 0000 0000 0000 0000
00000040: 0000 0000 0000 0000 0000 0000 0000 0000
00000050: 0000 0000 0000 0000 0000 0000 0000 0000
00000060: 0000 0000 0000 0000 0000 0000 0000 0000
00000070: 0000 0000 0000 0000 0000 0000 0000 0000
00000080: 0000 0000 0000 0000 0000 0000 0000 0000
00000090: 0000 0000 0000 0000 0000 0000 0000 0000
000000a0: 0000 0000 0000 0000 0000 0000 0000 0000
000000b0: 0000 0000 0000 0000 0000 0000 0000 0000
000000c0: 0000 0000 0000 0000 0000 0000 0000 0000
000000d0: 0000 0000 0000 0000 0000 0000 0000 0000
000000e0: 0000 0000 0000 0000 0000 0000 0000 0000
000000f0: 0000 0000 0000 0000 0000 0000 0000 0000
0.0 0.0 0.0 0.0 0.0 0.0 0.0 0.0
0.0 0.0 0.0 0.0 0.0 0.0 0.0 0.0
0.0 0.0 0.0 0.0 0.0 0.0 0.0 0.0
0.0 0.0 0.0 0.0 0.0 0.0 0.0 0.0
0.0 0.0 0.0 0.0 0.0 0.0 0.0 0.0
0.0 0.0 0.0 0.0 0.0 0.0 0.0 0.0
0.0 0.0 0.0 0.0 0.0 0.0 0.0 0.0
0.0 0.0 0.0 0.0 0.0 0.0 0.0 0.0

onnx::Conv_413 f4 [64, 64, 1, 1]
00000000: 770d 8fbd 4438 bcbd dff4 9abd 475c ae3b
00000010: 6d0a ad3d a777 f7bc 00ad a43d 323a ecba
00000020: 8ba2 83bd c212 bcba 1260 0dbb b82c d6bd
00000030: 6564 89bd 172a 163d 0a89 b63d 8fd8 883d
00000040: 6dc0 82bd d40a 363d 23d6 ea3c be1a 97bd
00000050: 60a3 11bc 1b17 3b3d 08a4 f43c 1918 713d
00000060: bd81 6fbd f258 c3bd a1d3 033d b72f d7bd
00000070: 97ff 2c3c 194a b2bd ff1f 843d ef50 153d
00000080: a2a6 bbbd c0a5 433c 4025 1dbd 90bc c23c
00000090: 8ef7 79bd b028 803d d902 c6bd 71a6 833d
000000a0: e30a a7bd cd61 1b3c d310 b9bd 4005 93bd
000000b0: 2399 523d d253 d5bd 7217 8cbb 5a3f cf3d
000000c0: c3d7 d2bc 694a 9c3d 982c e6bd 698d fb3d
000000d0: 585f d63d dad8 c9bd c461 c43d 2814 8cbd
000000e0: ded3 e6bd bdb7 283d 6f1a c73c 666a 3e3d
000000f0: ab96 76bd 5ab1 aa3d 34d5 f43d f168 6f3d
00000100: 1699 983d c7f6 e3bd 1a62 813d f447 afbd
00000110: 9afa bd3c 804f e8bd b585 9abd 09c6 c53d
00000120: 1aa6 cfbd 9a35 bc3d b6f6 e2bc a5be f0bd
00000130: 7b2e 3bbd 8d7b b23d ecfb ff3d c8cf 1ebd
00000140: e3e6 b43d 9174 703c bc98 c93d c170 27bd
00000150: 745c 053d a96f 643d 1bc8 77bd 3cb9 9d3d
00000160: 59ed ef3c 0f1a 3bbd 3c48 c33d 9256 dbbd
00000170: d265 ff3d fca0 ffbd c033 923d 2440 e63c
00000180: 407b 91bd 226e b13d b199 fbbd f7d1 453d
00000190: 14f5 67bd 1109 72bd b90f cd3d 8cf0 85bc
000001a0: 0350 bb3d be9f 3cbd 210b f83d b439 bd3d
000001b0: 671a 533d 91bf c53d 03aa 2e3d 99d4 dd3d
000001c0: 3243 9fbd 2810 ac3b ca97 a5bc 0588 883d
000001d0: 306c 8bbd 138a 0abc 6fdf b9bd e3c2 c03d
000001e0: 0fe2 fc3d e55e fdbd 80b0 133d 52ea 533d
000001f0: eaf3 a4bc 7d48 89bd a9fc 8dbc 35ed b3bc
00000200: 5f6b b3bd 502d 11bd 1f0b e53d e61c 863d
00000210: b6f3 6cbd de85 193c af46 c13d c959 1cbd
00000220: af45 d7bd 893d 6fbd b418 b83c e0d3 ab3c
00000230: ee7a fa3b 0681 af3b 0c5a 9e3d d87b c83d
00000240: ca5b 913d 22d9 aabd f4b9 35bd c28c d63c
00000250: 4d8c 63bd fe57 d5bd b082 f3bc 5900 593c
00000260: 09cf 873d 8f7f 52bd 059c 1a3d 8b30 88bd
00000270: 5e8e f3bd a308 cc3d ac28 733d f4f2 d43d
00000280: d316 8f3d 948e e73b c947 f0bc 7673 003d
00000290: e9d6 cb3d a2ac 3cbd 43fa e9bd 46c0 e23c
000002a0: a92e 7d3d 30cd 29bd 08d1 973d 1b9a a7bd
000002b0: 1c2c b73c d7c9 2e3c 7dc4 1cbd e51b f13d
000002c0: 0f0a 46bd 935e 21bd ed12 e3bd c911 a73b
000002d0: 3692 7a3d fd4d 4b3b 2ffb 953d 2486 9f3d
000002e0: c201 9ebd a773 e4bd fefb 48bc 63e3 093d
000002f0: ab37 883c ac4d b13d 5ebc 7abd b4e4 d43d
00000300: 613f 4dbd d036 423d 42dc eebc eebf 933d
00000310: f3a5 083c d1fe 4c3d 3192 833d cb4c 5dbd
00000320: 7050 f3bb 1aa4 c2bd c6d4 3b3d ca99 253d
00000330: c336 d3bc e8bb b5bd 2a7c ec3c 6ba6 463d
00000340: a56f 1a3d 0458 433d 560a b03d e5a2 583d
00000350: cfeb a8bd b518 f73d c94f b4bd ec22 f53d
00000360: c381 ef3d 7a2d 92bd e101 c03c 5a53 193d
00000370: a4e2 cdbd c54f 633c 710d 72bb 1d06 4c3c
00000380: 592e e33d 512a 63bd 1137 0fbb 73b4 533d
00000390: 0491 febd b388 08bd 6cb5 11bd caf9 bbbc
000003a0: 1439 87bd 42c7 98bd d592 b33c b45b 11bd
000003b0: ab19 a2bb ac6a ca3d 7ba6 ac3d 020d f93d
000003c0: 82f9 0cbd 5730 e43d 6333 c1bd 7f31 823d
000003d0: 4b21 47bd 1556 04bd c5ed cabc 4886 5cbc
000003e0: 9f38 5f3d 22e5 17bd 1bcd 763d 7a37 543c
000003f0: c64e c8bd af3e 8fbd df3f 88bd 4df6 a2bd
-0.0698499 -0.09190419 -0.07566237 0.005321059 0.08449254 -0.030208422 0.0804081 -0.0018022715
-0.06427487 -0.0014348852 -0.0021572155 -0.10457748 -0.06708602 0.036661234 0.08912857 0.0668193
-0.063843586 0.04444392 0.028666561 -0.073781475 -0.008889049 0.045676332 0.029863372 0.058860872
-0.058473337 -0.09538449 0.032184247 -0.10507148 0.010558984 -0.08705539 0.06451415 0.036454137
-0.09162642 0.011941373 -0.038365602 0.023771554 -0.061027102 0.062577605 -0.09668512 0.064282306
-0.08156373 0.009483767 -0.09036412 -0.07178736 0.051415574 -0.10416378 -0.004275256 0.10119505
-0.025737649 0.0763138 -0.11238974 0.12282831 0.10467404 -0.09855814 0.0958896 -0.06839782
-0.11270879 0.04119085 0.024304597 0.04648819 -0.060202282 0.083346084 0.11954728 0.05844969
0.07451074 -0.111310534 0.063175395 -0.08558646 0.023190785 -0.113432884 -0.07545034 0.09656913
-0.10139103 0.09189911 -0.027705532 -0.117551126 -0.045698624 0.08714972 0.12499222 -0.038772374
0.08833101 0.014676229 0.09843585 -0.040879015 0.032558873 0.05577055 -0.06049357 0.07701346
0.02928798 -0.04567915 0.09535262 -0.10709871 0.124705926 -0.12481877 0.07138777 0.028106757
-0.07103586 0.08663584 -0.12285174 0.04829594 -0.05663021 -0.059090678 0.100127645 -0.016350053
0.091461204 -0.04605078 0.12111498 0.092395216 0.05153885 0.09655679 0.042642605 0.108315654
-0.07776488 0.0052509494 -0.02021398 0.06666569 -0.068077445 -0.008455771 -0.0907582 0.09412172
0.12347805 -0.12371615 0.036056995 0.051737137 -0.020135839 -0.06703279 -0.017332392 -0.021963695
-0.08760714 -0.035443604 0.11183762 0.06548481 -0.05784961 0.009370295 0.0943731 -0.038171563
-0.10511338 -0.058408294 0.022472717 0.020975053 0.007644049 0.005355957 0.07732019 0.09789246
0.070975855 -0.08342196 -0.04436679 0.026190165 -0.055553723 -0.10417174 -0.029725403 0.013244712
0.06631286 -0.05139118 0.037746448 -0.06649884 -0.11892389 0.09962585 0.05936496 0.10397902
0.06986775 0.007066557 -0.029331105 0.031360112 0.099531 -0.046063073 -0.11424687 0.027679574
0.061812077 -0.041455448 0.074129164 -0.0818369 0.0223599 0.01066824 -0.038273323 0.117728986
-0.048349436 -0.039396834 -0.11087594 0.0050985557 0.061174594 0.0031021826 0.073233 0.07789257
-0.07715179 -0.111548714 -0.012267111 0.03366412 0.016628107 0.08657393 -0.061214797 0.10395184
-0.05010927 0.047415555 -0.029157761 0.07214342 0.008340347 0.0500477 0.06424368 -0.054028314
-0.0074253604 -0.09503956 0.045857213 0.040429868 -0.025782948 -0.08873731 0.0288678 0.048498552
0.03770413 0.04769136 0.085957214 0.052889723 -0.08248102 0.12065259 -0.0880428 0.119695514
0.11694672 -0.0713758 0.023438396 0.037433006 -0.10052994 0.013873999 -0.0036934281 0.012452629
0.110928245 -0.055460278 -0.002185289 0.05168576 -0.12430003 -0.03333349 -0.035573408 -0.022946257
-0.06602684 -0.074598804 0.0219206 -0.035487846 -0.0049469075 0.09883627 0.08430191 0.12160684
-0.034417637 0.111420326 -0.09433629 0.06357097 -0.048615735 -0.032308657 -0.02477158 -0.0134597495
0.054497357 -0.037083752 0.060254198 0.01295268 -0.0978065 -0.06994378 -0.066528074 -0.079571344

onnx::Conv_414 f4 [64]
00000000: 0000 0000 0000 0000 0000 0000 0000 0000
00000010: 0000 0000 0000 0000 0000 0000 0000 0000
00000020: 0000 0000 0000 0000 0000 0000 0000 0000
00000030: 0000 0000 0000 0000 0000 0000 0000 0000
00000040: 0000 0000 0000 0000 0000 0000 0000 0000
00000050: 0000 0000 0000 0000 0000 0000 0000 0000
00000060: 0000 0000 0000 0000 0000 0000 0000 0000
00000070: 0000 0000 0000 0000 0000 0000 0000 0000
00000080: 0000 0000 0000 0000 0000 0000 0000 0000
00000090: 0000 0000 0000 0000 0000 0000 0000 0000
000000a0: 0000 0000 0000 0000 0000 0000 0000 0000
000000b0: 0000 0000 0000 0000 0000 0000 0000 0000
000000c0: 0000 0000 0000 0000 0000 0000 0000 0000
000000d0: 0000 0000 0000 0000 0000 0000 0000 0000
000000e0: 0000 0000 0000 0000 0000 0000 0000 0000
000000f0: 0000 0000 0000 0000 0000 0000 0000 0000
0.0 0.0 0.0 0.0 0.0 0.0 0.0 0.0
0.0 0.0 0.0 0.0 0.0 0.0 0.0 0.0
0.0 0.0 0.0 0.0 0.0 0.0 0.0 0.0
0.0 0.0 0.0 0.0 0.0 0.0 0.0 0.0
0.0 0.0 0.0 0.0 0.0 0.0 0.0 0.0
0.0 0.0 0.0 0.0 0.0 0.0 0.0 0.0
0.0 0.0 0.0 0.0 0.0 0.0 0.0 0.0
0.0 0.0 0.0 0.0 0.0 0.0 0.0 0.0
