models/particlenet_AK4/1/model.onnx (onnx, 971533 bytes, 42 tensors)

pf_conv.conv.0.running_mean f4 [20]
000000 00 00 00 00 00 00 00 00 00 00 00 00 00 00 00 00
       0.0 0.0 0.0 0.0
000010 00 00 00 00 00 00 00 00 00 00 00 00 00 00 00 00
       0.0 0.0 0.0 0.0
000020 00 00 00 00 00 00 00 00 00 00 00 00 00 00 00 00
       0.0 0.0 0.0 0.0
000030 00 00 00 00 00 00 00 00 00 00 00 00 00 00 00 00
       0.0 0.0 0.0 0.0
000040 00 00 00 00 00 00 00 00 00 00 00 00 00 00 00 00
       0.0 0.0 0.0 0.0

pf_conv.conv.0.running_var f4 [20]
000000 00 00 80 3f 00 00 80 3f 00 00 80 3f 00 00 80 3f
       1.0 1.0 1.0 1.0
000010 00 00 80 3f 00 00 80 3f 00 00 80 3f 00 00 80 3f
       1.0 1.0 1.0 1.0
000020 00 00 80 3f 00 00 80 3f 00 00 80 3f 00 00 80 3f
       1.0 1.0 1.0 1.0
000030 00 00 80 3f 00 00 80 3f 00 00 80 3f 00 00 80 3f
       1.0 1.0 1.0 1.0
000040 00 00 80 3f 00 00 80 3f 00 00 80 3f 00 00 80 3f
       1.0 1.0 1.0 1.0

pf_conv.conv.0.weight f4 [20]
000000 00 00 80 3f 00 00 80 3f 00 00 80 3f 00 00 80 3f
       1.0 1.0 1.0 1.0
000010 00 00 80 3f 00 00 80 3f 00 00 80 3f 00 00 80 3f
       1.0 1.0 1.0 1.0
000020 00 00 80 3f 00 00 80 3f 00 00 80 3f 00 00 80 3f
       1.0 1.0 1.0 1.0
000030 00 00 80 3f 00 00 80 3f 00 00 80 3f 00 00 80 3f
       1.0 1.0 1.0 1.0
000040 00 00 80 3f 00 00 80 3f 00 00 80 3f 00 00 80 3f
       1.0 1.0 1.0 1.0

pf_conv.conv.0.bias f4 [20]
000000 00 00 00 00 00 00 00 00 00 00 00 00 00 00 00 00
       0.0 0.0 0.0 0.0
000010 00 00 00 00 00 00 00 00 00 00 00 00 00 00 00 00
       0.0 0.0 0.0 0.0
000020 00 00 00 00 00 00 00 00 00 00 00 00 00 00 00 00
       0.0 0.0 0.0 0.0
000030 00 00 00 00 00 00 00 00 00 00 00 00 00 00 00 00
       0.0 0.0 0.0 0.0
000040 00 00 00 00 00 00 00 00 00 00 00 00 00 00 00 00
       0.0 0.0 0.0 0.0

sv_conv.conv.0.running_mean f4 [11]
000000 00 00 00 00 00 00 00 00 00 00 00 00 00 00 00 00
       0.0 0.0 0.0 0.0
000010 00 00 00 00 00 00 00 00 00 00 00 00 00 00 00 00
       0.0 0.0 0.0 0.0
000020 00 00 00 00 00 00 00 00 00 00 00 00
       0.0 0.0 0.0

sv_conv.conv.0.running_var f4 [11]
000000 00 00 80 3f 00 00 80 3f 00 00 80 3f 00 00 80 3f
       1.0 1.0 1.0 1.0
000010 00 00 80 3f 00 00 80 3f 00 00 80 3f 00 00 80 3f
       1.0 1.0 1.0 1.0
000020 00 00 80 3f 00 00 80 3f 00 00 80 3f
       1.0 1.0 1.0

sv_conv.conv.0.weight f4 [11]
000000 00 00 80 3f 00 00 80 3f 00 00 80 3f 00 00 80 3f
       1.0 1.0 1.0 1.0
000010 00 00 80 3f 00 00 80 3f 00 00 80 3f 00 00 80 3f
       1.0 1.0 1.0 1.0
000020 00 00 80 3f 00 00 80 3f 00 00 80 3f
       1.0 1.0 1.0

sv_conv.conv.0.bias f4 [11]
000000 00 00 00 00 00 00 00 00 00 00 00 00 00 00 00 00
       0.0 0.0 0.0 0.0
000010 00 00 00 00 00 00 00 00 00 00 00 00 00 00 00 00
       0.0 0.0 0.0 0.0
000020 00 00 00 00 00 00 00 00 00 00 00 00
       0.0 0.0 0.0

pn.fc.0.0.weight f4 [128, 256]
000000 b0 4b 0b bd e2 b8 63 bd 60 35 83 3c c4 5a ae 3c
       -0.034007728 -0.05559624 0.016016662 0.021283515
000010 80 d3 d5 bc 32 f8 76 bd e8 21 0c 3d 2c 1b 98 bc
       -0.026101828 -0.06029529 0.034212023 -0.018567644
000020 f0 38 cf 3c 38 91 76 bc f8 ea d3 3c 08 c2 20 3c
       0.025295705 -0.015049271 0.025868878 0.009811886
000030 c4 1f c0 bc 0e 4c 64 bd 80 52 42 3c 90 0f e0 bc
       -0.023452647 -0.055736594 0.01186049 -0.02735117
000040 7e 8e 72 3d 00 e1 cc 39 78 d3 26 bd d6 5b 45 3d
       0.059217922 0.0003907755 -0.040729016 0.048183285
000050 70 18 01 3d 58 9f ed 3c 00 2b 09 bd ce c9 54 3d
       0.031517446 0.029006645 -0.033488274 0.05195027
000060 d0 65 56 bd 02 49 5e 3d 1c fb 12 3d 94 76 22 3d
       -0.05234319 0.054268844 0.035884008 0.039663866
000070 ca ba 5f 3d 10 58 e5 bb 44 14 33 3d 00 af 6c bb
       0.054621495 -0.0069990233 0.0437205 -0.003611505
000080 94 b9 4f 3d b4 c3 f5 bc c0 97 bd 3c f0 23 51 bc
       0.05071409 -0.030000545 0.02314365 -0.012764916
000090 c8 6a f3 bc f0 c8 a7 bb 52 60 1e bd de 95 59 bd
       -0.029714003 -0.005120389 -0.038666077 -0.05312144
0000a0 e8 3f 6e bd e0 fa 84 3b 7c 9f 6e 3d 04 93 5a 3d
       -0.058166414 0.004058227 0.058257565 0.05336286
0000b0 ac 77 d2 3c 4c 71 b2 3c d0 23 1b bd 6c 90 85 bc
       0.02569183 0.02178254 -0.03787595 -0.016304217
0000c0 2e ba 36 3d 14 8e 7b 3d e8 16 d5 3c ae eb 64 bd
       0.04461115 0.061414793 0.0260119 -0.055888824
0000d0 76 a0 7f bd e8 df 6c 3c de b2 31 3d d2 6d 7a bd
       -0.062408887 0.01445768 0.04338347 -0.06113989
0000e0 74 c3 3c bd 00 e4 60 3c 28 3f f9 3c 54 71 02 bd
       -0.046084836 0.013726234 0.030425623 -0.03184636
0000f0 38 00 78 3d 8c b6 cb 3c 7c c7 34 3d 78 f1 41 3c
       0.060547084 0.024867319 0.044135556 0.011837356
000100 5a b5 71 bd f8 1e 16 bd 7c 85 e6 bc 36 fe 52 bd
       -0.05901084 -0.036650628 -0.028139822 -0.051511966
000110 f0 99 fe bb 24 b4 77 3d 30 96 24 bd 68 a4 32 3d
       -0.0077698156 0.06047453 -0.040182292 0.04361382
000120 70 ec d5 3c 00 07 b1 b9 c4 68 c9 bc 20 ed 5f bb
       0.026113719 -0.00033765286 -0.024586089 -0.0034168437
000130 88 10 31 bc e0 28 70 3c 40 7d 42 3c b0 c4 cd 3c
       -0.010807164 0.014658183 0.011870682 0.025118202
000140 e4 e3 d4 bc 58 db 51 3c 08 69 40 bd e0 d4 2d 3b
       -0.025987573 0.012808643 -0.046975166 0.0026524588
000150 00 2c ab bc d8 5d 8e bc 7a d0 77 bd 66 e9 2a 3d
       -0.020895004 -0.017378733 -0.060501553 0.041726492
000160 12 2c 2d 3d 68 25 03 3c 50 2c 02 3c 1c 0b 71 3d
       0.042278357 0.008004524 0.007945135 0.058848485
000170 28 27 ab bc 30 e6 19 bd e0 d6 f4 bc 60 e7 a6 3b
       -0.020892695 -0.03757304 -0.029887617 0.0050935
000180 38 02 31 3c 26 99 3c bd f8 e5 59 3c 08 d6 64 3c
       0.010803752 -0.04604449 0.013299458 0.013967045
000190 a0 a6 b9 3b c0 e1 31 bb 06 5e 18 bd 48 0f 68 3d
       0.005665615 -0.0027142614 -0.037199043 0.0566552
0001a0 d0 d8 7c bc bc ed 44 3d a4 b8 1c bd 80 25 b6 ba
       -0.0154325515 0.048078284 -0.038262025 -0.0013896674
0001b0 38 4f be bc 96 98 55 bd 1c 06 22 3d 00 2e bc 3a
       -0.023231134 -0.05214747 0.039556608 0.0014356971
0001c0 0a fb 17 3d dc aa ce 3c a0 09 47 3b 66 c4 68 3d
       0.037104644 0.025227956 0.0030370727 0.056827925
0001d0 12 a0 01 bd 90 a9 a9 bb 04 68 51 bd 22 67 3e 3d
       -0.031646796 -0.005177684 -0.051124588 0.046485074
0001e0 a4 60 42 3d 64 6d 38 bd 94 bd de bc a0 f2 b4 bc
       0.047455445 -0.045026198 -0.027190007 -0.022088349
0001f0 30 3a d3 3c 68 d2 2a bd 68 6f c2 bc 94 bb 89 bc
       0.025784582 -0.041704565 -0.023734763 -0.016813077
000200 18 16 4c bd d0 91 a2 3b 5c 14 99 3c 78 b7 61 3d
       -0.049825758 0.00496123 0.018686466 0.05510661
000210 22 a4 7c bd c8 ed db bc a6 af 2b 3d 08 1f d3 3c
       -0.061679967 -0.026846781 0.04191556 0.025771633
000220 54 3d 8b bc e0 14 cb bc 84 f1 56 3d 6c ca 5a bd
       -0.016997017 -0.024790227 0.05247642 -0.0534157
000230 d8 c5 68 3c 56 2d 67 3d 2c 97 a1 3c 7a e7 2b bd
       0.014207326 0.05643972 0.019725405 -0.0419688
000240 16 5d 56 3d 10 45 8a bc 5c 13 b4 bc 00 e2 0a 3c
       0.052334867 -0.016878635 -0.021981888 0.008476734
000250 88 8c 01 3d 76 6a 33 bd d4 08 3e bd 84 f9 91 bc
       0.03162816 -0.0438027 -0.046395138 -0.017819174
000260 50 69 5f 3d 60 47 0a 3b 68 d0 6a bd f0 22 03 3d
       0.054543793 0.0021099672 -0.057327658 0.03201574
000270 bc 76 d9 bc a6 54 21 bd 00 70 88 bc 18 e5 d7 bc
       -0.026545875 -0.039387368 -0.016654968 -0.026354358
000280 e8 18 2e 3d 80 bd 05 bd a8 f2 7b 3c a6 77 1b bd
       0.04250422 -0.032651424 0.015377678 -0.037955903
000290 1c 18 0c 3d e4 c7 46 3d 3c 08 d0 3c 3a c9 74 3d
       0.03420268 0.048530474 0.025394551 0.059762217
0002a0 7e e4 52 bd 68 96 06 bd e6 eb 73 bd 80 43 7c 3b
       -0.05148744 -0.032858282 -0.059551142 0.0038492382
0002b0 dc 31 4b bd f0 e4 51 bc f2 51 16 bd 4c ea 35 bd
       -0.049608096 -0.012810931 -0.036699243 -0.044412896
0002c0 70 e3 89 3b ce 26 60 bd ea 24 08 bd 72 66 0c bd
       0.004208021 -0.054724507 -0.03323833 -0.034277387
0002d0 40 23 9d 3a d0 75 03 3c 80 9c 60 ba 76 e1 58 3d
       0.0011988655 0.008023694 -0.0008568242 0.05294939
0002e0 90 c3 31 bc 10 41 32 3c c0 80 96 bc e8 b0 70 bd
       -0.010849848 0.01087977 -0.01837194 -0.05876246
0002f0 08 28 cf 3c 48 29 89 bc 66 df 53 bd 7a 3e 17 bd
       0.025287643 -0.016743317 -0.05172672 -0.036924817
000300 1a 6c 31 3d fc 33 6b 3d e8 23 27 3c da c0 5e bd
       0.043315984 0.057422623 0.010201432 -0.054383136
000310 9c a0 b2 3c 50 7b aa bc c4 ec eb bc 70 fa cd bb
       0.0218051 -0.020810753 -0.028799422 -0.006285958
000320 d2 2c 18 bd 6a be 21 bd a6 6b 5e 3d 54 03 bc bc
       -0.03715212 -0.039488234 0.05430188 -0.022950806
000330 38 09 26 3c 0c 18 22 3d 48 48 22 3d c2 3b 63 bd
       0.010134034 0.039573714 0.039619714 -0.05547691
000340 54 b0 c7 bc 02 5a 04 3d 24 67 97 bc 4a 9a 42 bd
       -0.024376072 0.0323124 -0.018481798 -0.047510423
000350 82 f0 40 3d f8 89 b8 3c 40 ad 62 3b a0 e2 54 3b
       0.047104366 0.022526726 0.0034588128 0.0032483712
000360 04 71 b7 3c 40 cf 17 bd 30 cd 3d 3c 90 a7 cb bb
       0.022392757 -0.037062883 0.011584565 -0.0062150434
000370 50 06 50 bd 00 2a b2 b9 30 5a f8 bc 78 32 59 3c
       -0.05078727 -0.00033982098 -0.030316442 0.013256662
000380 d0 f8 74 bd 40 54 f7 3c d8 7f 69 3d 90 f3 d4 bc
       -0.0598076 0.03019154 0.057006687 -0.025995046
000390 70 ce 10 bd a0 af 29 3d 1e 5e 5e 3d 54 80 05 bd
       -0.035353124 0.041427255 0.054288976 -0.032593086
0003a0 00 78 6e 3b ec 63 49 bd 0c ed 1d 3d 3a 8a 23 3d
       0.0036387444 -0.04916756 0.038556144 0.039926745
0003b0 cc cc e8 3c f2 23 57 3d 78 45 57 3c b4 b1 9c bc
       0.028417967 0.052524514 0.013139121 -0.019127704
0003c0 14 6f f2 bc b0 1d 07 3d 00 20 74 b8 24 6f 5f bd
       -0.029593982 0.032987297 -5.8203936e-05 -0.05454935
0003d0 c0 42 77 3c a4 92 ae 3c b0 a5 d9 bc 28 af 25 bc
       0.015091598 0.021310158 -0.026568264 -0.010112561
0003e0 00 28 3c b9 90 3c 64 bd 14 f7 7f bd cc c6 b4 3c
       -0.00017943978 -0.05572182 -0.06249149 0.02206745
0003f0 c8 6a a7 3c 42 82 19 bd 00 29 ce 3b a8 e1 40 bd
       0.02043666 -0.03747774 0.0062915087 -0.047090203

pn.fc.0.0.bias f4 [128]
000000 9c 13 d4 3c 7c e1 d7 bc 28 5a 52 3d 50 c6 63 3d
       0.025888257 -0.026352637 0.05135551 0.055609047
000010 94 0e 21 3d 44 0f 30 bd 60 0c a4 bc 04 b9 b8 3c
       0.039320543 -0.04298331 -0.020025432 0.02254916
000020 ce bd 73 bd bc b5 53 bd 40 b2 91 bb c8 21 2d 3d
       -0.059507184 -0.051686987 -0.004446298 0.042268544
000030 4c 93 1e 3d 82 53 51 bd 50 95 61 bc c8 4a 36 3d
       0.038714692 -0.05110503 -0.013768509 0.04450491
000040 58 08 13 3d 98 54 1c 3c 44 d1 1b bd 54 9f dd 3c
       0.03589663 0.009541653 -0.038041368 0.027053513
000050 20 e0 44 3d 76 71 7a bd c2 fa 09 3d 60 aa 09 3b
       0.048065305 -0.06114336 0.033686407 0.0021006092
000060 94 ff 9b 3c 50 c1 8f bb ec 17 21 3d 70 e0 fc 3b
       0.019042768 -0.0043870583 0.039329454 0.0077171847
000070 74 42 0e 3d b0 65 a0 3b fc e6 28 3d 4c b3 b3 3c
       0.034731343 0.0048949346 0.04123591 0.021936081
000080 20 ef 52 3b 88 3e 8a bc 5c 7b d9 3c e0 ba 61 3c
       0.0032185987 -0.01687552 0.02654808 0.013777465
000090 96 84 36 3d ac 35 f2 bc 7c e9 9c bc a0 64 02 3b
       0.044560038 -0.029566608 -0.019154303 0.0019896403
0000a0 b6 f6 5d 3d 8a e2 1c bd 70 d3 fc 3c 00 6e 08 3b
       0.05419036 -0.038301982 0.03086254 0.0020817518
0000b0 58 00 9b 3c 06 55 36 bd 80 a7 d1 ba 98 cf 4f 3d
       0.018921062 -0.04451468 -0.0015995353 0.050735086
0000c0 a0 46 4a 3d 6e b3 18 bd d0 86 41 bc 30 e2 99 bb
       0.04938376 -0.037280492 -0.011811927 -0.004696153
0000d0 98 3a 2b bd 44 79 5b bd 9e f3 10 bd 00 5e c8 3c
       -0.041803926 -0.053582445 -0.03538858 0.024458885
0000e0 b8 f8 08 bd 5e 73 4c 3d 16 e5 6e bd 60 96 9e bc
       -0.03344032 0.04991471 -0.058323942 -0.019358814
0000f0 6a 9e 12 bd 00 d3 ba 3c 4a 4d 11 3d f4 a1 98 3c
       -0.035795607 0.02280569 0.0354741 0.018631913
000100 40 41 77 3b 80 66 bd bc d0 2e 5a bd 88 3e b2 bc
       0.00377281 -0.023120165 -0.0532673 -0.021758333
000110 e0 30 f9 bc 24 c9 ef bc 7e 3a 12 bd 10 b9 3f bd
       -0.030418813 -0.029270716 -0.035700314 -0.04680735
000120 7e 89 6b bd a0 c8 bd 3b 1e 1d 1e bd b0 ce 16 bc
       -0.05750417 0.0057917386 -0.038601987 -0.009204552
000130 e2 ec 3e 3d 1e 2b 78 bd 66 93 6d 3d 90 77 fd 3b
       0.046612628 -0.060587995 0.0580019 0.0077352
000140 48 f5 c6 bc b0 3a ca bc f0 db 58 bd 94 15 b7 bc
       -0.024286881 -0.024686188 -0.052944124 -0.022349156
000150 b8 e8 5d 3d ac 16 18 3d 80 ec f2 3a 20 e9 25 bb
       0.054177016 0.037130997 0.0018533617 -0.0025315955
000160 9a c2 47 3d 60 70 4c 3c 98 fa 53 3c e0 8d bc 3c
       0.04876957 0.012477964 0.012938164 0.02301687
000170 40 54 41 bd d8 5d 37 bd 80 2a 18 bd 8c 2c 28 bd
       -0.047199488 -0.04476723 -0.037149906 -0.04105811
000180 10 8b ec bc 38 78 2f bd b0 7c 22 bc bc 11 4a 3d
       -0.028874904 -0.04283926 -0.009917423 0.04933332
000190 20 22 07 bd 00 0e 48 bd ee 0d 5e bd b0 68 01 3d
       -0.03299153 -0.048841476 -0.054212503 0.03159398
0001a0 a0 e3 35 bd f2 48 1a bd ac c7 0f 3d fa 39 60 bd
       -0.044406533 -0.037667222 0.03510253 -0.05474279
0001b0 e8 9f 3a bc 88 6b 2a bc 26 dc 46 bd b8 28 2d 3d
       -0.011390664 -0.010401614 -0.048549794 0.04227516
0001c0 76 ba 08 bd 00 68 15 39 e0 a9 7f 3b b0 85 e8 3b
       -0.033380948 0.0001424849 0.0039011165 0.007096015
0001d0 30 92 11 bd 02 32 23 bd 42 03 1d bd 66 94 56 3d
       -0.035539806 -0.039842613 -0.038333185 0.052387618
0001e0 b8 2e 1d 3c 30 f8 7c 3d 70 fe 33 3c 40 81 a0 bb
       0.009593658 0.061760128 0.010985956 -0.0048982203
0001f0 c8 30 1d 3c 62 a6 31 3d c0 cf c9 3b 4e 40 6c bd
       0.00959415 0.043371566 0.006158799 -0.057678513

pn.fc.1.weight f4 [8, 128]
000000 60 ed ac 3c 44 4f 98 bd 8d c0 b2 3d d0 2a ef 3c
       0.021109283 -0.07436994 0.087281324 0.02919522
000010 67 83 61 bd 4c 62 40 bd 02 d5 f5 bc 78 b1 b5 bc
       -0.055056956 -0.046968743 -0.030008797 -0.02217935
000020 2e d5 76 3d d0 8f b8 3c 48 ed 9d bd 58 b7 a8 bc
       0.060261898 0.022529513 -0.077112734 -0.020595238
000030 31 82 9d 3d fe a9 0f bd a4 46 6c bd e0 3d 80 bd
       0.07690848 -0.035074227 -0.057684556 -0.06261802
000040 1a 10 56 3d 00 77 d3 39 fa 31 83 bd e0 26 24 bb
       0.05226145 0.00040333718 -0.06406017 -0.0025047585
000050 f1 1b af 3d e7 09 ae bd 42 bd 17 3d 80 e2 1b 3a
       0.08550251 -0.084979825 0.037045725 0.0005946532
000060 b0 75 c6 bc ea 1c 70 bd 21 6a a4 3d 1d 18 84 3d
       -0.02422604 -0.058621325 0.08028055 0.06449912
000070 2f 7b a3 3d eb 0a 81 bd 80 73 13 ba dd 10 b4 bd
       0.0798248 -0.063009106 -0.0005624816 -0.08792279
000080 1e d5 4f 3d 16 2d f3 bc c4 e9 c7 3c 8e 4f 4e 3d
       0.050740354 -0.029684585 0.02440346 0.050368838
000090 28 a0 2d 3c 20 e1 f3 bb c8 3a 04 3d 99 28 9c bd
       0.010597266 -0.0074426085 0.03228262 -0.07624931
0000a0 77 0c 52 bd 9f cd 9d 3d 1e e0 6c 3d ee be 14 3d
       -0.05128142 0.07705235 0.057830922 0.036314897
0000b0 56 96 56 3d 6a 31 60 bd 61 4c ab 3d aa 94 47 3d
       0.052389465 -0.054734625 0.083641775 0.04872576
0000c0 aa 6d 22 3d 3e 80 4f 3d be 06 2e 3d 60 b3 07 3d
       0.039655365 0.05065941 0.0424869 0.03313005
0000d0 43 03 00 bd 70 bd 9a bb e0 53 17 bc 7e 8c 09 3d
       -0.03125311 -0.0047222897 -0.009236306 0.03358125
0000e0 e3 a4 35 bd d8 a2 cd 3c 40 1f 10 3c 00 cc 44 3b
       -0.0443467 0.025102064 0.008796513 0.003002882
0000f0 07 8d ae 3d 3e df 1a 3d df 64 92 3d cc 1a 88 bc
       0.085229926 0.037810557 0.07148146 -0.01661434
000100 10 fa 01 bc 90 e1 02 bc 08 b8 ab bc 5f 2b 77 bd
       -0.007933155 -0.007988349 -0.020961776 -0.060344096
000110 96 3f 4c bd 61 48 3d bd e8 d3 49 3c cb d5 8f 3d
       -0.049865328 -0.046211604 0.012318589 0.070232
000120 57 6e 8e 3d d6 cb 7b 3d 40 96 98 bd 22 38 4f bd
       0.069546394 0.06147369 -0.07450533 -0.05059064
000130 b0 67 96 3c 3b da a4 bd 2a 13 1d 3d 74 8a 9b bd
       0.018359989 -0.08049437 0.038348354 -0.07594767
000140 98 8a 74 bc 74 cc 8e bc 4d ba a1 bd 84 28 97 bd
       -0.014925621 -0.017431475 -0.07896862 -0.073807746
000150 b0 d9 44 bc 8c 1e 35 bd da a4 1d 3d 5e 04 23 3d
       -0.012014791 -0.044218585 0.038487293 0.039799087
000160 46 c7 3a 3d 85 d6 b1 3d 1e 4c 79 3d 7f 6f 9f 3d
       0.0456002 0.086834945 0.060863607 0.07784938
000170 e8 43 c5 bc 3e 84 4e bd c2 55 46 3d e0 e5 a2 bb
       -0.024080232 -0.050419085 0.04842163 -0.004971251
000180 1e 30 91 bd b8 60 41 3c d3 26 b0 bd 50 ef ad 3c
       -0.07089256 0.011802845 -0.08601155 0.021232277
000190 34 02 ac bd 0e 6b 36 bd d7 d3 92 3d a0 fd db 3c
       -0.08398858 -0.04453569 0.071693115 0.026854336
0001a0 da 42 79 bd d7 f8 92 3d ea 34 33 3d f3 73 60 bd
       -0.06085477 0.07176369 0.043751635 -0.054798078
0001b0 25 2c 49 bd e0 a7 bc 3c 7e f9 6a 3d 91 9b 28 bd
       -0.049114365 0.023029268 0.05736684 -0.041163985
0001c0 f0 59 35 3c 33 d6 9a 3d b1 57 83 3d 0e 15 e4 bc
       0.011068806 0.075603865 0.0641321 -0.02784207
0001d0 c1 ca 8a 3d d8 6d 14 3c 06 92 28 3d 90 33 1f 3c
       0.067769535 0.009059392 0.041154884 0.009716883
0001e0 73 01 8e 3d d2 4d 8e bd 60 a1 35 3b 60 f6 a6 3b
       0.0693387 -0.06948437 0.0027714595 0.005095288
0001f0 c3 ba 90 3d b8 c9 9e 3c 0e c6 53 bd c0 e4 37 bb
       0.07066872 0.019383296 -0.05170255 -0.002805993
000200 f0 c2 08 3c af 65 8d 3d cc 49 e0 3c 41 ff 82 3d
       0.008347258 0.0690416 0.02737894 0.06396342
000210 40 02 a0 3c 48 ae 15 3d 66 51 33 3d 87 72 aa 3d
       0.019532323 0.03654316 0.0437788 0.083226256
000220 36 d1 f1 bc 16 63 da bc c7 90 a7 3d 16 a5 20 bd
       -0.029518705 -0.026658576 0.08181911 -0.03921994
000230 fc b0 9c bd bd 57 80 3d 8e 37 51 3d b8 e6 2a bd
       -0.076509446 0.06266735 0.05107837 -0.041723937
000240 c0 61 27 bc a3 c6 aa 3d 6b c8 b4 3d a0 a8 3e bb
       -0.0102161765 0.08338668 0.08827289 -0.0029092208
000250 5f f4 98 3d b5 80 ae bd b3 9c a8 3d 57 10 57 bd
       0.07468485 -0.08520643 0.08233013 -0.052505817
000260 30 46 e6 3b 18 97 63 3c 50 c1 ce 3b 1e 0e e3 bc
       0.00702741 0.013891004 0.0063096657 -0.027716693
000270 97 0e 01 bd f8 2a 29 bc 8c 4f bd bc 62 e2 99 bd
       -0.031508055 -0.010325186 -0.02310922 -0.07513882
000280 70 92 a5 3b 57 c3 af 3d ae 24 20 3d d8 bb 98 bc
       0.005052857 0.0858218 0.03909748 -0.018644258
000290 50 7a 5e bc 28 2f 90 3c 3c 82 87 bd 88 da 77 bc
       -0.013578966 0.01760061 -0.06616637 -0.0151277855
0002a0 1a b4 32 3d a0 79 06 3c 48 ec ae bc 51 1e 93 3d
       0.04362879 0.008207709 -0.021352902 0.07183517
0002b0 56 72 49 bd 08 80 5a 3c 0c fb 96 bd 3e 02 4b 3d
       -0.049181305 0.013336189 -0.07372102 0.049562685
0002c0 50 49 fb bb 45 80 a1 3d fd 47 85 3d 84 56 a0 bc
       -0.0076686516 0.078857936 0.06507871 -0.019572504
0002d0 09 57 8b bd 98 b8 77 bc 3b 39 2f bd e9 f3 a0 3d
       -0.0680371 -0.015119694 -0.04277919 0.07859022
0002e0 66 27 0b 3d 15 9d b3 3d 40 f1 61 3c 68 bd d0 3c
       0.03397312 0.087701954 0.013790429 0.025480941
0002f0 0a dc 58 3d 78 c8 5a 3c f4 fc 18 bd 6f 0b 8d 3d
       0.05294422 0.01335346 -0.03735061 0.068869464
000300 eb 48 ac bd c6 a4 9f bd b0 30 a8 3c 58 fb 09 3c
       -0.084123455 -0.077951 0.020531029 0.008421741
000310 c0 b0 aa bb 24 9b ef 3c 90 0f 2a bc 4a 77 0b bd
       -0.0052090585 0.029248782 -0.010379687 -0.03404931
000320 75 3d 95 3d 40 51 70 3b 5a 1b 5f 3d b0 b5 a7 3b
       0.072871126 0.0036669523 0.054469444 0.0051180944
000330 d0 e6 3e 3c 8e a2 95 bd 6f f1 a9 3d 98 2d ae 3c
       0.01165171 -0.073063955 0.08298003 0.021261975
000340 fc f7 9d bc 68 58 8b bd 6c 6a e0 3c 48 e0 d3 3c
       -0.019283287 -0.068039715 0.027394496 0.025863782
000350 66 04 67 3d 34 5d aa 3c 5a 8f 67 3d 70 9c 00 bc
       0.05640068 0.020796396 0.056533195 -0.007849798
000360 14 ba 8c 3c 54 e1 0c bd 15 e1 0d bd 38 11 a4 3c
       0.017178573 -0.034394577 -0.034638483 0.020027742
000370 b0 71 bb bb 42 76 63 3d 6e 1b 1e 3d a4 10 52 bd
       -0.0057203397 0.0555327 0.038600378 -0.0512854
000380 f8 57 aa bd 70 c4 a7 bb 21 fc 96 bd 94 00 9c 3c
       -0.0831756 -0.0051198527 -0.073723085 0.019043244
000390 16 34 69 3d 68 68 49 3c ac 6c 93 bc 02 08 19 3d
       0.05693444 0.012292959 -0.017996155 0.037361152
0003a0 b0 aa dc 3b d8 1f a3 bc a4 a3 c4 bc 60 cf 73 bc
       0.0067342147 -0.019912645 -0.024003811 -0.014880985
0003b0 5e 31 1a 3d 9a 16 27 bd 10 7c a9 3b f8 e0 d2 3c
       0.037644736 -0.04079304 0.00517226 0.02574204
0003c0 1d a2 48 bd 8c 1e c9 bc 06 ce 96 bd 48 16 83 bd
       -0.04898273 -0.024550699 -0.073635146 -0.06400734
0003d0 5a 4f 34 3d d2 ed 61 bd 26 38 a0 bd de 79 6e 3d
       0.044020988 -0.055158444 -0.078232095 0.05822169
0003e0 86 27 6e 3d d3 38 78 bd bb 78 ae bd ad ba 93 3d
       0.05814316 -0.060601067 -0.08519121 0.0721334
0003f0 45 42 a5 3d 5a 5f 59 3d dd 06 81 3d 2f 21 b0 bd
       0.080692805 0.05306945 0.06300137 -0.08600079

pn.fc.1.bias f4 [8]
000000 b0 c4 c2 3b 90 0c 4a bc a4 8c ed 3c 1f b1 8d 3d
       0.005943857 -0.012332097 0.028997727 0.06918549
000010 2e 2b 44 3d e8 15 92 bd f0 89 2d bd 45 0a b0 3d
       0.04789274 -0.071330845 -0.042367876 0.08595709

onnx::Conv_815 f4 [32, 20, 1]
000000 9d 97 27 bd f0 42 4f be 51 47 32 be 7d 7b e9 bd
       -0.040916074 -0.20240378 -0.17410018 -0.11400507
000010 d2 42 18 3e da 7e 2a be 2a f4 30 3e 4c b6 17 3e
       0.1486924 -0.16649953 0.17280641 0.14815634
000020 87 a8 2c bb cd 1d e5 3d 00 08 17 3e b5 70 10 be
       -0.0026345567 0.11187325 0.14749146 -0.14105494
000030 3d 38 4d 3c cd 24 3a be f7 a0 03 3e 5e 67 e2 bc
       0.012525615 -0.18178101 0.12854372 -0.02763718
000040 ad c7 2e 3e 79 e2 33 be 8a b9 1f be 57 20 ba 3d
       0.17068358 -0.17566861 -0.15598121 0.090881996
000050 f6 35 79 bd 18 2d 30 3e 28 ba e8 3d b4 03 32 3e
       -0.060842477 0.17204702 0.113636315 0.17384225
000060 b4 d9 11 3e 32 a8 d1 bd a1 8d fb 3d 31 45 6f bd
       0.14243203 -0.10237159 0.12282873 -0.058415595
000070 7d 0f 20 be f4 9e db 3d 15 c4 1a 3d 40 36 55 3e
       -0.15630908 0.10723677 0.037784655 0.20821476
000080 13 b5 88 bc 51 13 58 bd ac f1 2a bd 4e 57 05 3e
       -0.016687905 -0.052752797 -0.041734383 0.13021585
000090 13 5d 49 be c9 81 02 3e 94 cc d5 bd aa 2b ed bd
       -0.19664411 0.12744822 -0.10439411 -0.11580594
0000a0 2f 53 5d 3e 65 29 fd 3d a0 d2 f3 3c 09 99 5a be
       0.21613763 0.12361411 0.02976352 -0.21347441
0000b0 bf 5d 96 bd 15 34 4b 3d b5 b2 32 bc bd 90 1a 3e
       -0.073420994 0.049610216 -0.010906865 0.15094276
0000c0 1f fa 20 be 88 1e b0 bd 4e a4 a4 3d e5 44 f4 bd
       -0.15720414 -0.085995734 0.08039151 -0.11927203
0000d0 e7 da 5f be ae 06 48 3e 54 05 06 3d c1 1c c1 ba
       -0.21860848 0.19533798 0.032719925 -0.0014733301
0000e0 e3 ed 38 3e b0 42 25 3e 02 b2 24 be ef a5 45 3e
       0.18059497 0.1613872 -0.1608353 0.1930158
0000f0 75 39 7d 3d 59 18 28 3c e4 3a 3a be fe 26 17 bd
       0.061822373 0.010259711 -0.18186527 -0.03690242
000100 9d b1 15 3e 29 5f 20 3e 6f a2 ae 3c de 1a 49 bc
       0.14618535 0.156613 0.021317689 -0.012274472
000110 17 b8 45 3d 33 39 0e 3e 4d 35 04 3e ef 53 94 bd
       0.048271265 0.13889007 0.12910958 -0.072425716
000120 e7 53 21 3e 13 96 34 be a5 65 0a 3e 47 17 63 3e
       0.15754662 -0.17635374 0.13515337 0.22176848
000130 d0 16 93 bc d0 c0 b7 3d 9e 9a 5b be e9 d4 6f 3d
       -0.017955214 0.08972323 -0.214457 0.058552656
000140 1e 23 99 3c d8 86 2a be 53 6c e7 bd 06 8f 05 3e
       0.018693503 -0.16653001 -0.11299958 0.1304284
000150 59 77 49 be 3e ae c8 bb b3 d1 3c be 3a 97 54 3d
       -0.19674434 -0.006124287 -0.18439369 0.051902033
000160 89 49 cb 3d 9c d7 7e 3d ba a8 a3 bc 03 6b 27 3e
       0.09926135 0.06221734 -0.019977916 0.16349415
000170 ba fd b1 bd 68 67 42 be 0b e1 3e 3e 49 ca 8d 3c
       -0.086909726 -0.18984759 0.18640535 0.017308371
000180 5b 77 04 3e e8 6c 1f be df c4 2c 3e 4c be b7 bc
       0.12936155 -0.15568888 0.16871975 -0.022429608
000190 ef d5 87 3d 95 4b 52 be 19 6b 08 be b9 0c 08 3e
       0.066326015 -0.20536645 -0.13322105 0.13286103
0001a0 21 6a 0e 3e 40 cd c1 3d c4 d6 41 3e 2d b8 59 be
       0.13907672 0.094629765 0.18929583 -0.21261664
0001b0 ca 22 fa 3d d6 67 b5 bd 8f b3 ec bd f4 cf 04 be
       0.12213667 -0.08857696 -0.115576856 -0.12969953
0001c0 43 7b f5 3d f4 f9 05 3d c7 64 11 be 1d 7a e3 bc
       0.11986401 0.032709077 -0.141986 -0.02776819
0001d0 7e 30 1d 3e 58 22 5a 3d 7c 2f c3 3d aa 8a ca 3d
       0.1535053 0.05325541 0.09530541 0.09889729
0001e0 dd 76 4d 3d 6e 32 ca bc fd da 8f 3d a4 c3 37 3d
       0.050162185 -0.02468225 0.070241906 0.04486431
0001f0 a7 f7 c6 bd c8 3c da bc 01 c6 21 3e 40 36 cb bd
       -0.09715205 -0.02664031 0.15798189 -0.09922457
000200 e9 e5 58 3e 66 c3 c2 bd c4 d2 4d 3e 01 50 8e bd
       0.21181454 -0.095099255 0.20099932 -0.06948853
000210 9d 6e 02 be 2d 6e 1a 3d 13 96 dd bd c5 ae 20 3e
       -0.12737508 0.037702728 -0.1081964 0.1569167
000220 c5 18 15 3e 7b db 39 3d 06 47 b7 bd 2c c8 0a 3e
       0.1456023 0.04537533 -0.089490935 0.13552922
000230 39 c4 9a 3d 02 80 6d 3d 2c 44 48 3e c0 38 4f 3e
       0.07556958 0.057983406 0.19557256 0.20236492
000240 76 a7 c7 bd 63 9c 6b 3c 16 84 6e bd 94 29 00 be
       -0.097487375 0.014380547 -0.058231436 -0.12515861
000250 2e 5a df bd 08 06 5c 3d 43 1b bb ba d0 82 01 3e
       -0.10905872 0.05371669 -0.0014275092 0.12647557
000260 9b ac 1a 3e d7 fd df 3b 65 7d 5a be 2c e8 cc bd
       0.15104906 0.00683568 -0.21336897 -0.10005221
000270 64 39 61 3e 3c 6a 1d bd 16 b2 97 3c c7 e5 31 be
       0.21994549 -0.03843139 0.018517535 -0.1737281
000280 cf 7e 60 be ff 47 02 3e 71 f8 f0 3d d8 f0 0b be
       -0.21923374 0.12722777 0.117661364 -0.13666093
000290 eb e2 59 3e 7e 6b 5c 3e 57 5d 26 be 67 7e 02 be
       0.21277969 0.2152538 -0.16246544 -0.12743531
0002a0 e2 e1 23 3d f6 e3 5b 3e 54 47 b8 bc 3f bc 0b be
       0.04001034 0.21473679 -0.02249495 -0.13646029
0002b0 ef ca 15 3e 58 f7 92 3d dd 16 82 3d fe 94 60 3e
       0.14628194 0.07176083 0.06352017 0.21931836
0002c0 0a 87 8b 3d b0 d3 a3 bd 57 18 0a bd c2 87 36 be
       0.06812866 -0.079993606 -0.03371462 -0.17825225
0002d0 75 c7 52 3e 3c da 47 be a5 b2 b4 bc c0 58 06 be
       0.205839 -0.19516844 -0.02205784 -0.13119793
0002e0 05 63 1c 3e 54 e1 37 bc 75 4c 94 bd 79 54 4b bd
       0.15272148 -0.011223156 -0.072411455 -0.049641106
0002f0 f2 85 0c 3d a3 a7 2c be bc e0 5b be 5d b5 4b 3e
       0.034307428 -0.16860823 -0.21472448 0.19893403
000300 d0 d6 cd 3d 8e 98 0a be 1c 53 56 3e b4 76 37 bd
       0.10050738 -0.13534757 0.20930141 -0.04479094
000310 39 a2 8f 3d a3 2a fc bd 5f 17 ae 3d 7a 4e 3c bd
       0.070133634 -0.1231282 0.085005514 -0.04597328
000320 41 f5 5c 3e 9f de 3d be c2 0a 64 be d7 55 16 3e
       0.21577932 -0.18541954 -0.22269729 0.14681183
000330 d0 0b 07 3e 8a b1 51 be fb d1 f5 3d d1 99 cd 3d
       0.131881 -0.20477882 0.12002941 0.10039104
000340 65 ee 08 3e 05 45 1a 3d 93 28 64 3e cc 1d 51 be
       0.1337219 0.03766348 0.22281103 -0.20421523
000350 5c 71 22 be 7d 03 bf bd c3 bc d9 bd 45 d0 2d 3e
       -0.15863556 -0.09326837 -0.106317066 0.1697398
000360 4a ec f4 bd 52 d8 42 3e f9 59 39 3e cd a5 53 3e
       -0.11959131 0.19027832 0.18100728 0.20668717
000370 b5 09 3b 3e ca 7f a4 3d e1 e1 8d bc 0d fc b2 3c
       0.18265422 0.08032186 -0.017319622 0.021848703
000380 73 e4 d9 bd a6 6c 49 be 67 fa 46 3e 71 47 20 be
       -0.10639276 -0.19670352 0.19431458 -0.15652253
000390 0b ce 03 be e1 e5 32 bd ae 91 1d 3e 2f 32 f6 3c
       -0.12871568 -0.04367626 0.15387604 0.030053226
0003a0 ec 84 60 3e d0 9c 2b 3e 96 5e 81 bc c3 f9 c4 3d
       0.21925706 0.16759038 -0.015792172 0.09617951
0003b0 bb dc b4 bd 02 13 a5 3c e1 e2 5d 3e 20 9b 86 3d
       -0.088311635 0.020150665 0.21668579 0.065725565
0003c0 79 fb d8 3d d2 7e 00 3e 86 cd 28 be 61 19 cd 3d
       0.105948396 0.12548378 -0.16484651 0.10014606
0003d0 df df 34 3e b9 37 0f be 1a 1e 5a be e9 37 59 3d
       0.17663525 -0.139861 -0.21300545 0.053031836
0003e0 f4 f1 e3 bd 6d 60 21 3e 88 b3 24 be ec 21 85 3c
       -0.11130133 0.1575944 -0.1608411 0.016251527
0003f0 eb d2 15 3e 54 89 1e 3e 5b 32 34 3e f9 02 bb bd
       0.1463124 0.15482074 0.17597334 -0.09131426

onnx::Conv_816 f4 [32]
000000 00 00 00 00 00 00 00 00 00 00 00 00 00 00 00 00
       0.0 0.0 0.0 0.0
000010 00 00 00 00 00 00 00 00 00 00 00 00 00 00 00 00
       0.0 0.0 0.0 0.0
000020 00 00 00 00 00 00 00 00 00 00 00 00 00 00 00 00
       0.0 0.0 0.0 0.0
000030 00 00 00 00 00 00 00 00 00 00 00 00 00 00 00 00
       0.0 0.0 0.0 0.0
000040 00 00 00 00 00 00 00 00 00 00 00 00 00 00 00 00
       0.0 0.0 0.0 0.0
000050 00 00 00 00 00 00 00 00 00 00 00 00 00 00 00 00
       0.0 0.0 0.0 0.0
000060 00 00 00 00 00 00 00 00 00 00 00 00 00 00 00 00
       0.0 0.0 0.0 0.0
000070 00 00 00 00 00 00 00 00 00 00 00 00 00 00 00 00
       0.0 0.0 0.0 0.0

onnx::Conv_818 f4 [32, 11, 1]
000000 ab c1 25 be d3 9e 82 3e 35 50 35 be 30 34 b1 bd
       -0.1618716 0.25511798 -0.17706378 -0.08652532
000010 d9 0f 49 be 10 43 4f 3e a1 2a 33 3e c0 10 43 be
       -0.19634952 0.20240426 0.1749673 -0.19049358
000020 9c 8a 66 3e d8 38 5c bd be 36 c8 bb 42 33 1f 3e
       0.22513813 -0.053765148 -0.0061100414 0.15546897
000030 6c 45 3c 3e 0d 30 6c be 62 93 13 be 4c d6 67 bd
       0.18385857 -0.23065205 -0.14411691 -0.056600854
000040 78 99 5b 3c 1c 80 91 be ef 36 53 bd d3 e3 51 be
       0.013403289 -0.28418052 -0.05156606 -0.20497064
000050 1b a7 3a 3d 44 ef f8 bd bc 48 0c 3e 3e 98 87 3e
       0.04556952 -0.12155011 0.13699621 0.2648334
000060 cf 3b d7 bd 7a f5 25 bd 5f 36 f8 3d bb a3 d1 3b
       -0.105094545 -0.040517308 0.121197455 0.006397692
000070 cb f4 52 bd 25 d5 1c 3e c8 57 87 3e 15 c7 8e 3e
       -0.051502984 0.15315683 0.2643416 0.27886263
000080 42 9c 4e be 7a f8 37 3e 29 1c 71 3e 09 7c 6f 3d
       -0.20176795 0.1796588 0.23545898 0.0584679
000090 4c 1e 8c be f0 df 8a 3e 00 b5 72 be 82 42 35 be
       -0.27366865 0.27123976 -0.23701859 -0.17701152
0000a0 85 98 8f be 27 2a af 3c 92 20 8a be 9e e4 48 be
       -0.2804605 0.021382404 -0.26977974 -0.1961846
0000b0 9d 0d 82 3e b1 f5 7c 3e 86 53 55 be 86 a1 41 be
       0.2540101 0.24703099 -0.20832643 -0.18909273
0000c0 4f 7e c6 3d a5 4e 0f 3e 06 74 73 be ef 1a 2a be
       0.0969206 0.13994844 -0.23774728 -0.16611837
0000d0 f6 41 99 be 08 7b cf 3d 3d b6 60 be 9c ab 0c be
       -0.29933137 0.10130888 -0.21944518 -0.13737339
0000e0 7e 40 5a be 6b b5 89 be 46 e6 16 3e ce be 84 3e
       -0.21313664 -0.26896223 0.1473628 0.25926822
0000f0 c4 05 05 3d 57 d2 44 bd b2 42 54 3e b7 59 52 be
       0.0324762 -0.04805216 0.20728567 -0.20542036
000100 fc ac 37 3d d4 74 d0 3d 46 ee af 3b 30 44 98 bd
       0.044842705 0.10178533 0.0053689806 -0.07434881
000110 03 55 94 3e 0d 44 e3 3d d1 c9 9a 3d 34 a5 91 3d
       0.2897111 0.11096964 0.07558025 0.07111588
000120 f7 0f 94 3d d0 e3 68 3e cb fc eb bd b7 54 5a be
       0.072296076 0.22743154 -0.11522826 -0.21321379
000130 8d c0 a7 3d 3a 73 8c 3e 4c 53 0d 3e 40 78 42 bc
       0.08191023 0.2743166 0.13801306 -0.01186949
000140 3f 7d 37 be 35 d9 7c 3e f3 43 ba 3c 01 fe 7c 3e
       -0.17918871 0.24692233 0.022737479 0.2470627
000150 32 45 bc 3d 3a c3 79 bd 38 5e d6 bd 4a 44 7b 3e
       0.091928855 -0.0609772 -0.104671896 0.24537769
000160 6f 62 b8 3d e8 57 29 bd 82 cb 99 3e aa 73 bc 3d
       0.0900315 -0.0413436 0.30038077 0.09201749
000170 0c 01 69 3d ea 9d 93 3e d3 6b 0e 3e f1 da ef bc
       0.056885764 0.28831416 0.13908319 -0.029279204
000180 72 f2 54 bd f4 7c 06 bd c3 ea 08 be b9 8a 84 3e
       -0.051989026 -0.03283401 -0.13370804 0.25887087
000190 47 04 59 be be a6 94 be 29 89 70 3d d1 51 d1 bd
       -0.21193038 -0.29033464 0.058724556 -0.10220683
0001a0 0c 00 44 3e f3 01 8a 3e 29 2d 24 be 84 8a e2 bd
       0.19140643 0.26954612 -0.16032852 -0.11061576
0001b0 1d 35 18 be bb 30 66 be 78 58 6f be 84 c5 4e bd
       -0.14864011 -0.22479527 -0.23373592 -0.050481334
0001c0 2a 93 49 be 37 ec d2 3d 80 d6 c1 3c 8d 77 84 be
       -0.19685045 0.10298961 0.023661852 -0.2587246
0001d0 40 60 80 3e ea 10 86 be 5c 15 f5 3d 4f ec 21 3e
       0.25073433 -0.2618478 0.119669646 0.15812801
0001e0 06 1b fa 3d 34 3c 85 3e 3f a3 2a be 0a b0 1e 3e
       0.122121856 0.26022494 -0.16663836 0.15496841
0001f0 a6 f4 96 3e b9 25 8f be 1d 91 82 bd 64 a5 94 be
       0.29483527 -0.27958468 -0.063753344 -0.29032433
000200 8c 04 5c be 7a 46 99 3e ef 91 14 3c ec 11 19 3e
       -0.2148611 0.29936582 0.009067996 0.14948243
000210 30 6d 3d be 07 f3 6a 3e 9f df 47 be 54 26 f3 3d
       -0.18498683 0.2294427 -0.19518898 0.11872545
000220 80 a0 9f bd a4 fb 4c be d3 6f 8a bc f7 e4 f6 3d
       -0.07794285 -0.20017868 -0.016899025 0.1205539
000230 ed 3a 88 be 23 53 0a be 76 82 e2 bc 3f e7 0f 3e
       -0.26607457 -0.13508277 -0.0276501 0.14053057
000240 bf d6 02 be 6b a5 52 3e 0f 57 69 3e 6e b7 78 3e
       -0.12777232 0.20570914 0.22787116 0.24288723
000250 3f 88 98 be 91 9d 6f 3e 3c 98 c2 3d 21 60 40 3e
       -0.29791448 0.2339995 0.09501693 0.1878667
000260 c7 75 83 3e 73 5a 6e be d2 c8 99 be 58 0a db bd
       0.25675794 -0.23276691 -0.30036026 -0.10695332
000270 7e 2c 98 3c 33 28 96 3d d7 2f 95 3e 5c 5f 5b 3e
       0.018575903 0.07331886 0.2913806 0.21423095
000280 45 30 3a be 9e b2 e7 bd e0 13 3e 3e d1 0d 63 bd
       -0.18182476 -0.113133654 0.18562269 -0.0554331
000290 fb a3 0f 3e 30 f8 90 3d 31 c3 5d be df 91 a1 3d
       0.14027397 0.07078588 -0.21656491 0.07889151
0002a0 7b 5e a2 3d 70 81 89 be 1e d7 c9 3d 78 ab 68 be
       0.07928177 -0.26856565 0.098554835 -0.2272166
0002b0 cf cc 6b 3e 46 6c 62 3e 2f 70 5d be 6b 98 a0 3d
       0.23027347 0.22111616 -0.21624826 0.078415714
0002c0 04 2e 67 3d 5b 1b 86 be a4 81 23 be 4e 31 18 3b
       0.05644037 -0.26192746 -0.15967423 0.0023222747
0002d0 c9 94 16 3e f5 96 95 3e 62 be 12 3e 04 2c 42 be
       0.14705195 0.29216734 0.14330438 -0.18962103
0002e0 7e 18 85 3e cf 21 15 3a 63 7b 2d 3e 85 23 a6 3d
       0.2599525 0.0005688937 0.169416 0.081122436
0002f0 ca ec 71 be db df d9 bd 0d b2 9a bb 74 db e8 bd
       -0.23625484 -0.106384 -0.0047209323 -0.11369982
000300 65 8d 57 be 72 2b 85 3e 6c db 73 bd 21 c7 67 be
       -0.21050031 0.2600971 -0.05953543 -0.22634555
000310 9f b1 1b be 66 c4 80 3c a9 13 84 3d 62 48 97 3e
       -0.15204476 0.01571865 0.064490624 0.2954741
000320 8e b3 c8 3c 93 40 bb bc 77 89 5c be 45 29 8f 3e
       0.02449968 -0.02285794 -0.21536814 0.27961174
000330 2b b2 53 bd 40 b7 7a be d6 61 98 3e d0 cf 8a 3e
       -0.051683586 -0.24483967 0.29762143 0.27111673
000340 ae 26 09 be ab 67 41 be b3 cd 08 3d 95 8e 88 be
       -0.13393661 -0.18887202 0.033399295 -0.2667128
000350 db 5e 45 be a7 18 96 3e ac 90 8d 3e b7 c8 e3 bd
       -0.19274466 0.29315683 0.27649438 -0.11122268
000360 2c 2d 77 be b0 1d 68 3e 14 41 05 bc c2 6b e0 3d
       -0.24138325 0.22667575 -0.008133192 0.10958053
000370 4e 50 8a be f3 20 1c 3e b8 83 4f be 63 1f 35 3e
       -0.27014393 0.15246944 -0.2026509 0.17687754
000380 2c 00 49 3e 1d dc 88 be b0 00 13 3d a5 3d a6 bd
       0.19628972 -0.26730433 0.035889328 -0.081172265
000390 91 53 29 be 12 19 8b be d6 8b b1 3c 4a 7b 87 3e
       -0.16535784 -0.27167565 0.021673124 0.2646125
0003a0 dd f3 32 3d 0a db 24 3e 1f 31 ea bd 35 65 92 be
       0.043689597 0.16099182 -0.1143515 -0.2859284
0003b0 eb 42 90 3e 1f df 38 be bc ae 68 be f9 34 57 3d
       0.28176054 -0.18053864 -0.22722906 0.052540753
0003c0 86 99 17 3d b2 50 38 3e 69 32 59 3e 3b 1c 45 be
       0.037011646 0.17999533 0.21210636 -0.1924905
0003d0 e6 df af bd fa 09 3e 3e 1f da 5e 3d 37 c3 c0 bd
       -0.08587627 0.18558493 0.054407235 -0.09412234
0003e0 94 fb 20 be 7d 6a 89 be 5e 28 19 be bf 7d 0f 3e
       -0.1572097 -0.26839057 -0.14956805 0.14012812
0003f0 ac 60 66 bd 45 32 8a 3e 0c e3 4f 3e 78 00 80 be
       -0.056244537 0.26991478 0.20301455 -0.25000358

onnx::Conv_819 f4 [32]
000000 00 00 00 00 00 00 00 00 00 00 00 00 00 00 00 00
       0.0 0.0 0.0 0.0
000010 00 00 00 00 00 00 00 00 00 00 00 00 00 00 00 00
       0.0 0.0 0.0 0.0
000020 00 00 00 00 00 00 00 00 00 00 00 00 00 00 00 00
       0.0 0.0 0.0 0.0
000030 00 00 00 00 00 00 00 00 00 00 00 00 00 00 00 00
       0.0 0.0 0.0 0.0
000040 00 00 00 00 00 00 00 00 00 00 00 00 00 00 00 00
       0.0 0.0 0.0 0.0
000050 00 00 00 00 00 00 00 00 00 00 00 00 00 00 00 00
       0.0 0.0 0.0 0.0
000060 00 00 00 00 00 00 00 00 00 00 00 00 00 00 00 00
       0.0 0.0 0.0 0.0
000070 00 00 00 00 00 00 00 00 00 00 00 00 00 00 00 00
       0.0 0.0 0.0 0.0

onnx::Conv_821 f4 [64, 64, 1, 1]
000000 2e 4b ab 3d 15 9a a6 3d 0d 59 ea 3d f6 cf 30 bc
       0.08363949 0.081348576 0.11442766 -0.010791769
000010 03 9d a7 3d 93 4d de 3d 22 3a 6d 3c c0 20 97 3d
       0.081842445 0.1085464 0.014479192 0.073792934
000020 fb 47 52 bc fe f6 00 3d 19 72 8e 3d 4a 50 e8 bd
       -0.012834544 0.03148555 0.06955356 -0.11343439
000030 76 df cf bd 12 f4 6c 3d 13 1d d2 3c 92 e4 8c bd
       -0.10150044 0.05784995 0.02564863 -0.06879534
000040 88 fb 5b 3c 42 c9 3d bb 3e e6 48 3b 5e e2 b0 3c
       0.013426669 -0.002895907 0.0030654813 0.021592315
000050 53 c9 38 3d 7f e4 45 bb a1 04 eb 3d e8 b9 35 3d
       0.045113873 -0.0030196009 0.11475492 0.044366747
000060 55 b8 01 bd c7 fd de 3d d1 30 10 ba 56 32 80 ba
       -0.031669933 0.10888248 -0.0005500438 -0.0009780626
000070 f3 44 ea bb a9 b1 26 3c 32 4a d5 bc bc cc cf 3d
       -0.0071493327 0.010174193 -0.026036356 0.10146472
000080 29 66 a2 bd ab f0 ad 3d c6 ec dc 3d d4 cf dc 3d
       -0.07929642 0.084931694 0.107873484 0.107818276
000090 8d 18 9a bb 35 89 3e 3d 00 09 ac 3d 74 a0 36 3c
       -0.0047026337 0.04651757 0.08400154 0.011146653
0000a0 83 cc ef 3d 4a 89 98 3d 34 dc 5c bd 96 57 18 bd
       0.117089294 0.07448061 -0.05392094 -0.037192903
0000b0 6b 3f a7 3d 5e 41 a9 bd b7 e6 f7 3c 63 49 78 3d
       0.08166393 -0.08264421 0.03026138 0.060616862
0000c0 30 f1 1d bd a8 9d b1 3d 44 fa fe bd 97 a2 76 bd
       -0.038560092 0.08672649 -0.12450078 -0.06021365
0000d0 e3 05 a0 bc 03 69 9c 3d 0a 1a 62 bd 40 04 69 bd
       -0.019534057 0.07637217 -0.055200614 -0.05688882
0000e0 99 f0 32 3d dd 86 e4 bc ac d2 35 3d cd 48 8a 3d
       0.043686483 -0.02789634 0.044390365 0.06752167
0000f0 74 e6 86 3c 45 92 b4 bb f4 4f c3 bd 19 c1 a6 bc
       0.01646731 -0.0055106007 -0.09536734 -0.020355748
000100 3d 43 4d 3d 3b 14 77 bd 04 a3 d0 bd 77 91 5d bc
       0.05011295 -0.060322028 -0.10187343 -0.013523451
000110 6a 73 25 bd 50 8b ff 3d 1b 90 9a bd ca a3 a4 3d
       -0.04039327 0.124777436 -0.07547017 0.08039053
000120 d3 51 90 bd 1c aa 68 3d d4 5e 5a bd 82 99 ab 3d
       -0.07046857 0.056802854 -0.05331309 0.08378889
000130 f3 28 8a 3c 62 14 99 3d 60 84 fe bd b5 74 fd 3c
       0.01686523 0.07474591 -0.12427592 0.03093944
000140 a5 d0 c6 3d e6 c9 fa bc 90 e0 41 bd 7d 4d 84 bc
       0.097077645 -0.03061385 -0.0473333 -0.01615023
000150 b2 a3 ee 3b e2 b5 8c bd 85 6d eb 3d a4 80 97 bd
       0.0072826976 -0.06870629 0.114954986 -0.07397583
000160 53 ea 2c 3d ec b3 ed bd 77 90 96 3c 15 fd fb bd
       0.042215656 -0.11606583 0.018379433 -0.12304131
000170 ec de b5 3d 65 01 d7 bd 46 6a d6 3d 9e bd 49 bd
       0.088804096 -0.10498313 0.10469489 -0.0492531
000180 cd 78 a6 bd df ed c5 bc 1f 05 77 bc 90 51 aa bd
       -0.0812851 -0.024161277 -0.015076905 -0.08316338
000190 34 6f 98 bd 40 9f f9 bd 03 32 53 3d 09 33 af 3d
       -0.07443085 -0.12188578 0.051561367 0.08554656
0001a0 38 0f d4 3d 57 9b 2c bd e5 b7 f6 bd ae db c7 bd
       0.10354465 -0.04214033 -0.12046794 -0.097586975
0001b0 7f 1a 3a 3d 7b 9c fb bd 92 c3 ce bd fd e9 1a bc
       0.045435425 -0.12285706 -0.10095896 -0.009455201
0001c0 ec be 5b 3d 1f dc eb bd 0e b1 fe 3d 52 8f a3 3d
       0.053648874 -0.11516594 0.12436114 0.079863206
0001d0 df b4 38 3d bc d8 10 bd 30 88 06 bd 31 ad bf bd
       0.045094367 -0.035362944 -0.032844722 -0.093592055
0001e0 b6 bf 2f bc 4d 59 1a 3d 5d db 63 bd 44 d0 66 3c
       -0.01072686 0.03768282 -0.055629123 0.01408774
0001f0 b0 89 f2 bb 68 77 ed bd f4 af 97 3d ea 77 55 bd
       -0.0074016675 -0.115950406 0.07406607 -0.052116312
000200 d0 8b f2 3d b7 f1 dd 3a ac 3c 37 3d 92 1f 93 3d
       0.11843073 0.0016932999 0.044735596 0.07183756
000210 17 c0 2d bd 37 a4 f7 3d 08 ea c3 bc d2 2e ee 3d
       -0.04241952 0.12091868 -0.023915306 0.11630024
000220 9f 4d 90 3d 59 d3 34 bd 34 af e1 bd e6 3c 48 3d
       0.07046055 -0.04414687 -0.110197455 0.048886202
000230 59 6b 0f bd 79 e4 40 bd a1 f4 df bd e0 64 4e bd
       -0.035014484 -0.04709289 -0.10935331 -0.05038917
000240 45 ac d3 bd 5f 3f 77 3c b1 76 a2 3d d2 4d a3 bc
       -0.10335592 0.015090792 0.07932795 -0.019934569
000250 20 e5 c1 bd 3b ea dd 3d 90 24 98 bd 3f ec f6 bd
       -0.0946753 0.108356915 -0.07428849 -0.12056779
000260 80 6e 13 3d c6 6b ec bd ae d5 f3 3d cd 84 9a ba
       0.035994053 -0.11543994 0.119059905 -0.0011788845
000270 39 84 fd 3d 49 cf 87 bd 76 73 c2 bd a6 a7 f9 bc
       0.12378735 -0.066313334 -0.09494679 -0.030475449
000280 aa a2 8b 3d cd c0 ac bd d2 fd 92 bd 5b b9 d3 bd
       0.06818135 -0.08435211 -0.07177319 -0.10338088
000290 ce 11 3d bd ea ad 91 bd d0 9b d6 bd 8c 76 1d 3b
       -0.046159558 -0.071132496 -0.104789376 0.0024026958
0002a0 39 96 83 3d 2e 18 e6 bd a5 1f d1 bd ae 5d 31 3d
       0.06425137 -0.11235081 -0.10211114 0.04330223
0002b0 c0 93 c3 bd 42 18 d4 3d fd 4c e4 bd f6 90 00 bd
       -0.095496655 0.10356189 -0.11147497 -0.031388246
0002c0 88 e6 05 bd 93 78 a1 bc 5f a2 f7 bc 8a be 49 3d
       -0.032690555 -0.019710815 -0.030228792 0.049253978
0002d0 0d 2e f8 3d 89 7e 89 3d f7 3f 5d bd 94 db 80 bd
       0.121181585 0.06713588 -0.05401608 -0.06291881
0002e0 55 4b 02 bc 24 f2 05 bc 33 dd f1 bd f6 5c 3d 3d
       -0.007952531 -0.008175407 -0.118097685 0.046231233
0002f0 5c 93 4f bd c6 3e 25 bd b4 b4 66 bb a7 28 5e 3c
       -0.050677642 -0.04034307 -0.0035202922 0.013559497
000300 e1 e9 3f 3d ba ad a5 bc 81 28 a6 3d ce 44 25 bd
       0.046853904 -0.02022444 0.08113194 -0.04034882
000310 5d a3 cc bc 5e 1b 23 bd 40 bb 72 bd c2 0a b1 3d
       -0.024980241 -0.03982102 -0.059260607 0.0864463
000320 70 13 d4 bd 5e 0c 49 bd ab 0c 8e 3d c0 7f c8 bd
       -0.1035527 -0.04908406 0.0693601 -0.097899914
000330 a4 03 50 bd 45 08 b4 3c 37 82 8f bd a8 69 c4 3d
       -0.050784722 0.0219766 -0.070072584 0.09590465
000340 5e f4 97 bd b2 7d 17 3d 2a 42 87 3d 83 56 15 3d
       -0.07419656 0.036985107 0.06604417 0.036459457
000350 21 a0 26 bd 80 7e 68 bd 77 a7 88 3d 7b 6a f6 bd
       -0.040680055 -0.056761265 0.066725664 -0.12032028
000360 31 6b d1 bd bb 57 5d 3d 8c 6d ee bd 6f d9 77 3d
       -0.10225523 0.054038744 -0.11641988 0.060510095
000370 6b b3 a0 bc 18 8f f4 3c e3 db df bd f2 b5 e0 3d
       -0.019616803 0.029853389 -0.10930612 0.10972203
000380 35 48 dd 3d f8 5d 11 3d 12 78 b6 3d 39 28 e9 bd
       0.10804788 0.035490006 0.0890962 -0.11384625
000390 c8 95 ab 3a 05 8f 03 bc 8c 48 99 bd 56 6c d4 bd
       0.0013090903 -0.008029704 -0.0748454 -0.10372226
0003a0 5a ed 8b bc 13 c9 ad bd b9 5a f1 3d ec 65 91 bd
       -0.017080951 -0.084856175 0.11784882 -0.07099518
0003b0 98 53 5b 3d 1b 52 45 bd d1 eb 0f 3c 51 8c a1 3d
       0.053546518 -0.048174005 0.00878425 0.07888091
0003c0 e4 18 e7 bc 73 c2 88 bb 24 7b ce 3d 0b 33 cb 3d
       -0.028210111 -0.004173571 0.10082081 0.09921845
0003d0 9f cd 50 3d ed cd f0 bd 76 67 62 bd 68 41 93 bd
       0.050977346 -0.11758027 -0.05527445 -0.071902096
0003e0 85 b3 7c bd f9 92 89 bd c9 99 95 bd 39 61 c5 3d
       -0.06169464 -0.06717486 -0.07304723 0.096376844
0003f0 e6 35 c8 3d c5 91 3f bd ab b5 d1 bd 48 94 aa ba
       0.09775905 -0.046769876 -0.102397285 -0.0013014162

onnx::Conv_822 f4 [64]
000000 00 00 00 00 00 00 00 00 00 00 00 00 00 00 00 00
       0.0 0.0 0.0 0.0
000010 00 00 00 00 00 00 00 00 00 00 00 00 00 00 00 00
       0.0 0.0 0.0 0.0
000020 00 00 00 00 00 00 00 00 00 00 00 00 00 00 00 00
       0.0 0.0 0.0 0.0
000030 00 00 00 00 00 00 00 00 00 00 00 00 00 00 00 00
       0.0 0.0 0.0 0.0
000040 00 00 00 00 00 00 00 00 00 00 00 00 00 00 00 00
       0.0 0.0 0.0 0.0
000050 00 00 00 00 00 00 00 00 00 00 00 00 00 00 00 00
       0.0 0.0 0.0 0.0
000060 00 00 00 00 00 00 00 00 00 00 00 00 00 00 00 00
       0.0 0.0 0.0 0.0
000070 00 00 00 00 00 00 00 00 00 00 00 00 00 00 00 00
       0.0 0.0 0.0 0.0
000080 00 00 00 00 00 00 00 00 00 00 00 00 00 00 00 00
       0.0 0.0 0.0 0.0
000090 00 00 00 00 00 00 00 00 00 00 00 00 00 00 00 00
       0.0 0.0 0.0 0.0
0000a0 00 00 00 00 00 00 00 00 00 00 00 00 00 00 00 00
       0.0 0.0 0.0 0.0
0000b0 00 00 00 00 00 00 00 00 00 00 00 00 00 00 00 00
       0.0 0.0 0.0 0.0
0000c0 00 00 00 00 00 00 00 00 00 00 00 00 00 00 00 00
       0.0 0.0 0.0 0.0
0000d0 00 00 00 00 00 00 00 00 00 00 00 00 00 00 00 00
       0.0 0.0 0.0 0.0
0000e0 00 00 00 00 00 00 00 00 00 00 00 00 00 00 00 00
       0.0 0.0 0.0 0.0
0000f0 00 00 00 00 00 00 00 00 00 00 00 00 00 00 00 00
       0.0 0.0 0.0 0.0
