models/particlenet_AK4/1/model.onnx (onnx, 971533 bytes, 42 tensors)

pf_conv.conv.0.running_mean f4 [20]
0.0 0.0 0.0 0.0 0.0 0.0 0.0 0.0
0.0 0.0 0.0 0.0 0.0 0.0 0.0 0.0
0.0 0.0 0.0 0.0
00000000: 0000 0000 0000 0000 0000 0000 0000 0000
00000010: 0000 0000 0000 0000 0000 0000 0000 0000
00000020: 0000 0000 0000 0000 0000 0000 0000 0000
00000030: 0000 0000 0000 0000 0000 0000 0000 0000
00000040: 0000 0000 0000 0000 0000 0000 0000 0000

pf_conv.conv.0.running_var f4 [20]
1.0 1.0 1.0 1.0 1.0 1.0 1.0 1.0
1.0 1.0 1.0 1.0 1.0 1.0 1.0 1.0
1.0 1.0 1.0 1.0
00000000: 0000 803f 0000 803f 0000 803f 0000 803f
00000010: 0000 803f 0000 803f 0000 803f 0000 803f
00000020: 0000 803f 0000 803f 0000 803f 0000 803f
00000030: 0000 803f 0000 803f 0000 803f 0000 803f
00000040: 0000 803f 0000 803f 0000 803f 0000 803f

pf_conv.conv.0.weight f4 [20]
1.0 1.0 1.0 1.0 1.0 1.0 1.0 1.0
1.0 1.0 1.0 1.0 1.0 1.0 1.0 1.0
1.0 1.0 1.0 1.0
00000000: 0000 803f 0000 803f 0000 803f 0000 803f
00000010: 0000 803f 0000 803f 0000 803f 0000 803f
00000020: 0000 803f 0000 803f 0000 803f 0000 803f
00000030: 0000 803f 0000 803f 0000 803f 0000 803f
00000040: 0000 803f 0000 803f 0000 803f 0000 803f

pf_conv.conv.0.bias f4 [20]
0.0 0.0 0.0 0.0 0.0 0.0 0.0 0.0
0.0 0.0 0.0 0.0 0.0 0.0 0.0 0.0
0.0 0.0 0.0 0.0
00000000: 0000 0000 0000 0000 0000 0000 0000 0000
00000010: 0000 0000 0000 0000 0000 0000 0000 0000
00000020: 0000 0000 0000 0000 0000 0000 0000 0000
00000030: 0000 0000 0000 0000 0000 0000 0000 0000
00000040: 0000 0000 0000 0000 0000 0000 0000 0000

sv_conv.conv.0.running_mean f4 [11]
0.0 0.0 0.0 0.0 0.0 0.0 0.0 0.0
0.0 0.0 0.0
00000000: 0000 0000 0000 0000 0000 0000 0000 0000
00000010: 0000 0000 0000 0000 0000 0000 0000 0000
00000020: 0000 0000 0000 0000 0000 0000

sv_conv.conv.0.running_var f4 [11]
1.0 1.0 1.0 1.0 1.0 1.0 1.0 1.0
1.0 1.0 1.0
00000000: 0000 803f 0000 803f 0000 803f 0000 803f
00000010: 0000 803f 0000 803f 0000 803f 0000 803f
00000020: 0000 803f 0000 803f 0000 803f

sv_conv.conv.0.weight f4 [11]
1.0 1.0 1.0 1.0 1.0 1.0 1.0 1.0
1.0 1.0 1.0
00000000: 0000 803f 0000 803f 0000 803f 0000 803f
00000010: 0000 803f 0000 803f 0000 803f 0000 803f
00000020: 0000 803f 0000 803f 0000 803f

sv_conv.conv.0.bias f4 [11]
0.0 0.0 0.0 0.0 0.0 0.0 0.0 0.0
0.0 0.0 0.0
00000000: 0000 0000 0000 0000 0000 0000 0000 0000
00000010: 0000 0000 0000 0000 0000 0000 0000 0000
00000020: 0000 0000 0000 0000 0000 0000

pn.fc.0.0.weight f4 [128, 256]
0.0008052215 0.031171694 -0.059922792 0.06145376 -0.031756386 -0.048215114 0.051059656 -0.046917483
0.026912294 0.005693473 -0.015507877 -0.016362146 -0.030463107 0.049776025 -0.023991086 0.0332518
-0.025743514 0.016616084 0.009473592 0.05757294 0.03884968 0.0027946308 0.054027654 -0.005535409
0.03772676 -0.035499185 0.0311848 -0.060448006 -0.048590377 0.06031678 -0.058151595 0.0007771328
0.055854328 0.007148795 -0.009467125 -0.05623834 0.033979774 0.03229382 0.049261734 0.048800215
0.026948147 -0.0005669892 0.057346493 -0.008513249 0.027865455 -0.047683798 -0.055506922 -0.042212695
-0.0141432285 -0.01588346 -0.029824987 -0.055211164 -0.00075654685 -0.029529333 0.026637271 0.02683311
-0.03669937 0.041712426 -0.0028540343 -0.05031906 -0.0032276511 -0.047522925 0.022402816 0.05741197
0.04928135 0.020062938 0.053572312 -0.010427371 0.016409524 0.028820246 -0.028697401 -0.04819671
0.021140523 -0.012441032 -0.013147913 -0.00929264 0.02531106 0.0017040446 -0.0032887086 0.028870583
0.038435258 -0.01118923 -0.010076873 -0.03273245 0.04463581 -0.017402917 -0.03201615 -0.050968163
-0.034836873 -0.006983556 -0.02847474 -0.044179656 0.019944876 0.045954213 0.036503747 -0.0378943
-0.0020669773 -0.011200383 -0.038610525 0.05547986 -0.03888254 -0.03385354 -0.038396724 -0.033354275
-0.01711429 0.0179862 0.035207942 -0.032828912 -0.05741492 0.060222268 0.00866808 0.030271754
-0.038328804 -0.053108476 -0.036438443 -0.035011746 -0.06216663 0.018143535 0.022235595 0.057270996
-0.042637162 -0.040862054 0.0017117709 -0.016212836 0.039720908 0.003230065 0.002937995 -0.047499374
0.052505873 0.040101863 -0.019304775 -0.059169546 0.019777164 -0.054239973 -0.018807337 0.036623403
0.0035959706 -0.061301038 0.04387649 -0.039380774 -0.015871815 -0.019869603 0.06207142 -0.007991366
-0.018743992 -0.04914604 -0.03422326 -0.002058126 -0.0022077784 -0.0033677742 0.011365682 -0.04983419
-0.06066166 0.056236476 0.048179068 -0.013146453 0.024541438 0.0030425787 -0.011016153 -0.028881758
-0.049436912 -0.0479151 0.014520384 0.019072376 -0.046579562 0.020826079 0.008658849 0.03561689
0.041041277 0.041072085 -0.042024933 0.050243303 -0.039652824 0.027051918 -0.01861912 -0.011060119
0.0062616616 0.010712877 -0.053524017 -0.03208077 -0.044869483 -0.00894551 0.040964484 0.045468464
-0.0590968 0.053280607 -0.041455455 -0.043974124 -0.050943352 0.044615373 0.022443302 0.04771875
0.03354057 0.02059026 -0.0109553635 0.015098356 0.010487407 0.026575 0.026945926 -0.0015127733
0.057541683 -0.062374078 0.05706419 0.045524657 -0.038331173 0.018716127 -0.03139271 0.04232926
0.02504351 -0.016459182 -0.03070873 0.03671156 0.05378244 -0.058668025 -0.0090325475 0.0042682737
0.034049354 0.03192637 -0.02791056 -0.045525335 0.02930627 0.056628115 0.04415498 0.030337103
-0.053906053 -0.05895213 -0.056413062 0.06045848 -0.040707424 0.05728651 -0.023925632 0.047046386
0.0042261407 -0.005215548 -0.046765827 0.048017077 -0.033441447 -0.05169253 0.028149672 -0.047278732
0.051074706 -0.012517534 -0.0070918277 0.03389024 -0.052358493 0.027187213 -0.015001997 -0.0360087
-0.016032726 -0.042551376 0.057822444 -0.012559436 -0.043442927 -0.00020440668 -0.014093824 -0.008623853
00000000: 8015 533a c85b ff3c 9a71 75bd f0b6 7b3d
00000010: fc12 02bd 367d 45bd ee23 513d 8c2c 40bd
00000020: 2c77 dc3c 5090 ba3b c014 7ebc e809 86bc
00000030: c48d f9bc f2e1 4b3d f488 c4bc 0a33 083d
00000040: 10e4 d2bc 741e 883c 2037 1b3c 9ad1 6b3d
00000050: d820 1f3d 2026 373b 1a4c 5d3d 6062 b5bb
00000060: 6087 1a3d 9867 11bd 4477 ff3c 5498 77bd
00000070: b406 47bd ba0e 773d 5e30 6ebd 80b8 4b3a
00000080: 82c7 643d 7040 ea3b 001c 1bbc 2c5a 66bd
00000090: 602e 0b3d 8646 043d acc6 493d bce2 473d
000000a0: 5cc2 dc3c 00a2 14ba 28e4 6a3d 287b 0bbc
000000b0: 1846 e43c 1650 43bd 3a5b 63bd 38e7 2cbd
000000c0: 00b9 67bc 081e 82bc 8853 f4bc 1a25 62bd
000000d0: 0053 46ba 80e7 f1bc 6836 da3c 1cd1 db3c
000000e0: 1452 16bd a6da 2a3d c00a 3bbb 5c1b 4ebd
000000f0: 0087 53bb 66a7 42bd 1c86 b73c d028 6b3d
00000100: 3edb 493d 085b a43c a46e 5b3d 90d7 2abc
00000110: 446d 863c 7018 ec3c d016 ebbc ea69 45bd
00000120: e42e ad3c 78d5 4bbc 586a 57bc 2840 18bc
00000130: 2459 cf3c 405a df3a 6087 57bb 0082 ec3c
00000140: 4a6e 1d3d 0853 37bc 7819 25bc 7612 06bd
00000150: 0ad4 363d 9090 8ebc 5e23 03bd fec3 50bd
00000160: 1cb1 0ebd 50d6 e4bb dc43 e9bc baf5 34bd
00000170: 7063 a33c 7c3a 3c3d f484 153d 0e37 1bbd
00000180: 2076 07bb d081 37bc 1226 1ebd da3e 633d
00000190: 4c43 1fbd 02aa 0abd e245 1dbd 7e9e 08bd
000001a0: 4433 8cbc cc57 933c 3436 103d 9c77 06bd
000001b0: e82b 6bbd a0ab 763d 9004 0e3c 78fc f73c
000001c0: aafe 1cbd 4688 59bd 7a40 15bd 7a68 0fbd
000001d0: 70a2 7ebd c0a1 943c 6c27 b63c fe94 6a3d
000001e0: 4ea4 2ebd f85e 27bd 805d e03a c8d0 84bc
000001f0: 64b2 223d 80af 533b 608b 403b b48e 42bd
00000200: 6610 573d da41 243d 0c25 9ebc c45b 72bd
00000210: b803 a23c bc2a 5ebd d811 9abc 6c02 163d
00000220: 60aa 6b3b cc16 7bbd d6b7 333d bc4d 21bd
00000230: 9c05 82bc 94c5 a2bc 9a3e 7e3d 38ee 02bc
00000240: 008d 99bc 5c4d 49bd b02d 0cbd a0e1 06bb
00000250: 60b0 10bb e0b5 5cbb 2037 3a3c f01e 4cbd
00000260: 5c78 78bd 3858 663d 6a57 453d 3864 57bc
00000270: 200b c93c 0066 473b 187d 34bc 7099 ecbc
00000280: 5c7e 4abd a042 44bd e8e6 6d3c ac3d 9c3c
00000290: 36ca 3ebd 749b aa3c d8dd 0d3c 04e3 113d
000002a0: e61a 283d 343b 283d 5622 2cbd eccb 4d3d
000002b0: 006b 22bd fc9b dd3c 2087 98bc 8035 35bc
000002c0: a02e cd3b 1085 2f3c 003c 5bbd 2067 03bd
000002d0: 10c9 37bd 3090 12bc 60ca 273d 243d 3a3d
000002e0: 7c0f 72bd c43c 5a3d 32cd 29bd 361e 34bd
000002f0: faa9 50bd 9cbe 363d 04db b73c bc74 433d
00000300: d661 093d e8ac a83c 207e 33bc 185f 773c
00000310: 60d3 2b3c d0b3 d93c b4bd dc3c 4048 c6ba
00000320: d4b0 6b3d f67b 7fbd 24bc 693d 1078 3a3d
00000330: 2601 1dbd 9052 993c a495 00bd 7261 2d3d
00000340: 0c28 cd3c 68d5 86bc e090 fbbc dc5e 163d
00000350: fa4a 5c3d e24d 70bd 40fd 13bc e0dc 8b3b
00000360: 5677 0b3d 3ac5 023d b0a4 e4bc c678 3abd
00000370: b413 f03c e2f2 673d dadb 343d 8485 f83c
00000380: 98cc 5cbd ca77 71bd 6211 67bd 50a3 773d
00000390: d4bc 26bd 42a5 6a3d b0ff c3bc b6b3 403d
000003a0: 707b 8a3b 30e7 aabb 868d 3fbd 8ead 443d
000003b0: e6f9 08bd 8cbb 53bd 249a e63c 58a7 41bd
000003c0: b633 513d 5816 4dbc 9062 e8bb 7ed0 0a3d
000003d0: dc75 56bd b8b7 de3c f0ca 75bc dc7d 13bd
000003e0: 1057 83bc 5a4a 2ebd 3ad7 6c3d 18c6 4dbc
000003f0: 36f1 31bd 0056 56b9 c8e9 66bc 104b 0dbc

pn.fc.0.0.bias f4 [128]
0.038242556 -0.05071819 -0.039353736 -0.06050566 -0.04491122 0.057131402 -0.05048474 -0.009147145
0.051627025 0.052803524 -0.049267843 0.010668322 0.028452665 -0.03276676 -0.047509193 -0.013808303
0.057896823 -0.037333034 0.017077342 0.035939544 0.005201705 0.028630167 0.039373107 0.047417812
-0.05877106 -0.03932461 0.050378054 -0.025408402 -0.059821665 -0.026196465 0.036301583 0.012122981
-0.0622923 0.008634999 0.05157093 -0.043307655 0.02135484 0.05946026 -0.052217573 0.060312048
-0.013833962 -0.024237 -0.014270961 0.05849476 -0.015910253 -0.025232285 -0.005224094 -0.005201608
-0.0325811 -0.033132717 -0.05525428 0.0047147498 -0.029184133 0.03489705 -0.018413953 0.014954448
0.03846664 -0.04674142 -0.042322673 -0.022222139 0.03860744 -0.0329208 0.005781062 -0.04797461
-0.03844866 0.030274697 0.0023874044 0.056735173 -0.032356493 -0.015224151 -0.036918752 0.04591699
0.046445213 -0.013570175 0.0070138127 0.0066687763 0.009393029 -0.03829191 0.053816736 0.039661072
0.050195187 -0.029735483 -0.049297534 0.030450761 -0.031392463 0.016257249 -0.046452254 0.050310418
-0.046566613 0.011263676 0.037317373 -0.03361565 -0.011699632 0.038722835 -0.04801026 0.01708068
0.021993116 0.021886572 0.026672743 -0.034355648 -0.04686737 -0.0020393804 -0.03485159 0.009710826
0.02144327 0.03291393 -0.031789325 0.01783476 0.027625673 0.053220242 -0.017246291 0.044401407
-0.008514762 0.023749657 0.05538494 -0.0036895052 0.037935793 -0.054815136 0.044367336 0.052036718
0.048168853 -0.020929754 0.04109826 0.055619642 0.03722725 0.033174187 -0.02766376 -0.06203685
00000000: 3aa4 1c3d e0bd 4fbd 6231 21bd c8d4 77bd
00000010: d4f4 37bd 9e02 6a3d 16c9 4ebd e8dd 15bc
00000020: dc76 533d 8248 583d 14cd 49bd 30ca 2e3c
00000030: 9015 e93c 7036 06bd 0099 42bd 383c 62bc
00000040: 3825 6d3d 86ea 18bd c8e5 8b3c 5835 133d
00000050: 1073 aa3b d089 ea3c b245 213d 2e39 423d
00000060: ecb9 70bd d812 21bd 3859 4e3d 4825 d0bc
00000070: 9007 75bd f899 d6bc f8b0 143d 789f 463c
00000080: 3626 7fbd d079 0d3c 0a3c 533d 5e63 31bd
00000090: 58f0 ae3c 9a8c 733d 18e2 55bd c409 773d
000000a0: d8a7 62bc ac8c c6bc c0d0 69bc 3498 6f3d
000000b0: 3856 82bc f0b3 cebc e02e abbb 4072 aabb
000000c0: c273 05bd 2cb6 07bd 5052 62bd 307e 9a3b
000000d0: 9013 efbc 36f0 0e3d dcd8 96bc 8003 753c
000000e0: 328f 1d3d ee73 3fbd 8a5a 2dbd 340b b6bc
000000f0: d622 1e3d f6d7 06bd 106f bd3b 0681 44bd
00000100: 587c 1dbd a402 f83c 0076 1c3b 2463 683d
00000110: 3e88 04bd b86e 79bc 1e38 17bd 7413 3c3d
00000120: 563d 3e3d 7055 5ebc 20d4 e53b c085 da3b
00000130: 38e5 193c fad7 1cbd f06e 5c3d a673 223d
00000140: 7899 4d3d d497 f3bc 36ec 49bd e073 f93c
00000150: 6295 00bd ec2d 853c b844 3ebd 4c12 4e3d
00000160: a2bc 3ebd 488b 383c 1ada 183d 90b0 09bd
00000170: d0af 3fbc d69b 1e3d 68a6 44bd c8ec 8b3c
00000180: e82a b43c 784b b33c cc80 da3c 82b8 0cbd
00000190: 00f8 3fbd 20a7 05bb 8ac0 0ebd 281a 1f3c
000001a0: cca9 af3c c2d0 063d 8635 02bd 341a 923c
000001b0: 3c4f e23c 78fd 593d 1848 8dbc 40de 353d
000001c0: 8081 0bbc a48e c23c 52db 623d a0cb 71bb
000001d0: 9062 1b3d d685 60bd 86ba 353d 7424 553d
000001e0: b44c 453d e074 abbc a656 283d 6cd1 633d
000001f0: 9a7b 183d a8e1 073d 1c9f e2bc 5a1a 7ebd

pn.fc.1.weight f4 [8, 128]
-0.08231042 -0.04805729 0.040763445 0.04322008 -0.0034665167 0.0040796325 0.0028016716 -0.06757071
0.030910708 0.012002535 0.018486306 -0.0033918917 -0.003877744 -0.04807238 -0.0012506992 0.035713933
0.07920826 0.07462833 -0.016618438 0.03066066 -0.01360698 -0.029277623 0.0008572042 -0.07418399
0.078070275 -0.06536666 -0.063149095 0.057508193 0.044614486 -0.01962801 0.034645014 0.06599937
0.060853668 0.0716031 -0.05148069 0.016851656 -0.0072379857 0.0017189607 -0.051683754 -0.029761817
-0.0715748 -0.070864275 0.05394935 0.060116522 -0.06549539 -0.02038578 0.0832989 0.049367033
0.08369594 -0.008116439 0.021330886 -0.003934264 0.0831056 0.017227553 0.01804237 0.066428654
0.06112341 0.020977274 0.088099204 0.0029362142 0.04201425 0.04208026 0.015367962 0.04326167
0.059077956 0.055430584 -0.024839401 0.012869149 0.05154731 0.057041325 -0.027545284 0.028680153
-0.0320295 -0.07738758 -0.04190347 -0.055733357 -0.05881554 -0.06567635 0.014672816 -0.0022599697
0.03135024 -0.06522125 -0.0019009262 0.066223 0.009419896 0.0067474395 0.009191185 -0.07055171
-0.087748714 0.04458403 0.026118003 0.030378677 -0.068388045 0.048002325 0.0008446649 -0.04406338
-0.015188858 -0.03494076 0.016730942 0.004087992 0.023912117 -0.0026670545 -0.08365817 -0.027292255
-0.06843381 -0.0733141 0.017516673 -0.017838866 -0.044899575 0.07951202 -0.014632985 -0.06054595
-0.0044363067 -0.051876057 0.07699958 -0.04084197 0.030638188 0.025644712 0.017081715 -0.003480509
0.005121 -0.082988895 0.025684819 0.030000903 -0.0045104623 0.0051769316 0.03652136 -0.015829742
0.03669908 -0.08342779 0.081249066 0.033597983 0.03375952 0.08697585 0.04736302 0.0056362525
-0.05232957 0.037774377 -0.0061968863 -0.06032572 0.07278419 -0.0027934834 -0.086115785 0.016564406
0.07096007 -0.050615307 0.023153141 0.012509577 -0.003995076 -0.065840796 0.0021399409 -0.023985304
-0.0075182095 0.08476096 -0.070217416 0.015570223 0.00368613 -0.046924435 -0.006394528 0.08752289
0.03257356 0.037332125 0.08480335 0.03862206 -0.020029709 -0.010076039 0.028598242 -0.025853552
0.08356074 -0.0037223771 -0.075143084 0.03778226 0.01996214 -0.034584206 0.074950166 -0.06689446
-0.06012463 0.088316225 -0.06119915 0.03831274 -0.064631924 -0.009522639 -0.030266505 0.043920897
0.024733953 0.0199463 -0.06286556 -0.03956273 0.0011999384 0.040458955 -0.058885656 0.03585735
0.021734469 -0.013325587 -0.056173835 -0.083135776 -0.028829813 0.036531262 -0.023569927 0.05900111
0.03973911 0.004382305 -0.018272944 0.05035194 0.037026085 0.0023564547 0.014809497 0.026066653
-0.05388879 0.040854223 0.067256875 0.077832706 -0.016178645 0.06917273 -0.031984072 -0.039586384
0.05829925 -0.08174507 -0.064171545 -0.021052964 -0.019386992 -0.06734972 0.07013821 0.08764356
0.022316523 0.07343874 0.049156435 0.08618193 -0.072879456 -0.06616962 0.0014802516 0.07639014
-0.0762148 0.05956983 0.037003018 0.007388681 -0.0843179 0.02602303 -0.064147696 0.05426342
0.048858188 0.061401628 -0.04732624 -0.07471015 -0.08396688 0.046881266 0.06497178 0.08186776
-0.08760626 -0.038592782 -0.06793408 -0.049373895 -0.06921444 -0.02690836 0.07182009 -0.04799622
00000000: 5e92 a8bd b9d7 44bd 92f7 263d 8a07 313d
00000010: 802e 63bb 70ae 853b 409c 373b 8362 8abd
00000020: 7438 fd3c 48a6 443c 9870 973c 804a 5ebb
00000030: c021 7ebb 8be7 44bd 80ee a3ba c648 123d
00000040: f137 a23d bdd6 983d 6423 88bc 102c fb3c
00000050: d0ef 5ebc a0d7 efbc 00b6 603a c7ed 97bd
00000060: 4fe3 9f3d f5de 85bd 5054 81bd b68d 6b3d
00000070: aebd 363d ecca a0bc eee7 0d3d ad2a 873d
00000080: b241 793d a5a4 923d 6add 52bd 7c0c 8a3c
00000090: a02c edbb c04e e13a 58b2 53bd 0ecf f3bc
000000a0: cf95 92bd 4a21 91bd fef9 5c3d be3c 763d
000000b0: 7222 86bd 1400 a7bc 9d98 aa3d 1635 4a3d
000000c0: c768 ab3d d0fa 04bc 1cbe ae3c 00eb 80bb
000000d0: 4533 aa3d cc20 8d3c 98cd 933c bf0b 883d
000000e0: 8a5c 7a3d 88d8 ab3c 5b6d b43d 806d 403b
000000f0: 2217 2c3d 5a5c 2c3d e8c9 7b3c 2633 313d
00000100: bafb 713d 2e0b 633d 007c cbbc 20d9 523c
00000110: 4623 533d 2aa4 693d a6a6 e1bc a4f2 ea3c
00000120: 5d31 03bd 617d 9ebd f9a2 2bbd a948 64bd
00000130: 90e8 70bd 5281 86bd 4066 703c 001c 14bb
00000140: 1c69 003d b892 85bd 8028 f9ba ed9f 873d
00000150: e855 1a3c a019 dd3b a096 163c 6a7d 90bd
00000160: 99b5 b3bd be9d 363d 6cf5 d53c b4dc f83c
00000170: 080f 8cbd 169e 443d 806c 5d3a ce7b 34bd
00000180: b0da 78bc 0b1e 0fbd 540f 893c 90f4 853b
00000190: 58e3 c33c c0c9 2ebb fa54 abbd 0294 dfbc
000001a0: 0627 8cbd b425 96bd 207f 8f3c d022 92bc
000001b0: 9ee8 37bd 33d7 a23d 30bf 6fbc 08ff 77bd
000001c0: 705e 91bb fd7b 54bd f5b1 9d3d e949 27bd
000001d0: f0fc fa3c dc14 d23c f4ee 8b3c 4019 64bb
000001e0: 10ce a73b 15f6 a9bd f868 d23c 74c4 f53c
000001f0: 80cc 93bb 40a3 a93b 6c97 153d 60ad 81bc
00000200: c651 163d 30dc aabd e965 a63d 0a9e 093d
00000210: 6c47 0a3d 6520 b23d baff 413d 50b0 b83b
00000220: 8857 56bd 4eb9 1a3d 400f cbbb 1a18 77bd
00000230: e10f 953d e012 37bb 795d b0bd 14b2 873c
00000240: 8353 913d ff51 4fbd a8ab bd3c f8f4 4c3c
00000250: 20e9 82bb 8ad7 86bd 403e 0c3b d47c c4bc
00000260: 505b f6bb 2797 ad3d 26ce 8fbd 401a 7f3c
00000270: 0093 713b d633 40bd 3089 d1bb 333f b33d
00000280: da6b 053d 92e9 183d 61ad ad3d 2a32 1e3d
00000290: 5815 a4bc f815 25bc dc46 ea3c d4ca d3bc
000002a0: e521 ab3d 20f3 73bb 9ee4 99bd 92c1 1a3d
000002b0: a487 a33c 2ba8 0dbd 797f 993d f6ff 88bd
000002c0: 3e45 76bd 23df b43d f6ab 7abd d2ed 1c3d
000002d0: be5d 84bd d804 1cbc 76f1 f7bc 66e6 333d
000002e0: dc9e ca3c 6c66 a33c a9bf 80bd 870c 22bd
000002f0: 4047 9d3a 4ab8 253d 1632 71bd 28df 123d
00000300: 7c0c b23c 9053 5abc 8916 66bd 1743 aabd
00000310: 802c ecbc cea1 153d b815 c1bc 26ab 713d
00000320: 7ac5 223d 7099 8f3b 24b1 95bc d63d 4e3d
00000330: aaa8 173d c06e 1a3b 88a3 723c bc89 d53c
00000340: 7eba 5cbd c256 273d f9bd 893d c166 9f3d
00000350: 1489 84bc 6faa 8d3d bb01 03bd 5525 22bd
00000360: 32cb 6e3d f669 a7bd 5f6c 83bd 4477 acbc
00000370: 78d1 9ebc a6ee 89bd 9fa4 8f3d 777e b33d
00000380: 24d1 b63c 0d67 963d 4258 493d 2780 b03d
00000390: d341 95bd f083 87bd 0005 c23a 6f72 9c3d
000003a0: 8116 9cbd 7eff 733d 7a90 173d c01c f23b
000003b0: ddae acbd 402e d53c de5f 83bd 5243 5e3d
000003c0: 861f 483d 4680 7b3d 29d9 41bd a301 99bd
000003d0: d4f6 abbd 9206 403d ed0f 853d 49aa a73d
000003e0: e96a b3bd 7713 1ebd 0621 8bbd 483c 4abd
000003f0: 4dc0 8dbd ec6e dcbc 6916 933d af97 44bd

pn.fc.1.bias f4 [8]
0.03038878 -0.0012700856 0.055976607 -0.02572731 0.03038849 0.017609514 -0.0073568374 -0.025811031
00000000: e4f1 f83c 0079 a6ba ba47 653d 14c2 d2bc
00000010: 48f1 f83c d441 903c a011 f1bb a871 d3bc

onnx::Conv_815 f4 [32, 20, 1]
-0.06322059 0.055580962 -0.15345713 -0.16156344 0.030258147 -0.12869687 -0.009797285 0.08145846
0.11070199 -0.1371831 -0.15502857 -0.16859709 0.10052979 -0.19518158 -0.09348833 0.05578955
-0.1308993 -0.04068603 -0.17482452 0.07873099 0.19583884 0.22164652 -0.15561655 0.1941046
0.17004214 0.14886901 0.21984476 0.09076842 -0.061735857 0.10988669 0.013157018 -0.2044361
-0.12208329 -0.1532378 -0.007040182 0.085064255 -0.1725 0.12530279 0.19088721 -0.061618973
0.04541884 -0.1498737 -0.19560042 -0.069929875 0.19498175 -0.049311213 0.16446044 0.12204431
-0.048848115 -0.11597701 0.07590292 -0.10773523 -0.16313906 0.17101751 -0.17225046 0.08806793
0.15195031 -0.020944476 -0.11308014 0.14275786 0.038139123 -0.05221737 -0.10976758 0.020631092
-0.12526725 -0.058019362 -0.11451531 -0.075511746 0.027475577 0.16998626 -0.17613916 -0.07904952
-0.09732423 -0.11657968 0.03842862 -0.109681614 0.10554025 0.11296666 0.22216661 -0.16154334
0.13888083 -0.20098616 0.194162 -0.14962704 0.20262876 -0.11184842 -0.035064895 -0.17561114
-0.12336384 -0.007254445 0.08371496 0.16117445 0.1919043 -0.05612925 0.0052561346 -0.16518474
0.16828142 -0.11599034 0.057287943 -0.052113302 -0.14024304 -0.03617343 -0.0040678475 -0.206328
-0.20571885 0.22328778 -0.1511529 -0.07867587 -0.17350943 0.09334157 0.21285957 -0.06370368
-0.030095128 -0.15530829 -0.1782282 0.16272224 -0.10506311 0.20137084 -0.19901155 0.05615856
0.17653592 0.06805579 -0.024095414 0.07531459 0.0635835 0.040734593 0.20917466 -0.036057755
0.05282602 0.196798 -0.13273178 -0.040957812 -0.060432594 0.07149175 0.1193766 -0.06465121
0.047369897 0.20542572 -0.1450861 -0.17242658 -0.041153524 -0.16692162 -0.11941181 0.09928102
-0.20626836 0.09384326 -0.07392657 0.11585753 -0.10022219 0.060933076 -0.18815821 0.1754352
0.01563942 0.07933625 -0.011397096 -0.070704535 -0.06803726 -0.090153046 -0.18101545 0.017900437
0.025649687 0.019643327 -0.16672516 0.061636496 0.17338821 0.05832941 0.1696807 -0.03217766
-0.16650024 0.21758266 0.052474204 0.12803783 0.08883649 -0.19214249 -0.06720298 0.10122886
0.14195952 -0.101084724 -0.13411772 0.05187518 0.03632867 0.0085238535 -0.09734052 0.019828578
-0.13781999 0.09330375 -0.0024622853 0.14401817 -0.07785235 0.16643628 0.024099303 -0.16858326
0.0050313966 -0.18104805 -0.17979747 0.10921716 -0.0039408905 0.10847365 0.16330417 -0.15678284
0.08127902 0.13488968 -0.078941695 0.19747895 -0.14510642 -0.10039104 -0.12945284 0.14711227
-0.07780613 0.01987364 0.011370915 -0.21753915 -0.060772546 -0.21695101 -0.102182254 -0.14104775
-0.061497394 -0.20962556 -0.16148686 0.11587407 -0.08976355 0.04662663 -0.095108986 -0.1511311
0.09102561 0.0034079233 0.053822875 0.1280215 -0.08712552 0.17197189 0.22313972 -0.16518095
-0.1384767 -0.045191195 0.05060388 -0.16422622 -0.09186526 -0.18227327 -0.08255456 0.055873025
0.17870912 0.13672748 0.14682318 -0.085734904 0.21564004 -0.06134095 -0.037172742 0.1429832
0.09471911 0.028439857 -0.06005339 0.15204464 0.052663658 0.095716566 0.19532481 0.20293814
00000000: cc79 81bd dda8 633d de23 1dbe e370 25be
00000010: efdf f73c 1dc9 03be cb84 20bc b1d3 a63d
00000020: bab7 e23d ba79 0cbe cfbf 1ebe b7a4 2cbe
00000030: 90e2 cd3d aedd 47be cf76 bfbd 9583 643d
00000040: 770a 06be 65a6 26bd 3305 33be b73d a13d
00000050: fa89 483e 4ef7 623e f259 1fbe 5bc3 463e
00000060: 871f 2e3e 1e71 183e fc1e 613e cbe4 b93d
00000070: bdde 7cbd 460c e13d 8990 573c b257 51be
00000080: ce06 fabd 5fea 1cbe 54b1 e6bb 2b36 ae3d
00000090: d7a3 30be 604f 003e f077 433e 2d64 7cbd
000000a0: 1b09 3a3d 7e78 19be 7a4b 48be 6537 8fbd
000000b0: 4ca9 473e 8efa 49bd 5168 283e 5ef2 f93d
000000c0: f614 48bd 5b85 edbd fd72 9b3d 4aa4 dcbd
000000d0: ed0d 27be 371f 2f3e 6d62 30be f55c b43d
000000e0: dd98 1b3e c093 abbc 8f96 e7bd 1e2f 123e
000000f0: c537 1c3d e2e1 55bd d3cd e0bd 8902 a93c
00000100: 0f46 00be b6a5 6dbd 0187 eabd e7a5 9abd
00000110: 7614 e13c e110 2e3e d35d 34be b7e4 a1bd
00000120: ed51 c7bd 54c1 eebd 5467 1d3d c1a0 e0bd
00000130: 7d25 d83d 105b e73d a57f 633e 9e6b 25be
00000140: c736 0e3e 51cf 4dbe 67d2 463e d537 19be
00000150: ea7d 4f3e c910 e5bd 35a0 0fbd 68d3 33be
00000160: 2ea6 fcbd b2b6 edbb c072 ab3d ea0a 253e
00000170: 9082 443e c9e7 65bd a73b ac3b 3026 29be
00000180: f751 2c3e 588c edbd c3a6 6a3d c274 55bd
00000190: df9b 0fbe 972a 14bd 944b 85bb a647 53be
000001a0: f6a7 52be 8da5 643e d3c7 1abe d120 a1bd
000001b0: 75ac 31be dd29 bf3d dcf7 593e 1377 82bd
000001c0: 0f8a f6bc 2309 1fbe 7481 36be a9a0 263e
000001d0: 542b d7bd 2834 4e3e afc9 4bbe 8506 663d
000001e0: d5c5 343e d660 8b3d bf63 c5bc 893e 9a3d
000001f0: 1138 823d 51d9 263d e231 563e 4cb1 13bd
00000200: 1960 583d 6a85 493e d7ea 07be 61c3 27bd
00000210: 2b88 77bd 446a 923d b87b f43d db67 84bd
00000220: f006 423d 1f5b 523e 7391 14be 9890 30be
00000230: 9990 28bd 80ed 2abe 2e8e f4bd d953 cb3d
00000240: 0338 53be e530 c03d d066 97bd b646 ed3d
00000250: 4b41 cdbd f694 793d 8cac 40be 49a5 333e
00000260: 3e1e 803c 0b7b a23d e3ba 3abc 8acd 90bd
00000270: 1e57 8bbd 29a2 b8bd 1d5c 39be f0a3 923c
00000280: 4b1f d23c 0beb a03c 00ba 2abe 8d76 7c3d
00000290: ae8c 313e d2ea 6e3d c7c0 2d3e b9cc 03bd
000002a0: 0a7f 2abe fdcd 5e3e 31ef 563d 591c 033e
000002b0: e8ef b53d 00c1 44be b7a1 89bd 1451 cf3d
000002c0: d65d 113e 8205 cfbd 2856 09be 127b 543d
000002d0: 5fcd 143d a2a7 0b3c 775a c7bd 8b6f a23c
000002e0: af20 0dbe 0916 bf3d 4b5e 21bb 8079 133e
000002f0: 0e71 9fbd 466e 2a3e e76b c53c 17a1 2cbe
00000300: 6ade a43b a964 39be d41c 38be 3fad df3d
00000310: 9622 81bb 6f27 de3d 3539 273e ae8b 20be
00000320: 9d75 a63d 8520 0a3e 2fac a1bd ec37 4a3e
00000330: c796 14be d199 cdbd 498f 04be 99a4 163e
00000340: d258 9fbd 0bce a23c 134d 3a3c 95c2 5ebe
00000350: a2ec 78bd 6828 5ebe ee44 d1bd d26e 10be
00000360: b1e4 7bbd 15a8 56be d05c 25be 624f ed3d
00000370: f4d5 b7bd 91fb 3e3d 80c8 c2bd 1cc2 1abe
00000380: a36b ba3d 7757 5f3b 6075 5c3d 1118 033e
00000390: dd6e b2bd 6619 303e bd7e 643e 3225 29be
000003a0: d6cc 0dbe 671a 39bd 0446 4f3d eb2a 28be
000003b0: da23 bcbd d8a5 3abe 5d12 a9bd 1ddb 643d
000003c0: 86ff 363e 4a02 0c3e d158 163e c895 afbd
000003d0: bed0 5c3e a640 7bbd 7242 18bd 306a 123e
000003e0: 18fc c13d b4fa e83c 8bfa 75bd 97b1 1b3e
000003f0: d9b5 573d 0c07 c43d 3a03 483e 04cf 4f3e

onnx::Conv_816 f4 [32]
0.0 0.0 0.0 0.0 0.0 0.0 0.0 0.0
0.0 0.0 0.0 0.0 0.0 0.0 0.0 0.0
0.0 0.0 0.0 0.0 0.0 0.0 0.0 0.0
0.0 0.0 0.0 0.0 0.0 0.0 0.0 0.0
00000000: 0000 0000 0000 0000 0000 0000 0000 0000
00000010: 0000 0000 0000 0000 0000 0000 0000 0000
00000020: 0000 0000 0000 0000 0000 0000 0000 0000
00000030: 0000 0000 0000 0000 0000 0000 0000 0000
00000040: 0000 0000 0000 0000 0000 0000 0000 0000
00000050: 0000 0000 0000 0000 0000 0000 0000 0000
00000060: 0000 0000 0000 0000 0000 0000 0000 0000
00000070: 0000 0000 0000 0000 0000 0000 0000 0000

onnx::Conv_818 f4 [32, 11, 1]
-0.14595567 0.15117963 -0.13515756 -0.3007632 -0.17491314 -0.30047083 -0.1280158 0.23230496
0.2985034 -0.09587933 -0.044832394 -0.23204741 -0.05344762 0.27497184 0.26840052 -0.15568134
-0.01449986 0.07335415 -0.18716513 -0.15739448 0.039660674 0.297046 -0.17890753 0.27335536
-0.24439925 0.15707062 -0.27580565 -0.29350227 -0.15769967 0.2541667 -0.17179218 0.123290606
0.29343358 0.16739845 -0.14057446 -0.20346224 0.21419984 0.21345818 -0.23701093 0.14982724
-0.014523463 0.17226094 -0.015213234 0.002659993 -0.10676746 0.24697478 0.18597677 -0.107805565
0.13220465 0.21679287 0.19585478 -0.029785872 -0.044559374 -0.12460619 0.07380445 -0.20833892
0.018252669 -0.0077602477 -0.29497886 -0.17070237 -0.15321033 -0.1155916 -0.06477398 -0.2966735
0.016764527 -0.14377901 -0.10574644 0.216426 -0.14431758 0.10305142 0.15180327 -0.252601
-0.28432968 0.023530127 -0.070649795 -0.053170223 0.047680825 -0.096173264 -0.1719112 0.0555618
-0.24576528 -0.027015818 0.06969238 -0.074697286 -0.14657633 0.044287995 0.10566557 0.0907587
0.18761165 -0.22345395 -0.1450601 0.06625771 -0.17291781 0.12673576 0.010993038 0.14738598
0.25848636 -0.22801653 -0.0823802 0.17516585 -0.2807885 -0.13721032 -0.0040711556 -0.29282618
-0.20085211 0.21707742 0.16784322 0.2795044 -0.26919883 0.15064959 0.051294517 -0.28170002
-0.12073509 0.28032997 -0.032481655 -0.21702674 -0.06848529 0.27070186 -0.12815824 -0.20134723
-0.2530739 -0.21364456 0.2045434 -0.04607428 -0.12945674 -0.082252555 -0.10544912 0.29686123
-0.03470603 0.22518587 -0.12053808 0.044008482 -0.2737861 -0.061725963 0.015790086 -0.093808584
0.13069984 -0.18605977 0.0048785266 0.21122487 0.07388879 0.12528476 0.006764944 -0.20667796
-0.22297983 0.26158243 0.13384779 -0.24840195 -0.035324726 0.16055134 -0.023148958 -0.07257701
-0.26597202 -0.030416813 -0.029861033 -0.08377017 -0.28239256 0.16503955 -0.2625622 0.28065494
-0.07954837 0.29092762 0.2804453 0.113244474 0.24465969 0.012102186 0.21919277 0.05772952
0.067340456 0.023404213 0.04647491 -0.19121584 0.108913355 0.16618985 0.27007392 0.17053322
0.038562253 -0.22624125 0.18479058 0.24199276 0.2911879 -0.091466166 -0.11904764 -0.024884516
-0.29154143 0.045214545 -0.08561547 -0.16972797 -0.0029495808 -0.29968503 0.12611318 0.1656276
-0.07191427 0.08622651 -0.059730962 -0.24513432 0.050659016 0.1491049 0.03830104 -0.04267248
-0.046949867 0.25088936 -0.22774442 -0.03367151 -0.14943482 0.22650766 0.17803437 -0.24861152
0.07518653 -0.16656755 -0.19075444 -0.046944562 0.2831198 0.13850568 -0.14490832 -0.27809563
-0.010678417 0.16256304 0.041011546 -0.0041836887 -0.1834885 0.20273179 -0.23475312 0.09887098
-0.065579176 -0.17039265 0.17655526 0.10841545 0.2722487 0.21146531 0.28236434 0.28132263
-0.26340315 0.2746247 0.20126307 -0.16591059 0.09262435 0.019424401 -0.23358577 0.21519893
-0.06826919 -0.24342778 -0.080102 -0.19028999 -0.13309483 0.18851973 0.02610569 0.058415804
-0.1300352 0.093271054 0.16764975 0.17693417 -0.21943948 0.092565104 -0.16745663 -0.21169363
00000000: 6775 15be d5ce 1a3e be66 0abe a2fd 99be
00000010: 6e1c 33be 50d7 99be 9316 03be 5ae1 6d3e
00000020: 70d5 983e 625c c4bd 2ca2 37bd d69d 6dbe
00000030: e4eb 5abd 1cc9 8c3e cb6b 893e ee6a 1fbe
00000040: d290 6dbc b33a 963d 37a8 3fbe 052c 21be
00000050: 3b73 223d 6a16 983e 8933 37be 3cf5 8b3e
00000060: cc43 7abe 1fd7 203e 6636 8dbe ee45 96be
00000070: 067c 21be 2322 823e 4aea 2fbe c97f fc3d
00000080: ed3c 963e 806a 2b3e c0f2 0fbe 6858 50be
00000090: 3457 5b3e c894 5a3e feb2 72be 506c 193e
000000a0: d2f3 6dbc 2c65 303e ee40 79bc 4753 2e3b
000000b0: e6a8 dabd f5e6 7c3e b270 3e3e 2ac9 dcbd
000000c0: a860 073e f3fe 5d3e 288e 483e 8001 f4bc
000000d0: e483 36bd 8831 ffbd ca26 973d cc56 55be
000000e0: 9f86 953c ad49 febb 7807 97be 9acc 2ebe
000000f0: 2be3 1cbe 4abb ecbd 38a8 84bd 97e5 97be
00000100: c355 893c ce3a 13be 9791 d8bd c79e 5d3e
00000110: fdc7 13be 9f0c d33d 5172 1b3e eb54 81be
00000120: a993 91be 41c2 c03c d7b0 90bd 05c9 59bd
00000130: f84c 433d 7df6 c4bd 7d09 30be c594 633d
00000140: e5a9 7bbe 4750 ddbc e1ba 8e3d e4fa 98bd
00000150: 1b18 16be 5467 353d 3167 d83d b3df b93d
00000160: 451d 403e 1dd1 64be a38a 14be 1fb2 873d
00000170: 5e11 31be 05c7 013e 251c 343c 5aec 163e
00000180: 5358 843e 2a7d 69be f3b6 a8bd ad5e 333e
00000190: 83c3 8fbe dd80 0cbe 5467 85bb 50ed 95be
000001a0: 2dac 4dbe 8b49 5e3e 18df 2b3e 331b 8f3e
000001b0: 6ed4 89be e343 1a3e 331a 523d fc3a 90be
000001c0: f543 f7bd 6987 8f3e 7c0b 05bd 423c 5ebe
000001d0: 0442 8cbd 6f99 8a3e ea3b 03be f82d 4ebe
000001e0: e792 81be a4c5 5abe d373 513e 62b8 3cbd
000001f0: 4f90 04be 0774 a8bd b5f5 d7bd 32fe 973e
00000200: e927 0ebd 2097 663e abdc f6bd 3d42 343d
00000210: b12d 8cbe 5dd4 7cbd 365a 813c b71e c0bd
00000220: 2ed6 053e 7486 3ebe 0cdc 9f3b 554b 583e
00000230: 0253 973d a64a 003e 77ac dd3b 63a3 53be
00000240: d354 64be 22ee 853e 650f 093e 155d 7ebe
00000250: a9b0 10bd 9267 243e e2a2 bdbc 41a3 94bd
00000260: 7c2d 88be ae2c f9bc 209f f4bc b28f abbd
00000270: c295 90be 2100 293e 8d6e 86be 01b2 8f3e
00000280: 41ea a2bd 77f4 943e 8796 8f3e b8ec e73d
00000290: 1288 7a3e 3f48 463c 1274 603e ca75 6c3d
000002a0: cbe9 893d 31ba bf3c 7a5c 3e3d 16ce 43be
000002b0: f70d df3d ac2d 2a3e 2147 8a3e 43a0 2e3e
000002c0: 74f3 1d3d c9ab 67be be39 3d3e f3cc 773e
000002d0: 9516 953e 9d52 bbbd 40cf f3bd 9dda cbbc
000002e0: eb44 95be e332 393d 2a57 afbd 2bcd 2dbe
000002f0: c14d 41bb 5170 99be d023 013e 489a 293e
00000300: ca47 93bd 8697 b03d 74a8 74bd 7e04 7bbe
00000310: d47f 4f3d f4ae 183e 8de1 1c3d 57c9 2ebd
00000320: 814e 40bd 9274 803e d535 69be 23eb 09bd
00000330: 7105 19be a0f1 673e a44e 363e 0594 7ebe
00000340: 65fb 993d af90 2abe 2255 43be f148 40bd
00000350: 14f5 903e 6fd4 0d3e d962 14be 8d62 8ebe
00000360: 87f4 2ebc ed76 263e b9fb 273d 5317 89bb
00000370: 69e4 3bbe ec98 4f3e 1f63 70be de7c ca3d
00000380: 604e 86bd 697b 2ebe e7ca 343e eb08 de3d
00000390: 2e64 8b3e 5d8a 583e 0f92 903e 8509 903e
000003a0: c7dc 86be 9c9b 8c3e e817 4e3e 77e4 29be
000003b0: d6b1 bd3d ec1f 9f3c 1c31 6fbe 1c5d 5c3e
000003c0: b8d0 8bbd 2245 79be 840c a4bd 61db 42be
000003d0: 034a 08be 510b 413e 9adb d53c 6945 6f3d
000003e0: f327 05be e504 bf3d 60ac 2b3e 3b2e 353e
000003f0: beb4 60be c692 bd3d c079 2bbe 37c6 58be

onnx::Conv_819 f4 [32]
0.0 0.0 0.0 0.0 0.0 0.0 0.0 0.0
0.0 0.0 0.0 0.0 0.0 0.0 0.0 0.0
0.0 0.0 0.0 0.0 0.0 0.0 0.0 0.0
0.0 0.0 0.0 0.0 0.0 0.0 0.0 0.0
00000000: 0000 0000 0000 0000 0000 0000 0000 0000
00000010: 0000 0000 0000 0000 0000 0000 0000 0000
00000020: 0000 0000 0000 0000 0000 0000 0000 0000
00000030: 0000 0000 0000 0000 0000 0000 0000 0000
00000040: 0000 0000 0000 0000 0000 0000 0000 0000
00000050: 0000 0000 0000 0000 0000 0000 0000 0000
00000060: 0000 0000 0000 0000 0000 0000 0000 0000
00000070: 0000 0000 0000 0000 0000 0000 0000 0000

onnx::Conv_821 f4 [64, 64, 1, 1]
0.05837377 -0.044155527 0.013716405 0.11781349 -0.024195401 -0.031794015 0.08133205 -0.023511814
0.025472797 0.047752067 0.09040909 0.04566611 -0.07158132 0.020769611 0.045220193 -0.030357506
-0.06774749 -0.0029628724 -0.08364855 -0.09277199 0.1170594 0.0700982 -0.10446656 0.017564477
-0.046744544 -0.059417486 0.078439586 0.06269878 -0.04123709 0.10998069 -0.05048926 0.011202265
-0.09882754 -0.086714655 0.10596753 0.088190414 -0.05715781 -0.015535843 -0.053992 -0.047430024
-0.0057878355 -0.0020717874 0.087791435 0.08985378 -0.07297867 0.11650111 -0.09973938 0.009674799
0.078696765 0.09331391 0.06181215 -0.10493504 0.020434188 0.036448818 -0.08636397 0.078431986
-0.0987446 0.06623701 -0.07407588 -0.12091946 0.0054467195 -0.00904636 0.045640584 -0.023108218
0.07343192 -0.006187497 -0.10995071 -0.07222345 -0.052378677 -0.017666923 0.0716925 -0.037742782
0.05039005 0.04720177 0.09539844 -0.08358666 -0.123595424 -0.057989784 -0.036883824 0.07708709
-0.089620486 -0.10889662 0.11713969 0.10067551 0.04396439 0.029270457 0.005975276 -0.045074325
0.11929664 -0.011873022 -0.071796104 -0.0053444686 0.014983534 0.033150997 -0.014056388 -0.059776634
-0.0039308323 0.069499396 -0.064955354 0.037027247 0.014940128 0.036420282 -0.024428453 0.033406895
0.11134849 -0.039661106 -0.016441919 -0.06744891 0.017549412 -0.0055843163 -0.0907784 0.019353785
0.07938913 0.117868416 0.11382529 0.03562799 -0.11455534 -0.11649439 0.025214396 -0.11312738
-0.03856708 -0.024199484 -0.118357375 0.05707265 -0.089977115 0.09693233 0.009642985 -0.0077570886
0.022610327 -0.02554748 0.07244725 0.10016232 0.004218602 -0.064590715 -0.09673949 0.10773343
-0.05729678 0.08225637 0.015752044 -0.062698334 -0.058647398 0.047701165 -0.023898572 0.009533015
-0.07966776 0.08464872 -0.0644132 -0.106339075 0.082443856 -0.063698806 0.101854876 0.099793516
0.08279018 -0.023856565 0.036782037 -0.096994914 0.07409558 -0.111256056 -0.10619912 -0.062423795
0.0027884254 -0.07051683 0.09889667 0.041546553 0.111186944 0.037952293 -0.051759876 0.019830128
0.11220644 -0.12261151 -0.08907975 -0.12139888 -0.10916645 -0.049303584 -0.09383974 0.11895661
-0.042604502 0.11940226 0.08065279 0.017838836 0.099274494 0.08418798 0.061651874 0.04823729
0.086575896 -0.099662445 -0.035920784 -0.07106912 -0.050872713 0.11603385 -0.11358403 0.021027906
0.10366808 -0.06074562 0.04334832 0.07394698 -0.040132575 0.009043529 -0.10389747 0.008806811
0.01131216 -0.0059776306 0.08654845 0.12324572 -0.11249466 -0.0464283 0.013498432 -0.110002086
0.025915805 -0.07539553 -0.026819408 -0.03106154 0.03871216 0.034940396 0.06297073 -0.008738563
-0.042741876 0.04926724 -0.053511932 0.014283898 0.0592566 0.041155133 -0.08089389 0.06682504
-0.021379841 0.012330664 -0.009154647 0.1186098 0.048135605 -0.06346638 -0.04181002 0.1185579
-0.04828712 0.08892515 -0.050089005 -0.08338922 0.07872345 0.08929151 0.09418226 -0.059970226
-0.10067275 -0.07348674 -0.07304428 0.04618942 0.099112235 -0.021093233 0.00752785 0.07101229
-0.09072695 0.013942753 0.038357362 0.037863422 0.0013252579 0.035890907 0.008489313 0.09020782
00000000: 5619 6f3d 6ddc 34bd c6ba 603c 3348 f13d
00000010: 6f35 c6bc 713a 02bd 6b91 a63d d99b c0bc
00000020: 54ac d03c ac97 433d 6728 b93d 630c 3b3d
00000030: 3a99 92bd 0825 aa3c cf38 393d 4eb0 f8bc
00000040: 32bf 8abd c02c 42bb ee4f abbd 3eff bdbd
00000050: d7bc ef3d a58f 8f3d 90f2 d5bd 61e3 8f3c
00000060: 3577 3fbd c05f 73bd efa4 a03d 3868 803d
00000070: 39e8 28bd 8e3d e13d d4cd 4ebd b489 373c
00000080: 1866 cabd 7497 b1bd 8105 d93d 2d9d b43d
00000090: 4f1e 6abd 0c8a 7ebc b726 5dbd fc45 42bd
000000a0: e2a7 bdbb d3c6 07bb ffcb b33d 4205 b83d
000000b0: d775 95bd 2298 ee3d 2944 ccbd 0c83 1e3c
000000c0: c52b a13d 5d1b bf3d bd2e 7d3d 2fe8 d6bd
000000d0: 9965 a73c 5b4b 153d 98df b0bd f3a0 a03d
000000e0: 9c3a cabd 45a7 873d 18b5 97bd 9fa4 f7bd
000000f0: 657a b23b 2f37 14bc 9ff1 3a3d 724d bdbc
00000100: 7963 963d 7dc0 cabb d62d e1bd e3e9 93bd
00000110: 068b 56bd 39ba 90bc 84d3 923d 2d98 1abd
00000120: cc65 4e3d a556 413d 4260 c33d 7c2f abbd
00000130: 991f fdbd b286 6dbd 7e13 17bd d6df 9d3d
00000140: f28a b7bd 3105 dfbd efe6 ef3d f62e ce3d
00000150: 0114 343d 99c8 ef3c 40cc c33b db9f 38bd
00000160: cc51 f43d 1087 42bc d609 93bd a720 afbb
00000170: 7f7d 753c 57c9 073d c44c 66bc 58d8 74bd
00000180: 36ce 80bb b355 8e3d 5007 85bd e2a9 173d
00000190: 70c7 743c 6f2d 153d 2e1e c8bc abd5 083d
000001a0: ad0a e43d af73 22bd 34b1 86bc a722 8abd
000001b0: c9c3 8f3c a4fc b6bb 07ea b9bd d48b 9e3c
000001c0: c596 a23d ff64 f13d 3c1d e93d a8ee 113d
000001d0: fd9b eabd 9c94 eebd 6c8e ce3c 54af e7bd
000001e0: 84f8 1dbd ff3d c6bc 5a65 f2bd 03c5 693d
000001f0: ec45 b8bd 7584 c63d 9cfd 1d3c 2d2f febb
00000200: 4b39 b93c f348 d1bc 395f 943d e721 cd3d
00000210: 333c 8a3b 2348 84bd 5b1f c6bd 58a3 dc3d
00000220: 07b0 6abd 0776 a83d 6e0a 813c fc67 80bd
00000230: 4138 70bd 4c62 433d f0c6 c3bc 5d30 1c3c
00000240: da28 a3bd 4f5c ad3d 11eb 83bd 4dc8 d9bd
00000250: 53d8 a83d 8574 82bd 4a99 d03d 8b60 cc3d
00000260: e68d a93d d86e c3bc c3a8 163d 45a5 c6bd
00000270: 6cbf 973d 37da e3bd ed7e d9bd 18b0 7fbd
00000280: 04be 363b 216b 90bd 568a ca3d b82c 2a3d
00000290: fbb5 e33d dd73 1b3d 2a02 54bd cb72 a23c
000002a0: 7dcc e53d be1b fbbd 726f b6bd fa9f f8bd
000002b0: a992 dfbd 8ef2 49bd 0d2f c0bd 869f f33d
000002c0: 0f82 2ebd 2c89 f43d 4a2d a53d c022 923c
000002d0: 6d50 cb3d bf6a ac3d ad86 7c3d 7794 453d
000002e0: b44e b13d d31b ccbd ac21 13bd b08c 91bd
000002f0: e85f 50bd 28a3 ed3d be9e e8bd b742 ac3c
00000300: ee4f d43d 66d0 78bd 028e 313d 8471 973d
00000310: 0e62 24bd 4f2b 143c 32c8 d4bd 714a 103c
00000320: a356 393c 00e0 c3bb 5040 b13d 4168 fc3d
00000330: 9a63 e6bd 9a2b 3ebd 8728 5d3c c648 e1bd
00000340: 624d d43c f968 9abd 60b4 dbbc c574 febc
00000350: a490 1e3d a91d 0f3d ccf6 803d 312c 0fbc
00000360: 1b12 2fbd 72cc 493d 542f 5bbd 0307 6a3c
00000370: 0cb7 723d 4992 283d b2ab a5bd 91db 883d
00000380: c724 afbc 8e06 4a3c 5ffd 15bc b2e9 f23d
00000390: d729 453d a9fa 81bd fc40 2bbd 7cce f23d
000003a0: b7c8 45bd 641e b63d 212a 4dbd f8c7 aabd
000003b0: c339 a13d 78de b63d a1e2 c03d 57a3 75bd
000003c0: 842d cebd 3780 96bd 3d98 95bd 1e31 3d3d
000003d0: 5bfb ca3d b7cb acbc 2fac f63b e46e 913d
000003e0: 0dcf b9bd 2570 643c 9c1c 1d3d ad16 1b3d
000003f0: 47b4 ad3a 5802 133d c216 0b3c e1be b83d

onnx::Conv_822 f4 [64]
0.0 0.0 0.0 0.0 0.0 0.0 0.0 0.0
0.0 0.0 0.0 0.0 0.0 0.0 0.0 0.0
0.0 0.0 0.0 0.0 0.0 0.0 0.0 0.0
0.0 0.0 0.0 0.0 0.0 0.0 0.0 0.0
0.0 0.0 0.0 0.0 0.0 0.0 0.0 0.0
0.0 0.0 0.0 0.0 0.0 0.0 0.0 0.0
0.0 0.0 0.0 0.0 0.0 0.0 0.0 0.0
0.0 0.0 0.0 0.0 0.0 0.0 0.0 0.0
00000000: 0000 0000 0000 0000 0000 0000 0000 0000
00000010: 0000 0000 0000 0000 0000 0000 0000 0000
00000020: 0000 0000 0000 0000 0000 0000 0000 0000
00000030: 0000 0000 0000 0000 0000 0000 0000 0000
00000040: 0000 0000 0000 0000 0000 0000 0000 0000
00000050: 0000 0000 0000 0000 0000 0000 0000 0000
00000060: 0000 0000 0000 0000 0000 0000 0000 0000
00000070: 0000 0000 0000 0000 0000 0000 0000 0000
00000080: 0000 0000 0000 0000 0000 0000 0000 0000
00000090: 0000 0000 0000 0000 0000 0000 0000 0000
000000a0: 0000 0000 0000 0000 0000 0000 0000 0000
000000b0: 0000 0000 0000 0000 0000 0000 0000 0000
000000c0: 0000 0000 0000 0000 0000 0000 0000 0000
000000d0: 0000 0000 0000 0000 0000 0000 0000 0000
000000e0: 0000 0000 0000 0000 0000 0000 0000 0000
000000f0: 0000 0000 0000 0000 0000 0000 0000 0000

onnx::Conv_824 f4 [64, 64, 1, 1]
0.10479802 -0.025109956 0.050615743 0.023774236 -0.119377255 0.07819218 0.12479305 -0.105696596
-0.023496615 -0.09246366 0.117163874 0.0989762 -0.057818346 0.02427612 -0.042147722 -0.10518516
0.046175398 -0.05253974 0.07700193 -0.088246964 -0.07144162 -0.09926618 -0.05758905 0.103301175
-0.020867452 -0.09104935 0.06753037 0.033033267 0.11641443 -0.051608037 -0.013892596 -0.06137357
0.0896239 0.016741192 -0.063392006 0.04560172 -0.119132355 -0.07248754 0.011884108 -0.055320524
-0.0723974 0.025101895 -0.03621192 0.08775421 0.09094655 -0.09573245 0.07435183 0.10215441
-0.057499316 -0.044210944 0.03771854 -0.085076 -0.039051235 0.08569065 0.006620389 -0.031774778
-0.12383967 0.05317316 0.06013247 0.0155225815 -0.112794325 -0.014472442 0.00265667 -0.11642675
-0.030724445 -0.09669339 0.018563982 0.12242471 0.07626218 -0.067978755 0.017700836 -0.026939288
-0.12177716 -0.044606477 0.020867392 0.07269526 0.01812367 -0.020136569 0.0661408 0.060842387
0.05713899 -0.09359596 0.119863845 0.100491196 0.04192905 0.08614321 0.11222481 -0.062298134
0.01516032 -0.05948314 -0.026087288 -0.0054773414 -0.019349061 0.010369442 0.062014807 -0.10746847
0.08653459 -0.059481516 -0.056167487 0.043365054 0.09404866 0.044362962 -0.0681562 -0.11205693
-0.07947313 0.03854209 -0.0012329606 0.119851954 0.008173902 -0.040644143 0.119828485 -0.08451528
-0.06228058 -0.06020544 0.015826264 -0.11531197 0.04939834 -0.0930691 -0.09805508 0.0016825413
0.086044386 -0.07744774 0.111461334 -0.014924675 -0.10865974 -0.063447066 -0.07309263 -0.00884749
0.023397448 0.11591041 -0.103051655 -0.07661783 -0.08180516 -0.04690792 -0.12211777 -0.084106915
0.04929743 -0.014869347 0.008424598 0.079256974 -0.06726042 -0.010240891 -0.069247894 0.10265968
-0.10361396 0.10782285 -0.11830207 -0.025008822 0.11288901 0.009516639 -0.11592062 0.0036564583
0.060598116 -0.0981918 -0.07831792 -0.039088544 -0.023392918 0.0149278045 0.0013189845 0.07513465
-0.08565049 0.035682335 0.016527362 0.12241991 0.07834884 0.10142991 -0.1163626 0.034059055
-0.018493872 -0.10071868 -0.0053513674 -0.11091045 0.07668576 0.017849326 0.0053331438 0.08304912
0.11217705 0.024595853 0.1078458 -0.09128503 0.061179943 0.073564954 -0.004884144 0.09179354
0.05054982 0.06891024 -0.11502407 -0.010375299 0.068413734 0.008729697 -0.10318927 -0.047804862
-0.001027579 0.061202444 0.07946519 -0.03594105 -0.10230959 -0.034320496 0.086875066 -0.028722694
-0.04546846 -0.061340697 -0.07426922 -0.06125786 -0.08342303 -0.02477012 0.02182492 -0.11231587
0.08926578 0.09135767 -0.04916867 -0.05669321 0.011168007 0.05592284 0.12139481 0.12162049
-0.10624061 0.11597228 0.07218718 -0.032990128 -0.07777414 -0.016999979 -0.10626946 0.026919976
-0.06615457 -0.058817197 0.11851564 0.033628684 0.017812476 -0.043263786 0.06380101 0.024012951
-0.06085185 -0.07572878 -0.072604336 -0.06635829 0.09370368 -0.07192901 -0.091059856 0.008801983
0.058190458 0.012476486 -0.0021912942 -0.114197664 0.0062303827 0.09344616 -0.004144454 -0.0310049
0.050059963 0.10012952 0.11251898 0.054321166 0.016535155 -0.035442844 -0.0001576833 0.10540279
00000000: 58a0 d63d 65b3 cdbc 7452 4f3d 30c2 c23c
00000010: 107c f4bd 3923 a03d 8093 ff3d 7577 d8bd
00000020: f97b c0bc 965d bdbd 9df3 ef3d 09b4 ca3d
00000030: eed2 6cbd b7de c63c 17a3 2cbd 516b d7bd
00000040: 6a22 3d3d e933 57bd 30b3 9d3d d3ba b4bd
00000050: fc4f 92bd 114c cbbd 7fe2 6bbd 918f d33d
00000060: 38f2 aabc 1578 babd 5d4d 8a3d e44d 073d
00000070: b06a ee3d f362 53bd c59d 63bc da62 7bbd
00000080: bc8c b73d d324 893c abd3 81bd dfc8 3a3d
00000090: aafb f3bd 5974 94bd 90b5 423c c697 62bd
000000a0: 1745 94bd 7da2 cd3c f352 14bd 7bb8 b33d
000000b0: 2f42 ba3d 600f c4bd c645 983d 5536 d13d
000000c0: 6784 6bbd 8916 35bd c17e 1a3d 533c aebd
000000d0: 30f4 1fbd 947e af3d d9ef d83b 4526 02bd
000000e0: a79f fdbd 19cc 593d 774d 763d 6d52 7e3c
000000f0: b600 e7bd d21d 6dbc 871b 2e3b 2671 eebd
00000100: d5b1 fbbc 2f07 c6bd 7e13 983c ceb9 fa3d
00000110: 592f 9c3d 7238 8bbd 5801 913c c8af dcbc
00000120: 4e66 f9bd 48b5 36bd 18f2 aa3c 41e1 943d
00000130: 1778 943c 72f5 a4bc d474 873d de35 793d
00000140: 930a 6a3d 3daf bfbd 2d7b f53d 54ce cd3d
00000150: ccbd 2b3d da6b b03d 1fd6 e53d 542c 7fbd
00000160: fe62 783c 98a4 73bd 02b5 d5bc 457b b3bb
00000170: ec81 9ebc 98e4 293c 3d03 7e3d 6e18 dcbd
00000180: 0c39 b13d e4a2 73bd e10f 66bd 8e9f 313d
00000190: 959c c03d f0b5 353d 7a95 8bbd 1b7e e5bd
000001a0: cfc2 a2bd 50de 1d3d 4b9b a1ba f174 f53d
000001b0: d4eb 053c 797a 26bd a368 f53d 5916 adbd
000001c0: ec19 7fbd fb99 76bd 15a6 813c af28 ecbd
000001d0: ea55 4a3d 039b bebd 1ad1 c8bd b888 dc3a
000001e0: 0a38 b03d ec9c 9ebd d745 e43d a086 74bc
000001f0: ff88 debd 89f0 81bd 97b1 95bd 10f5 10bc
00000200: 01ac bf3c 7062 ed3d bf0c d3bd cfe9 9cbd
00000210: 7789 a7bd 8522 40bd e218 fabd 3f40 acbd
00000220: 1aec 493d 909e 73bc 5307 0a3c 7b51 a23d
00000230: d5bf 89bd 69c9 27bc d7d1 8dbd 3d3f d23d
00000240: 8e33 d4bd 3ad2 dc3d 5b48 f2bd 4ddf ccbc
00000250: 5a32 e73d adeb 1b3c ca67 edbd 31a1 6f3b
00000260: bb35 783d c818 c9bd 2565 a0bd 4f1b 20bd
00000270: 81a2 bfbc c093 743c c7e1 ac3a 32e0 993d
00000280: 8669 afbd a427 123d 6464 873c 4ab7 fa3d
00000290: 5b75 a03d 7cba cf3d 844f eebd 8281 0b3d
000002a0: 7680 97bc 9845 cebd 865a afbb 0525 e3bd
000002b0: 6c0d 9d3d c038 923c a7c1 ae3b a815 aa3d
000002c0: 15bd e53d 3e7d c93c 42de dc3d a5f3 babd
000002d0: d297 7a3d 39a9 963d 2b0b a0bb 40fe bb3d
000002e0: 540d 4f3d d020 8d3d bd91 ebbd 28fd 29bc
000002f0: 801c 8c3d 0107 0f3c e554 d3bd 08cf 43bd
00000300: d4af 86ba 6aaf 7a3d a5be a23d ec36 13bd
00000310: b187 d1bd a693 0cbd 8eeb b13d db4b ebbc
00000320: 233d 3abd 6240 7bbd 761a 98bd 86e9 7abd
00000330: b2d9 aabd b5ea cabc 2dca b23c dd05 e6bd
00000340: fad0 b63d bb19 bb3d 1665 49bd 2437 68bd
00000350: 04fa 363c 590f 653d d89d f83d 2a14 f93d
00000360: ad94 d9bd e082 ed3d dfd6 933d a820 07bd
00000370: 0c48 9fbd 8a43 8bbc cda3 d9bd 4887 dc3c
00000380: 0c7c 87bd 4dea 70bd 54b8 f23d 3bbe 093d
00000390: 78eb 913c 5e35 31bd 1baa 823d cfb6 c43c
000003a0: ca3f 79bd b117 9bbd 95b1 94bd dbe6 87bd
000003b0: b7e7 bf3d 844f 93bd 977d babd 3136 103c
000003c0: 1e59 6e3d 2d6a 4c3c d19b 0fbb 77e0 e9bd
000003d0: 3d28 cc3b b360 bf3d 33ce 87bb fdfd fdbc
000003e0: ad0b 4d3d b510 cd3d 5a70 e63d df7f 5e3d
000003f0: bc74 873c 842c 11bd ca57 25b9 6bdd d73d

onnx::Conv_825 f4 [64]
0.0 0.0 0.0 0.0 0.0 0.0 0.0 0.0
0.0 0.0 0.0 0.0 0.0 0.0 0.0 0.0
0.0 0.0 0.0 0.0 0.0 0.0 0.0 0.0
0.0 0.0 0.0 0.0 0.0 0.0 0.0 0.0
0.0 0.0 0.0 0.0 0.0 0.0 0.0 0.0
0.0 0.0 0.0 0.0 0.0 0.0 0.0 0.0
0.0 0.0 0.0 0.0 0.0 0.0 0.0 0.0
0.0 0.0 0.0 0.0 0.0 0.0 0.0 0.0
00000000: 0000 0000 0000 0000 0000 0000 0000 0000
00000010: 0000 0000 0000 0000 0000 0000 0000 0000
00000020: 0000 0000 0000 0000 0000 0000 0000 0000
00000030: 0000 0000 0000 0000 0000 0000 0000 0000
00000040: 0000 0000 0000 0000 0000 0000 0000 0000
00000050: 0000 0000 0000 0000 0000 0000 0000 0000
00000060: 0000 0000 0000 0000 0000 0000 0000 0000
00000070: 0000 0000 0000 0000 0000 0000 0000 0000
00000080: 0000 0000 0000 0000 0000 0000 0000 0000
00000090: 0000 0000 0000 0000 0000 0000 0000 0000
000000a0: 0000 0000 0000 0000 0000 0000 0000 0000
000000b0: 0000 0000 0000 0000 0000 0000 0000 0000
000000c0: 0000 0000 0000 0000 0000 0000 0000 0000
000000d0: 0000 0000 0000 0000 0000 0000 0000 0000
000000e0: 0000 0000 0000 0000 0000 0000 0000 0000
000000f0: 0000 0000 0000 0000 0000 0000 0000 0000
