models/particlenet_ak4_chs_v2.onnx (onnx, 973154 bytes, 42 tensors)

pf_conv.conv.0.weight f4 [20]
00000000: 0000 803f 0000 803f 0000 803f 0000 803f
00000010: 0000 803f 0000 803f 0000 803f 0000 803f
00000020: 0000 803f 0000 803f 0000 803f 0000 803f
00000030: 0000 803f 0000 803f 0000 803f 0000 803f
00000040: 0000 803f 0000 803f 0000 803f 0000 803f
1.0 1.0 1.0 1.0 1.0 1.0 1.0 1.0
1.0 1.0 1.0 1.0 1.0 1.0 1.0 1.0
1.0 1.0 1.0 1.0

pf_conv.conv.0.bias f4 [20]
00000000: 0000 0000 0000 0000 0000 0000 0000 0000
00000010: 0000 0000 0000 0000 0000 0000 0000 0000
00000020: 0000 0000 0000 0000 0000 0000 0000 0000
00000030: 0000 0000 0000 0000 0000 0000 0000 0000
00000040: 0000 0000 0000 0000 0000 0000 0000 0000
0.0 0.0 0.0 0.0 0.0 0.0 0.0 0.0
0.0 0.0 0.0 0.0 0.0 0.0 0.0 0.0
0.0 0.0 0.0 0.0

pf_conv.conv.0.running_mean f4 [20]
00000000: 0000 0000 0000 0000 0000 0000 0000 0000
00000010: 0000 0000 0000 0000 0000 0000 0000 0000
00000020: 0000 0000 0000 0000 0000 0000 0000 0000
00000030: 0000 0000 0000 0000 0000 0000 0000 0000
00000040: 0000 0000 0000 0000 0000 0000 0000 0000
0.0 0.0 0.0 0.0 0.0 0.0 0.0 0.0
0.0 0.0 0.0 0.0 0.0 0.0 0.0 0.0
0.0 0.0 0.0 0.0

pf_conv.conv.0.running_var f4 [20]
00000000: 0000 803f 0000 803f 0000 803f 0000 803f
00000010: 0000 803f 0000 803f 0000 803f 0000 803f
00000020: 0000 803f 0000 803f 0000 803f 0000 803f
00000030: 0000 803f 0000 803f 0000 803f 0000 803f
00000040: 0000 803f 0000 803f 0000 803f 0000 803f
1.0 1.0 1.0 1.0 1.0 1.0 1.0 1.0
1.0 1.0 1.0 1.0 1.0 1.0 1.0 1.0
1.0 1.0 1.0 1.0

sv_conv.conv.0.weight f4 [11]
00000000: 0000 803f 0000 803f 0000 803f 0000 803f
00000010: 0000 803f 0000 803f 0000 803f 0000 803f
00000020: 0000 803f 0000 803f 0000 803f
1.0 1.0 1.0 1.0 1.0 1.0 1.0 1.0
1.0 1.0 1.0

sv_conv.conv.0.bias f4 [11]
00000000: 0000 0000 0000 0000 0000 0000 0000 0000
00000010: 0000 0000 0000 0000 0000 0000 0000 0000
00000020: 0000 0000 0000 0000 0000 0000
0.0 0.0 0.0 0.0 0.0 0.0 0.0 0.0
0.0 0.0 0.0

sv_conv.conv.0.running_mean f4 [11]
00000000: 0000 0000 0000 0000 0000 0000 0000 0000
00000010: 0000 0000 0000 0000 0000 0000 0000 0000
00000020: 0000 0000 0000 0000 0000 0000
0.0 0.0 0.0 0.0 0.0 0.0 0.0 0.0
0.0 0.0 0.0

sv_conv.conv.0.running_var f4 [11]
00000000: 0000 803f 0000 803f 0000 803f 0000 803f
00000010: 0000 803f 0000 803f 0000 803f 0000 803f
00000020: 0000 803f 0000 803f 0000 803f
1.0 1.0 1.0 1.0 1.0 1.0 1.0 1.0
1.0 1.0 1.0

pn.fc.0.0.weight f4 [128, 256]
00000000: 1091 693c 4084 d73c 40b4 253d 1c46 67bd
00000010: 72d1 403d 70d1 b93b a032 563c 006a 1a3b
00000020: f81b b43c 0082 023a 3e5a 73bd 5c32 153d
00000030: 2c25 8cbc 2446 873c 7c46 003d a8ff 6b3c
00000040: 3442 2dbd b446 2c3d 3c46 263d 4a7c 643d
00000050: 7c51 8ebc 60aa 34bd 3635 5fbd c039 2cbc
00000060: 6833 2c3d 82f8 303d 0a7f 7a3d 20e3 9a3c
00000070: e052 233d c01f d4bb 5454 9bbc ccb2 033d
00000080: 58b8 303c d421 6abd b067 123c 70df dabb
00000090: 30b4 633d 460d 0c3d 58ff 57bd f82c 63bc
000000a0: 80bf 523c c421 23bd be0c 303d 58e8 373c
000000b0: 4c18 edbc 5c35 3f3d 6e0c 7b3d 18a7 1bbc
000000c0: b8f4 0abc 94f8 76bd 1800 08bd 808a 65ba
000000d0: 9cd9 193d 6c50 903c 4645 42bd 183d 793d
000000e0: f270 583d 9644 213d 40c3 d53a 86e3 043d
000000f0: 5861 ebbc 8432 2f3d 6021 823c 9062 11bd
00000100: d0f6 313c 7888 633d 209a 92bc 9af7 52bd
00000110: 7287 58bd ac85 b3bc 6080 433b 60dd 73bd
00000120: e6d7 07bd e024 43bd 7099 f5bb 1661 253d
00000130: a0af 903c 009e 0639 7c48 403d 18f7 b4bc
00000140: 0028 7938 40ba bbbc e8bd f7bc a051 73bd
00000150: 6e9a 18bd 288c d3bc 58da 90bc f2c0 303d
00000160: 7809 133d 9c0d dbbc e01a 713d 3cb1 ab3c
00000170: 0e3a 23bd f4a8 203d e2e2 5e3d f8b5 43bd
00000180: 340d adbc a2ab 6dbd e8ce 5dbc f668 3bbd
00000190: 5893 bc3c 5076 b23b 40a6 bbba be8e 0abd
000001a0: c0c4 5d3c 626e 513d 68ca 32bd a824 e5bc
000001b0: 30ae fa3b d2bf 103d 80ac 2ebc a03b 263d
000001c0: 5068 29bd 1aa6 343d 06e7 7f3d ac3d 613d
000001d0: d00b 0b3c 26dc 5b3d 38a9 a93c ec2c f9bc
000001e0: 40fb 3abd 0019 c9b9 a63a 4b3d ee81 573d
000001f0: 1ce8 b63c 68ce 74bc c435 debc f0c6 a5bb
00000200: 148f 923c 4c9e 41bd f0e6 83bc a882 21bc
00000210: 9edc 25bd 00a3 1d3d 0e9b 3dbd 4cb1 50bd
00000220: 5439 673d 328b 713d 9864 2a3c 5ebe 6a3d
00000230: 6051 233b 0c30 133d 96fb 713d d890 73bd
00000240: 928f 1bbd f069 723d 9ce4 9c3c a668 33bd
00000250: 40a0 bd3b 602a 37bc 885d cbbc fe0d 3dbd
00000260: 9606 4ebd 6450 8c3c da25 60bd f0dd 7bbd
00000270: 80c6 02bc 00f5 db3a 7626 013d 68c5 593d
00000280: 146a 393d da5c 003d f042 fa3c 2250 513d
00000290: 8033 1c3b 2882 50bd a86f 283d d61e 0f3d
000002a0: dc8c 863c ec2e 083d 2ca9 8e3c 28fa 63bc
000002b0: 349b c73c 3858 91bc 08d2 88bc 8c18 853c
000002c0: 20c9 6cbb 2810 febc 2003 163c 4a4c 37bd
000002d0: 082c 06bd c41b 5cbd b087 12bc a2b3 4abd
000002e0: 301e f33c cc09 8abc 6499 0c3d e02e 0ebb
000002f0: f816 4b3c 3a7f 65bd 868a 43bd ae00 3bbd
00000300: b052 9d3c 98dc 47bc d4bd 323d d04f 69bc
00000310: d01b 1c3c 0017 b83a 88c0 4fbc 0e39 0dbd
00000320: a85b 02bc 4a40 05bd b0d7 1bbc 0a63 2bbd
00000330: 12a4 05bd 8890 78bc 7849 cd3c acca 9fbc
00000340: 8673 1d3d c03a d7bb b830 e93c d047 13bd
00000350: c010 23bc ca32 65bd 76db 4e3d d640 47bd
00000360: d4ae aebc b00d 383c 4671 05bd dc63 b43c
00000370: 4625 7e3d 4ca3 e2bc d06a 193d eca9 523d
00000380: dc1f a5bc b234 363d 3006 61bd f05d 84bc
00000390: 209a 7b3c 2c73 4abd 807e 753a 9647 7cbd
000003a0: 608c 4abd d4c7 583d 2078 563d bc78 c6bc
000003b0: 546f a9bc f46f a8bc 2086 583b a44e 21bd
000003c0: b65a 5dbd fc51 c43c dc1c ee3c a847 2c3d
000003d0: b832 06bd 0060 19b8 4075 05bb 2042 423c
000003e0: b029 543d e674 633d 04a7 2ebd 5c2e 09bd
000003f0: c87b eb3c 10ef 483d 60f8 46bd 3ee2 343d
0.014255777 0.026308179 0.040455103 -0.056463346 0.047074743 0.005670719 0.013073593 0.0023561716
0.021985993 0.0004978478 -0.059412234 0.03642498 -0.017107569 0.016512938 0.03131722 0.014404215
-0.042299464 0.042059615 0.040594324 0.055782594 -0.01737284 -0.044107795 -0.054494105 -0.010511816
0.042041212 0.043205746 0.06115631 0.01890713 0.039873958 -0.0064735115 -0.01896111 0.032152936
0.0107861385 -0.057161167 0.008935854 -0.006679468 0.055591762 0.034192346 -0.05273375 -0.013865702
0.01286304 -0.039827123 0.042980902 0.011224829 -0.02894225 0.046681747 0.06129115 -0.0095002875
-0.008481197 -0.060295656 -0.033203214 -0.0008756295 0.037561044 0.017616473 -0.047429346 0.06084928
0.052842088 0.03937205 0.0016308799 0.032443546 -0.02873294 0.042772785 0.015885055 -0.035494387
0.010862067 0.05555007 -0.017895758 -0.051505663 -0.052863546 -0.021914326 0.0029831156 -0.05953729
-0.03316488 -0.04764259 -0.007495098 0.04037579 0.01766187 0.00012838095 0.046944126 -0.02209048
5.940348e-05 -0.02291596 -0.030241922 -0.059404016 -0.03725665 -0.025823668 -0.01768224 0.043152757
0.035897702 -0.026739888 0.05886352 0.020958535 -0.039850287 0.039223626 0.05441559 -0.04778096
-0.02112446 -0.05802501 -0.0135381 -0.045754395 0.023019478 0.005446233 -0.0014316514 -0.033827536
0.013535678 0.05113066 -0.04365006 -0.02797158 0.0076501593 0.035339184 -0.010661244 0.040584207
-0.041359246 0.04410372 0.06247618 0.054990456 0.008486703 0.053676747 0.020710573 -0.030416928
-0.045649767 -0.00038356334 0.04961648 0.052614145 0.022327475 -0.014941789 -0.027125247 -0.0050591156
0.01789049 -0.047270104 -0.01610133 -0.009857811 -0.0404936 0.038485527 -0.04629045 -0.050950333
0.056451157 0.058970638 0.01039996 0.057310455 0.002492033 0.035934493 0.05907782 -0.059464306
-0.037978716 0.05918306 0.019151978 -0.043800972 0.0057869256 -0.011179537 -0.024824873 -0.046155922
-0.05029925 0.017128177 -0.054723598 -0.061490953 -0.007981896 0.001678139 0.03153082 0.053166777
0.04526718 0.03133855 0.030549496 0.05110181 0.0023834407 -0.050905377 0.04112211 0.034941517
0.016424589 0.033247873 0.017414652 -0.013914622 0.024365999 -0.017742261 -0.016701713 0.016247056
-0.0036130622 -0.031013563 0.0091560185 -0.04475049 -0.032756835 -0.053737417 -0.008943483 -0.049487717
0.02967748 -0.016850375 0.034325972 -0.002169542 0.012395613 -0.056029536 -0.047739528 -0.045654945
0.019204468 -0.01219859 0.043638065 -0.01424022 0.009528115 0.001404494 -0.01268018 -0.03447824
-0.007956423 -0.032532014 -0.009511873 -0.041842498 -0.032627173 -0.015171178 0.025059447 -0.019505821
0.03844025 -0.006568283 0.028465614 -0.035957158 -0.009952724 -0.05595664 0.050502263 -0.048645817
-0.021323599 0.011233732 -0.03257873 0.022020273 0.062047265 -0.027665757 0.03745538 0.05143158
-0.020156793 0.044483848 -0.05493754 -0.016158074 0.0153565705 -0.049426243 0.0009364858 -0.061591707
-0.04945028 0.052924946 0.052360654 -0.024227493 -0.020682968 -0.020561196 0.003303893 -0.03938164
-0.054041587 0.023964874 0.029066496 0.042060524 -0.032763213 -3.656745e-05 -0.0020364076 0.011856586
0.05179757 0.055531405 -0.042639747 -0.033491477 0.028745547 0.049056113 -0.048576713 0.044161074

pn.fc.0.0.bias f4 [128]
00000000: 2448 22bd a68f 37bd d268 6b3d be0d 233d
00000010: f0e9 1cbd 1c74 cebc d0b6 cf3c 0e73 43bd
00000020: da52 07bd 0074 9439 eab6 2cbd 5406 eabc
00000030: cae7 70bd 9ec0 183d 0856 41bd 6480 433d
00000040: b0bb 88bc befa 7dbd 2a28 1bbd ce02 0cbd
00000050: ecbc f3bc 862c 19bd d896 0f3d 6088 94bc
00000060: b6d4 343d 501d b63c d86f 7e3c 16b9 3a3d
00000070: 1aac 70bd 6469 e93c 04be 9d3c 3ee0 2e3d
00000080: 7c98 53bd 3674 0a3d 1cc6 d4bc 203a 8fbb
00000090: 4086 00bc a449 e3bc 488b 6cbd 7058 ebbb
000000a0: 684b dc3c c4bd 97bc c41b 94bc 92be 71bd
000000b0: 0857 01bd e0b6 b0bc 0a0a 5dbd d03e bebb
000000c0: d219 73bd 2894 253d 94b7 6dbd c479 0f3d
000000d0: a867 5c3d b0f1 143c a8c0 3f3c 5c94 af3c
000000e0: 18fc 18bd 805a f83c 1ef4 313d b02d b7bc
000000f0: 24a5 a83c 0c37 babc f831 113c c8d0 663d
00000100: 800b 76bc 562a 20bd 64ba 943c d422 fdbc
00000110: 60fe b0bb 38fb a83c 92e1 273d b04a 31bc
00000120: 4611 26bd 82c3 0f3d ce66 4e3d 50e4 82bb
00000130: 00bb 763b c495 b13c 5217 403d 66f1 1bbd
00000140: b8fe ae3c 6ad5 5ebd 78b2 01bd c06e 303c
00000150: 4040 c53b 1054 3abd 98fa d73c 400d 74bd
00000160: f0bf 9dbc 00f0 64b8 20b8 b13b e8c1 b63c
00000170: 081d 4dbc c01f b53a 748d 8ebc 607e 4f3c
00000180: f698 62bd 6e23 7ebd c0ff b43c 5829 123d
00000190: 008a 0e39 a0e2 abbc de94 57bd 7c8d e1bc
000001a0: 56ab 01bd 105d 6ebd 6a69 4e3d 784d 04bc
000001b0: 0431 573d d437 e9bc b400 1abd 70c7 07bc
000001c0: 8e50 5e3d 28f5 523c 7c28 3bbd e6fd 4c3d
000001d0: b0ea 4f3d faa7 023d 4085 173c b204 3b3d
000001e0: 5c84 febc d4de 9fbc 70d1 773c dc68 d73c
000001f0: 1832 65bc 94b8 8bbc f0db a23c 4052 63bc
-0.03961958 -0.04481473 0.05747301 0.039808027 -0.038309038 -0.02520185 0.025355726 -0.047717147
-0.033037998 0.00028315187 -0.042166628 -0.02856747 -0.0588148 0.03729307 -0.047201186 0.047729865
-0.016691059 -0.062006705 -0.0378801 -0.034182362 -0.02975317 -0.037395976 0.035055965 -0.018131435
0.04414817 0.022230774 0.015529595 0.045586668 -0.05875788 0.028492637 0.019255646 0.042694323
-0.051659092 0.033802234 -0.025973372 -0.0043709427 -0.007844508 -0.027745076 -0.057750016 -0.0071821734
0.026891425 -0.018523104 -0.018079646 -0.059019633 -0.03157714 -0.021571577 -0.053964652 -0.0058058277
-0.059350796 0.040424496 -0.058036402 0.035028234 0.05380979 0.009090826 0.011703648 0.021433048
-0.03734979 0.030316591 0.0434457 -0.022360653 0.020586558 -0.022731327 0.008862011 0.056351453
-0.01501739 -0.039102875 0.018155284 -0.030900396 -0.0054014176 0.020627603 0.040986605 -0.01082103
-0.040543817 0.03509856 0.05039101 -0.003994502 0.0037648082 0.02167786 0.04689724 -0.038072012
0.021361694 -0.054402746 -0.03166434 0.010768592 0.006019622 -0.045490324 0.02636461 -0.05958295
-0.019256562 -5.4582953e-05 0.0054235607 0.022309259 -0.012519129 0.0013818666 -0.017401434 0.0126644075
-0.055321656 -0.062045507 0.022094607 0.03568396 0.00013593584 -0.020982087 -0.052632205 -0.027533285
-0.03165754 -0.05819422 0.0503935 -0.008075111 0.05253698 -0.028469004 -0.037598327 -0.008287296
0.05427604 0.012875833 -0.045692906 0.050046824 0.050760925 0.031898476 0.009248078 0.045658775
-0.031068973 -0.019515432 0.015125617 0.026295118 -0.013988994 -0.017055787 0.019880265 -0.01387459

pn.fc.1.weight f4 [8, 128]
00000000: 87e6 9dbd e8ce 1b3c a32c a8bd 345c 0a3d
00000010: 2019 bebc 1885 de3c 272e 8f3d 907e 843b
00000020: 6220 7b3d a6d7 15bd 5a74 553d 4ad8 273d
00000030: 531c aebd 3adf 423d c4be c03c 2122 ae3d
00000040: a679 86bd f17a 963d 48ea 8dbc b0b4 f43b
00000050: 2e9c 673d c0dc 623c 8d24 a93d 586e 6bbc
00000060: 0be0 a63d 20f6 e13b 72d6 9bbd 916d a93d
00000070: 0ce0 85bc 0822 28bd ca72 503d 1868 ed3c
00000080: f2b1 acbd 3815 71bd b0df 43bc 3fc0 9e3d
00000090: 621b 5b3d ca98 2c3d 7898 b0bd 642c c3bc
000000a0: 7216 4c3d 36cc 00bd 6803 ee3c 39ed 843d
000000b0: d9fd a33d 14e6 6fbd 7633 9abd ebc3 06bd
000000c0: c136 6abd 66f7 403d c39b 46bd f0d4 8a3c
000000d0: b7fc a33d a5dd 65bd e8c0 61bc 9bec 63bd
000000e0: 0d8d 943d 7a21 85bd a5b8 993d d8bc 18bc
000000f0: 18e8 14bc c3aa af3d 8f6d a13d 7e05 e9bc
00000100: 8009 25bc 0497 c03c 2e57 063d 4cbd c43c
00000110: ed14 ac3d bac1 2d3d 715a ae3d ec53 e93c
00000120: 1e81 83bd aaf5 3f3d 62a0 7b3d 934b 92bd
00000130: 4320 833d b796 04bd cb9e 41bd ba57 153d
00000140: cadf 593d abc4 19bd fe8d 363d b6cc 533d
00000150: c501 8e3d 08c0 36bc 2063 be3b c024 f7bb
00000160: 3bd6 a5bd 1181 9e3d 8401 a3bc eb88 08bd
00000170: 9ae0 60bd 94b0 61bd 6e29 6b3d 30e5 d23b
00000180: 0033 1f3b decc 5b3d 5bf0 a43d 8017 88ba
00000190: b2fc 523d d5a5 9fbd dd24 1dbd 4aec 173d
000001a0: 4c76 4cbd c000 913b a257 0a3d 9244 3dbd
000001b0: d427 a73c 4a77 6abd 1e3f e1bc 14b0 ccbc
000001c0: e147 8e3d 4787 9fbd 3c50 b13c 7b43 8fbd
000001d0: 0013 ea39 e0ce 903b b286 703d b456 94bc
000001e0: b432 fa3c 3819 b53c 10cd 253c 8081 b7bc
000001f0: 207f 20bb ddea 8a3d 24e4 e63c 4083 673b
00000200: 4c7c 35bd b619 78bd a06b 99bc d7ad 8b3d
00000210: b57a 45bd 4bf2 933d 0ead 423d c49f 32bd
00000220: 20c0 0b3d 0e0c 063d 369a 7fbd c8d1 2cbd
00000230: 1035 f83b 9c3c b0bc 6dd1 af3d 973f 25bd
00000240: 30c3 a23c 8062 34bb ac44 babc 2631 343d
00000250: c086 993a 4a3e 09bd f59d 9d3d 4661 763d
00000260: 2ea7 9bbd e58d a93d acfd c5bc 7836 e03c
00000270: e8d4 e43c f67d 703d 982d 123d 221a e4bc
00000280: 6080 833b 8000 533c 6715 7abd d81d ccbc
00000290: 95a1 803d 4b86 9b3d 901e cfbc 421d 99bd
000002a0: bd11 32bd 0e5f 17bd e202 b0bd c553 893d
000002b0: 1888 733c e27a f8bc 1804 5e3c 5533 9a3d
000002c0: 6e9f 5e3d 8b13 1abd c220 1b3d b07d 74bc
000002d0: 97b8 903d 1937 a1bd cc27 dbbc 4561 2dbd
000002e0: c559 3bbd 2092 b03c 281a 27bc d0d3 8c3c
000002f0: e02f 0bbb eee3 fdbc 9c0f 66bd 18d0 1fbc
00000300: f40d 05bd 30fc 063d 7025 80bc 2844 93bc
00000310: 582e 123c 2752 49bd 16db 483d 8074 f53b
00000320: cfca a03d a8e8 8b3c ce3e 3abd 07c9 993d
00000330: 9b66 8c3d e2de 39bd c8ce 6a3c c0cb ce3a
00000340: 79ee a33d c858 bb3c 3c2a acbc b0ed bebc
00000350: 4aa2 4e3d f235 783d 8ade 043d 6cff b93c
00000360: 83ae 4cbd f753 9c3d a9a8 9a3d 24f4 8abc
00000370: 8072 3fbb 9100 a9bd 744f 983c 765a 4f3d
00000380: 44a6 fe3c 265f 3d3d 00f6 65bb 9070 a4bb
00000390: 1cd8 74bd 1e90 303d 862e 6ebd 8eae 213d
000003a0: 80f5 b73b 5024 e33b f872 60bc db1f 43bd
000003b0: 4025 b1bc a99f 5dbd fed7 fdbc d807 75bc
000003c0: 8871 99bd 9522 893d b801 80bd e5c9 803d
000003d0: f394 ac3d 28cb 7bbc 1000 f13c 8c88 9e3c
000003e0: 84e5 9fbd 2278 6a3d e011 083b 498c 39bd
000003f0: f784 36bd 450f 853d 4292 563d 8a1c 053d
-0.07709985 0.0095097795 -0.08211639 0.033779338 -0.02320534 0.027163073 0.06991225 0.0040434077
0.06131018 -0.03658261 0.052112915 0.040977754 -0.08501496 0.047576167 0.023528464 0.08502603
-0.06566171 0.07347668 -0.017323628 0.0074678287 0.05654543 0.013846576 0.08258925 -0.01436957
0.081482016 0.0068957955 -0.076092616 0.08272851 -0.016342185 -0.04104808 0.05089072 0.0289803
-0.08432378 -0.058858126 -0.011955187 0.07751512 0.05349291 0.0421379 -0.08622831 -0.023824878
0.049826093 -0.03144475 0.029054359 0.06490559 0.08007402 -0.05856903 -0.07529347 -0.032901686
-0.057181124 0.047110938 -0.04848839 0.01694724 0.08007186 -0.05611958 -0.013778903 -0.055645566
0.07253466 -0.06500526 0.07505921 -0.009322368 -0.009088539 0.08577492 0.07882225 -0.028445002
-0.010073066 0.02350951 0.032797985 0.024016045 0.08402429 0.04242108 0.08513344 0.0284824
-0.064211115 0.046865143 0.06143225 -0.07143321 0.06402638 -0.032370295 -0.047270577 0.036460616
0.053191938 -0.037541073 0.044569008 0.0517089 0.06933931 -0.011154182 0.0058101565 -0.0075422227
-0.08097502 0.07739461 -0.019898184 -0.0333337 -0.054901697 -0.05510004 0.057412557 0.0064360127
0.0024291873 0.053662173 0.08053657 -0.001038298 0.05151052 -0.07795302 -0.038365234 0.037090577
-0.049917504 0.0044251382 0.03377498 -0.046207972 0.020404734 -0.05724267 -0.027495917 -0.024986304
0.069473036 -0.07789474 0.021644704 -0.06995293 0.00044646114 0.0044191927 0.058722205 -0.01810775
0.030541755 0.022106752 0.0101196915 -0.022400618 -0.0024489835 0.06783078 0.028184958 0.0035326034
-0.04430799 -0.060571395 -0.018728077 0.06820267 -0.048212726 0.07223948 0.04752832 -0.043609396
0.03411877 0.03272634 -0.062402926 -0.04219225 0.007574685 -0.021513276 0.08584867 -0.040343847
0.019868463 -0.002752453 -0.022737823 0.043992184 0.0011713132 -0.03350667 0.076961435 0.06015136
-0.07600246 0.08279017 -0.024168812 0.027369723 0.027933553 0.058713876 0.035688013 -0.027844492
0.004013106 0.012878537 -0.061055567 -0.024916574 0.06280819 0.07593974 -0.025283128 -0.074762836
-0.043473948 -0.036955886 -0.085943 0.06705431 0.01486399 -0.030332033 0.013550781 0.07529322
0.054351263 -0.037616294 0.037873037 -0.014922544 0.07066458 -0.07871837 -0.026752375 -0.04232909
-0.045739908 0.021554053 -0.010199107 0.017190844 -0.0021238253 -0.030992474 -0.05616723 -0.009754203
-0.03248401 0.03295535 -0.015642852 -0.017976835 0.008922182 -0.049150612 0.04903706 0.0074906945
0.07851183 0.017078713 -0.04547005 0.07509046 0.06855508 -0.045378573 0.014331527 0.0015777275
0.080044694 0.022869483 -0.021016233 -0.023306698 0.05044774 0.06059832 0.032438792 0.022704802
-0.049971115 0.076332025 0.075517006 -0.016962118 -0.0029212534 -0.08252061 0.018592574 0.05062338
0.031085141 0.04623332 -0.0035089254 -0.0050183013 -0.05977641 0.04310619 -0.058149837 0.03947311
0.0056139827 0.006931819 -0.013699286 -0.0476378 -0.021624207 -0.054107342 -0.030986782 -0.014955483
-0.074923575 0.06696049 -0.06250328 0.06288508 0.08426847 -0.01536826 0.029418975 0.01935222
-0.078074485 0.057243474 0.0020762607 -0.045299802 -0.0445604 0.06497053 0.052385576 0.03249792

pn.fc.1.bias f4 [8]
00000000: ba1d 523d 8469 b1bd 2e49 b3bd 54c0 c33c
00000010: 9b9d 8abd 7fa3 07bd fdd6 a4bd 0040 eab9
0.05129788 -0.08662704 -0.08754192 0.02389542 -0.06768342 -0.033114906 -0.08048818 -0.00044679642

onnx::Conv_819 f4 [32, 20, 1]
00000000: c51a 42be 48a0 0bbe 7387 45bd 7b4e 6a3d
00000010: c325 213e a88f 4e3e 598f 5bbe 84be 37bb
00000020: 93c2 4c3e dba0 55be e6b8 43be 919e 403e
00000030: 07be 01be 6e94 c83c 3264 053e 4944 a7bb
00000040: 0beb 343e b0b5 933d 0357 393d b154 9b3d
00000050: 7abb 053e 10d4 103d bde8 1c3d cc12 50bc
00000060: 23e7 3a3c 427a 0c3d a47a cebc 5496 2bbd
00000070: 6259 0b3e 89bc a6bb 4364 41be 60b9 1dbd
00000080: a7c2 eb3d 46f7 35be 29ba 5d3e b17e b4bd
00000090: 5ba3 21bd 4b25 e93d 0993 103e 79d2 0e3e
000000a0: 82a2 ec3c 6d4e 1c3e b58c e4bc a8e7 bbbd
000000b0: cd93 48be 84ad 003e 2705 af3d 9ce4 b5bc
000000c0: ca75 d43c b272 a4bc 5140 f2bc c6f1 80bd
000000d0: c467 93bd 0188 b2bd 7b47 aebd e0bc 93bd
000000e0: cf81 1a3e eb5e 213d 9119 d7bc 2de2 ca3d
000000f0: cdb4 1c3a c183 42be abbc 283e b27c 483e
00000100: 786b 3fbe 4e39 4f3e d8a7 cf3d 36b1 13be
00000110: c7b9 69bd 70ca c1bc 5d54 0e3e d6d2 c83d
00000120: 551e 413e 02ec 0a3e 58b7 0abe 5a6c 373e
00000130: 919a 273d e2f2 4dbe 510f 3fbe ddea 503e
00000140: 377e f0bd d2dc b0bd 95a5 e4bc a9be d83d
00000150: d22e 37be 6f18 46be cf55 143a 92a1 36be
00000160: 42a6 5dbe 7c0a 29be de53 133e 8878 bebd
00000170: d27e 5c3e 1878 ab3d 4691 123e 5ea5 413e
00000180: fe8f d4bd e901 4d3e 336f 26be 11ba 9bbd
00000190: 7198 0a3e a658 503e 18e7 113e 5444 323e
000001a0: 557f c13d 5323 a7bd affd 3f3e fc7e 37be
000001b0: 5fab 2bbe 10a5 29be 6566 04bd 90e5 53be
000001c0: 06e5 07be 8ea8 973d 8032 36be 04dc fe3d
000001d0: f0c6 0a3e b33d 283e ad93 d73d ded3 58be
000001e0: 2d5c a2bd c74d 69bd 3563 26bd 7e18 363e
000001f0: 543b 37bd 5af4 3d3d 0f09 353e 4d1f 53be
00000200: 6fcb 213e ae0a 183e b8f5 c23d e7c1 a03d
00000210: a5bc d0bd cc20 e0bd d601 18bd c0a8 97bd
00000220: 7e4c ed3d 68f0 db3c 7977 903c 205d aabc
00000230: 3cf5 913d 4ede cabd be24 c93a e949 02be
00000240: b65d 003d e01e 923d 8d71 b33d bf07 52bd
00000250: 46f4 0bbe dda8 513e fd4e 1c3c b307 89bc
00000260: 4c6a 3bbe 4a6c 253e 5463 e63b 23e4 8dbd
00000270: 5499 5fbe 7ca6 0b3e 7a0f 483e 05e5 f0bd
00000280: fd87 1b3c f783 5f3e b861 57be d442 1f3d
00000290: 7ec1 c7bb 0842 a9bc 27e5 d0bd f27e f1bd
000002a0: 9f88 4b3e b583 bfbd c631 183e 79fb 443e
000002b0: ee0c c9bc 996d cd3d 9e22 ca3d 259d 26bd
000002c0: 1890 29be 51bb 89bd 9d72 5d3e 9d71 b33d
000002d0: ed40 7ebb 4418 253e d1f9 f1bd 3513 7cbd
000002e0: b09a 313e 1c84 563e cb6e 0abd ff06 2fbe
000002f0: 33ee c63d 5d88 33be cce5 9e39 1def 4bbc
00000300: 0630 323b 0308 edbd 7b2d 5fbd b5ac 023d
00000310: 41b5 d8bc 84a6 13be 6042 f43c 9885 5bbe
00000320: 38fb c7bd c50c 4b3d a3fe 4a3e dfb5 143d
00000330: cb99 59be 4a18 85bd 46b7 36be 850f c1bd
00000340: 1b41 ad3d f066 2b3d b90a 08be eecf 18bd
00000350: 1e25 603d a1c6 273e 2cde 3b3e 21fb bfbb
00000360: adb0 7cbc fcb0 503e 349b 56be 682e 913d
00000370: abf5 513d b65f dabd 327e 5a3e 532e 0a3e
00000380: 2f7e 02be d4d1 04bc 1526 ffbd f268 a53d
00000390: 32e4 e13d ffb0 093e c375 273e 4f0e 953b
000003a0: b4e1 f23d cb37 883d d70d 5fbd 1b1e b4bd
000003b0: cfbe 143b 5701 5d3d 1204 e23d 905e c3bc
000003c0: e4ed 4d3e 265a 623e 5d3c b53d c09a 073e
000003d0: ca9d a33b c56f 2e3e 18f3 5c3d 230c 3fbe
000003e0: 8e62 cfbd e70d 2dbe e7db 94bd a56e 34be
000003f0: 185f dcbb 7026 9ebd bbec 383d d43b 05bd
-0.18955524 -0.13635361 -0.048224878 0.05720375 0.15737061 0.20171988 -0.21441402 -0.002803714
0.19996099 -0.20862143 -0.19113502 0.18810488 -0.12670146 0.02448484 0.13026503 -0.005104576
0.17667787 0.072123885 0.045248996 0.07584513 0.13059798 0.03535849 0.038307894 -0.012699794
0.011407646 0.03429628 -0.025204964 -0.04189141 0.13608316 -0.005088393 -0.18885903 -0.038506866
0.11511736 -0.17770109 0.21653046 -0.08813227 -0.03946243 0.11384066 0.1411859 0.13947476
0.028886084 0.15264292 -0.027899126 -0.09175044 -0.19587632 0.12566191 0.085459046 -0.022203736
0.025935072 -0.020074222 -0.029571684 -0.062961146 -0.07197526 -0.08717347 -0.085097276 -0.072137594
0.1508858 0.03939716 -0.026257308 0.09906421 0.0005977869 -0.18995573 0.16478221 0.19578817
-0.1869334 0.20236704 0.101394355 -0.1442307 -0.057061937 -0.0236561 0.1389937 0.09805839
0.18859227 0.13566592 -0.13546503 0.17912427 0.04091889 -0.20112184 -0.18658186 0.20402093
-0.117428236 -0.08635868 -0.027910987 0.105832405 -0.17888954 -0.19345258 0.00056585384 -0.17835072
-0.21645454 -0.16507906 0.14387462 -0.09300333 0.21532753 0.083725154 0.1431323 0.18910739
-0.10379027 0.2002026 -0.16253357 -0.07603849 0.13534714 0.20346317 0.14248312 0.17408878
0.09448115 -0.081610344 0.18749116 -0.17919534 -0.16764592 -0.16566873 -0.032324214 -0.2069304
-0.1327096 0.07405196 -0.17792702 0.124443084 0.13552451 0.16429786 0.10526214 -0.21174571
-0.079277374 -0.05695894 -0.040621955 0.1778278 -0.044734314 0.04637561 0.17679237 -0.20617409
0.1580026 0.14847824 0.095195234 0.07849484 -0.10192231 -0.109437555 -0.037111126 -0.074052334
0.11586855 0.026848033 0.017635094 -0.020796359 0.07126853 -0.099056825 0.0015346033 -0.12723507
0.03133937 0.07134795 0.087618925 -0.05127692 -0.13667402 0.20474572 0.009540317 -0.016727304
-0.18302268 0.1615459 0.007030884 -0.06928279 -0.21835834 0.13637727 0.19537154 -0.11762432
0.009492871 0.21827684 -0.2103337 0.03888209 -0.006096064 -0.020661369 -0.10199957 -0.11791791
0.19876336 -0.09351293 0.14862737 0.19236554 -0.024542298 0.1003067 0.09869884 -0.04067721
-0.16558874 -0.06725181 0.21625753 0.087619044 -0.0038796023 0.16122538 -0.11815227 -0.061541755
0.17344165 0.20948833 -0.033797067 -0.17092513 0.09713402 -0.17532487 0.0003030732 -0.012447146
0.0027189269 -0.11573794 -0.054486733 0.031902988 -0.026453616 -0.1441899 0.029816806 -0.2143768
-0.09764713 0.049572725 0.19823699 0.03630626 -0.21250074 -0.064987734 -0.17843351 -0.09426788
0.084596835 0.041846216 -0.1328534 -0.037307672 0.054722898 0.16384365 0.1834647 -0.0058587943
-0.015422982 0.20380014 -0.20957643 0.070889294 0.051259678 -0.10662787 0.21337202 0.13494234
-0.12743448 -0.008106668 -0.124584354 0.08076657 0.11029853 0.13446425 0.16353516 0.004548825
0.11859456 0.06651267 -0.054456558 -0.08794805 0.0022696739 0.053956356 0.110359326 -0.023848802
0.2011028 0.22104701 0.08849404 0.13242626 0.004993175 0.17034824 0.05394277 -0.18656974
-0.1012622 -0.16899835 -0.072685055 -0.17620333 -0.0067252032 -0.07722175 0.04514764 -0.03252776

onnx::Conv_820 f4 [32]
00000000: 0000 0000 0000 0000 0000 0000 0000 0000
00000010: 0000 0000 0000 0000 0000 0000 0000 0000
00000020: 0000 0000 0000 0000 0000 0000 0000 0000
00000030: 0000 0000 0000 0000 0000 0000 0000 0000
00000040: 0000 0000 0000 0000 0000 0000 0000 0000
00000050: 0000 0000 0000 0000 0000 0000 0000 0000
00000060: 0000 0000 0000 0000 0000 0000 0000 0000
00000070: 0000 0000 0000 0000 0000 0000 0000 0000
0.0 0.0 0.0 0.0 0.0 0.0 0.0 0.0
0.0 0.0 0.0 0.0 0.0 0.0 0.0 0.0
0.0 0.0 0.0 0.0 0.0 0.0 0.0 0.0
0.0 0.0 0.0 0.0 0.0 0.0 0.0 0.0

onnx::Conv_822 f4 [32, 11, 1]
00000000: b046 74bd 4fc4 63be fc37 3abe c272 bd3c
00000010: 88d7 173e 3239 3c3d 7afa 053e d6a6 6ebe
00000020: 72a9 0c3e cd5d 0f3e 2a0a 373e b9e0 8abe
00000030: 7721 883e 42a2 ec3d 837b 883e 95bd dfbd
00000040: 2fc5 953e 44fd 673d 08ff 4d3e 3007 2dbe
00000050: f0ed cebd f22d 933e f60e 3d3e df21 17be
00000060: 8d80 043d 020d 55be cc8e b0bd c3ce 773e
00000070: 022c a9bd 116e 4c3e f290 87be 4963 70be
00000080: 0bb7 393e 8387 95be 750c 90be 0a6d 063e
00000090: 4fca 99be e8a5 42be d350 76be 661d 90be
000000a0: b0b4 f3ba 27d9 a23d 6fe5 c4bd 4193 f03c
000000b0: 52cd 80be 39ae 92be 2d99 26be df78 8abe
000000c0: 0c43 01be 1c30 74be 7e7d 97bc a46a 4f3e
000000d0: 4f12 1abe 04d0 363c 84a3 0abe 989c 723e
000000e0: 488a 30be 858f a63d 9b20 d3bc df42 81be
000000f0: cf94 943a 6298 62bd 61c6 a63d 185a edbd
00000100: 3431 5b3e 97e7 b3bd 7554 8a3e 1a00 73be
00000110: 662b 82be 055c c13d 68bf f23d 9863 733e
00000120: 9d77 893e 50c8 ecbd eba5 5ebe 774d 213e
00000130: 063c 623d 1ada 39be bd24 cb3b 5cb6 723e
00000140: c4dc 0cbe 852b 04be 144a 32be 4958 d7bc
00000150: 4967 89bd 4e02 983d 63ea 3abc a21d 25bd
00000160: d1ec 6f3d e9dd 2fbe 1cc6 7fbe 6007 44be
00000170: 217a bf3c 600a 56be 2bbc 80be 0189 263d
00000180: b2bd 0abc 65fc cc3d 34c6 863d 8978 64bd
00000190: f180 b43d 6027 373e bf74 46bc 4167 38be
000001a0: cd0c f7bd 958b 4d3d dd59 fcbc 6353 65be
000001b0: 5af7 59be 0f90 95bd aacf 49be 2bea 66be
000001c0: bf15 8ebe 8c2e 40be 9a05 243d 31d9 0e3e
000001d0: 91c1 2c3e 3de8 4abe e3c7 8dbd 32da 8fbe
000001e0: 2fac 2d3d 8ccf 053e 8d16 60be abdd 883d
000001f0: 5ecf 553e 1a91 8c3e 2ac9 d43c 8f35 adbd
00000200: 2f1a 82be 83ea 35be 9567 2cbe 9177 21be
00000210: 0aff 87be 042e 86be 0588 b2bc 8a96 33be
00000220: 899a 16be 8eeb 00bd d389 6ebe d5b9 3abe
00000230: 03db a8bd d366 26be 8011 5b3e 2c63 2cbe
00000240: c1e8 193e 4574 943e c191 263e c176 4d3e
00000250: ff8a c73c 114e 823e 3dd5 52be 8131 273d
00000260: 5501 fe3d 6257 97be 61b3 a0bd 040e 8c3e
00000270: 4268 3dbc b3be a03d 221b b03d 092b 8a3e
00000280: 883f 923d 3f51 5dbd c14c 413d d04d ffbd
00000290: 55a4 653e ab81 513e 8daf 823d 87d6 46bd
000002a0: bb06 093e 73af 52be 2ed6 793b a693 49bd
000002b0: c5b9 35be b5e2 213e 1260 0c3e faad 54be
000002c0: c14c c0bb 2f03 8a3d 056e 03bd 5977 c6bd
000002d0: d1b6 0ebc e304 eb3c 653c cd3d 6426 93be
000002e0: c398 b93b 9bf2 83be 4962 8f3e c666 0dbe
000002f0: d604 603d 77f0 64be bb7f 8ebd fcdf 24be
00000300: 7c6e 8cbd 4178 bfbc 5e8d bc3d ac23 ab3d
00000310: ee9f 10be caa8 063e 5cdd 74bd 9f42 f73c
00000320: 593b 463e e6e6 d33d 49ec 80be 63e4 40be
00000330: 9e27 8dbe 06ff 793e ccfb 903d 70d2 74bd
00000340: fa0c 98bd faaa 3dbe aae0 8dbe 6c42 06bd
00000350: 758a e3bd 367c 2b3e 3969 a1bd 4b11 85be
00000360: 2bc3 9cbd a822 07be b001 17be 872c 6abd
00000370: 4535 55be 47cd d03d 6f49 0dbe 9c8c c9bd
00000380: b93e 3dbe 33a8 3a3d a7a8 1bbe b136 713c
00000390: 1051 0c3e f9d8 e33d ac3f 9fbc 5682 313e
000003a0: 0928 8e3e 2dcd fdbb 4283 6e3e f67d 82be
000003b0: 785e dc3c 64ec 3bbe 5ab4 5dbe c31b f2bd
000003c0: 90e3 2dbe b1d1 86be 4460 5b3e 3a7d 56bc
000003d0: 2f79 a23d 4743 3bbe b8e9 303e 2d64 ccbc
000003e0: 6a29 2abe 1b9b 4bbe e088 88be 3eb8 913e
000003f0: bbf4 873d f913 093e 7dbe fcbc 42bd 90be
-0.059637725 -0.22242855 -0.18185419 0.02312601 0.14828312 0.045952983 0.1308383 -0.2330583
0.13736513 0.14000626 0.17874971 -0.27124575 0.26588032 0.11554386 0.26656732 -0.10924832
0.29252002 0.056638017 0.20116818 -0.16897273 -0.10103977 0.2874599 0.18462738 -0.14759015
0.032349158 -0.20805743 -0.08620986 0.24199967 -0.08260347 0.19963862 -0.26477772 -0.23475374
0.18136232 -0.2920495 -0.28134504 0.13127533 -0.30037162 -0.190086 -0.2405427 -0.2814743
-0.0018593278 0.07951575 -0.096140735 0.029367091 -0.25156647 -0.28648546 -0.1626937 -0.27045342
-0.12623233 -0.23846477 -0.018492457 0.20255524 -0.15046047 0.011157993 -0.13538939 0.23692548
-0.1724025 0.08132843 -0.025772383 -0.2524633 0.0011335852 -0.055321105 0.081433065 -0.1158945
0.21405488 -0.08784407 0.2701756 -0.23730507 -0.25423735 0.094413795 0.11852914 0.23768461
0.2684907 -0.11561644 -0.2174298 0.15752207 0.055233024 -0.18149605 0.006199448 0.23702377
-0.1375609 -0.12907226 -0.17411071 -0.026287215 -0.06709153 0.074223146 -0.011408421 -0.040311463
0.058575455 -0.17174496 -0.24977916 -0.19143438 0.023373665 -0.20902395 -0.2514356 0.040658
-0.008468078 0.10009078 0.06580773 -0.055779014 0.08813656 0.17886114 -0.012112795 -0.18008138
-0.120629884 0.050181944 -0.030804569 -0.22395091 -0.21285763 -0.073028676 -0.19708124 -0.22550265
-0.27750966 -0.18767756 0.040044405 0.1395004 0.16870715 -0.19815154 -0.06922891 -0.28096157
0.042400535 0.13067454 -0.21883602 0.06682905 0.20879886 0.27454454 0.025974829 -0.08457481
-0.25410601 -0.1776524 -0.16836388 -0.15768267 -0.26561767 -0.26206982 -0.021793375 -0.17537895
-0.14707388 -0.031474642 -0.23294763 -0.18234952 -0.08244898 -0.16250162 0.21393394 -0.16834706
0.15030195 0.28994957 0.16266538 0.20064832 0.02435827 0.25450185 -0.20589156 0.040818695
0.12402598 -0.29558855 -0.07846714 0.27354443 -0.0115605015 0.07848873 0.08598925 0.26985958
0.07141024 -0.05403256 0.04719234 -0.124660134 0.22425969 0.2045962 0.0638114 -0.048544433
0.13381474 -0.20574741 0.0038122046 -0.049213074 -0.17746647 0.15809138 0.13708523 -0.20769492
-0.005868525 0.067388885 -0.032087345 -0.096907325 -0.008710579 0.028688854 0.10021285 -0.28740227
0.0056639626 -0.2577103 0.28004673 -0.13808736 0.054692112 -0.22357355 -0.069579564 -0.16101068
-0.06857011 -0.023372771 0.09206651 0.08356413 -0.14123508 0.13150325 -0.059781417 0.030183135
0.19358577 0.10346775 -0.2518027 -0.18837123 -0.27569288 0.2441369 0.070792764 -0.059771
-0.0742435 -0.18522254 -0.27710468 -0.03277819 -0.11110393 0.16746601 -0.07881398 -0.25989756
-0.07654413 -0.13196814 -0.14746737 -0.05717137 -0.20821102 0.101954035 -0.13797544 -0.09841272
-0.18480958 0.045570564 -0.15201055 0.014722512 0.13702798 0.111253686 -0.01943954 0.17334875
0.2776492 -0.007745406 0.23292258 -0.25486726 0.026900515 -0.18351895 -0.2165083 -0.118217014
-0.1698134 -0.26331857 0.21423441 -0.01309138 0.0793327 -0.18287383 0.17276657 -0.024950111
-0.1661736 -0.19883387 -0.26666927 0.28460878 0.066384755 0.13386525 -0.03085255 -0.28269392

onnx::Conv_823 f4 [32]
00000000: 0000 0000 0000 0000 0000 0000 0000 0000
00000010: 0000 0000 0000 0000 0000 0000 0000 0000
00000020: 0000 0000 0000 0000 0000 0000 0000 0000
00000030: 0000 0000 0000 0000 0000 0000 0000 0000
00000040: 0000 0000 0000 0000 0000 0000 0000 0000
00000050: 0000 0000 0000 0000 0000 0000 0000 0000
00000060: 0000 0000 0000 0000 0000 0000 0000 0000
00000070: 0000 0000 0000 0000 0000 0000 0000 0000
0.0 0.0 0.0 0.0 0.0 0.0 0.0 0.0
0.0 0.0 0.0 0.0 0.0 0.0 0.0 0.0
0.0 0.0 0.0 0.0 0.0 0.0 0.0 0.0
0.0 0.0 0.0 0.0 0.0 0.0 0.0 0.0

onnx::Conv_825 f4 [64, 64, 1, 1]
00000000: d313 15bd 2c30 ca3d b910 f23c 59dd d7bb
00000010: 2be5 f13d ca12 c9bd 3b2b 45bd 18b8 7ebd
00000020: d4ca 053a f27c 8dbc f066 dcbc 6782 513d
00000030: 4152 6fbd 1a93 ec3c 6d31 59bd b9fc a63d
00000040: f29d 3b3c a28f f3bd 25f7 83bd d474 68bd
00000050: abeb 9bbd feff 8cbd 07a9 ae3d 8f56 a83d
00000060: 81c3 a73d 4146 a6bc e351 5d3d a3f1 ea3c
00000070: 7e8a ffbd d9f2 81bd a97e 593d 2a83 183d
00000080: fe8e e83d 0834 063d 63e6 eabc 528a 6cbd
00000090: 20f3 f23c b278 bb3d f47b 11bd 8579 83bc
000000a0: ddd8 943d a408 993d ab81 95bd cc07 f5bd
000000b0: 70cb c2bd 0368 a2bd e87b 73bd 106a c3bc
000000c0: af48 a6bd 8275 b13d f438 873b 6c65 ffbc
000000d0: 2dce bf3d a1ad debd 1769 e53d f6a1 fe3d
000000e0: 0a90 a4bc 1f17 f23d f5fd d6bd 48ff 29bc
000000f0: 57fe ef3d d7a8 963c 1ba3 5fbd f2c6 ecbd
00000100: dc79 a33d 3e28 f43d 2527 33bc 93fa b83d
00000110: da93 553c 2937 a8bd 06b1 843d 4407 373b
00000120: 2103 643d ebbe 95bd 0a97 9ebd 0c17 8cbd
00000130: 407e eebd f5cd 0f3d dc8b 4ebd 008f c93d
00000140: b91a 84bd 0233 bdbd d339 94bd b8b8 c93d
00000150: 06ad 92bd 66a3 b13c 71a8 0f3c 5a26 973d
00000160: 5df0 f03d fb72 d3bc 126e 563d a838 813d
00000170: 3911 713d 3303 6b3b 7281 3c3c 5566 333d
00000180: ab54 bb3c bda4 633d 8e07 633d 2ee1 23bd
00000190: 0a12 0dbd d720 9a3d 537b a1bc 11fc 8d3c
000001a0: 4bd0 383d 1140 cd3d a407 37bc e81d dcbd
000001b0: 5637 6dbd ef1e d93d a168 833d 4fb1 debd
000001c0: 1bda 763d ccfe ffbc 96eb a4bd dc08 ee3d
000001d0: 3dc4 dfbd 7876 733d fb7c cc3d dd17 c63d
000001e0: cb1d f6bd 650e 903d bdf7 fcbc c7f7 e53d
000001f0: b93e 643d 5e8f e03c 5e86 3b3d c486 5c3d
00000200: 3982 df3d 0ca8 febd e332 b9bc 51cd b2bd
00000210: 3fab 8ebd 0443 443d 4c50 1f3d 0c16 1dbb
00000220: d0ff b73d 844b eebd 210c a9bc cea2 9d3d
00000230: b24f eeb9 0fc0 f5bb 83fb 5f3d aeab b63d
00000240: eb72 15bd 7873 c9bd a7f3 f6bc 85a6 333d
00000250: 4cad e03d e21f 3e3c 9d1d cd3b 5b9e c03d
00000260: 0b93 16bd 0f83 963c f5e7 f5bd 0514 643d
00000270: 2da3 fbba 8636 d4bd cf0e f63b f398 533d
00000280: ae90 92bd 490b f0bd d275 ec3b 65c8 a83d
00000290: 0664 813d a6bc a9bd 4314 223d 581a ee3d
000002a0: a66a 8d3d 0b70 0a3d df26 c53b be30 a4bd
000002b0: 6c76 5a3d 8012 fabd 0477 a43d 6fd2 f53d
000002c0: b248 9ebd fb56 53bc ed4f 9abd 7291 8b3c
000002d0: 1c78 b63c dbe0 fbbd 1698 c8bc f0fe d93d
000002e0: 4ec8 8abd 6169 eabd cdef 563d cc60 1f3d
000002f0: 9675 dbbd f463 873d 4b5d 0abd b180 83bd
00000300: 5eb6 49bd 7dc7 59bd cc04 7fbd cdbb 833d
00000310: 3b0f 0abd bf37 15bc f474 e7bb cf0e 6bbd
00000320: 2b97 22bc bc4e f4bd bc24 b63c 0e95 19bd
00000330: d300 09ba 789c bdbd afb3 efbd 719d 71bc
00000340: ba27 3dbd 5efa c9bb 3635 b23c bec9 d4bd
00000350: 8726 a63d e691 24bd b52d 4bbd 3d07 debd
00000360: ad85 71bd fbbb 14bd f2a9 ab3d 2a2b bcbd
00000370: b5ef f6bd 9a4b 233c 926a 873d 3161 d33d
00000380: 21e6 01bd 1cb3 b63c edb6 6f3d cc48 ecbd
00000390: 9eda bd3d be3e d43d 1da9 a0bd 280e 133d
000003a0: 147d 11bd b023 743c a27a d53c 7cbb 4d3b
000003b0: 7442 8bbd beba c73c 0f17 47bd 1fa6 9b3d
000003c0: ee5f 303d 3a8f a43d 94b9 423d ed0e cb3d
000003d0: c471 813d 4b37 d8bd 9a62 3d3d de65 fabc
000003e0: 3235 6d3b c6a4 6d3d ba8e 543a bd6d 703d
000003f0: 2fcc babd 41ab f5bd 855d b23b cab3 a5ba
-0.03639586 0.09872469 0.02954899 -0.006587666 0.118112884 -0.09818037 -0.04813693 -0.062187284
0.0005103771 -0.017271493 -0.026904553 0.051149752 -0.058428053 0.028878737 -0.05302565 0.08153672
0.011451231 -0.1189263 -0.064436235 -0.05675204 -0.076133095 -0.06884764 0.08528333 0.08219635
0.08191586 -0.020297172 0.05403317 0.028679674 -0.12477587 -0.06345148 0.05309931 0.037234463
0.113553986 0.032764465 -0.02867431 -0.0577491 0.029656947 0.0915388 -0.0355186 -0.016049156
0.07267926 0.07472351 -0.07300123 -0.11964378 -0.09511459 -0.07929995 -0.059444338 -0.023854285
-0.08119332 0.08664991 0.0041266624 -0.031176291 0.09365497 -0.10872961 0.11201685 0.12433235
-0.020088214 0.11820816 -0.10497657 -0.010375805 0.11718433 0.018391056 -0.05459891 -0.11561383
0.07982227 0.11921738 -0.010934626 0.09032168 0.013035739 -0.08213646 0.06479077 0.0027927915
0.055667046 -0.07311805 -0.07743652 -0.06840333 -0.11645174 0.035108525 -0.05042635 0.09841728
-0.064504094 -0.092382446 -0.072375916 0.098496854 -0.07161908 0.02168436 0.008768187 0.07380362
0.11764596 -0.025811663 0.052351065 0.063096344 0.058854315 0.0035860061 0.011505472 0.043798763
0.022867521 0.05557703 0.055427127 -0.04000967 -0.03444103 0.07525795 -0.019712126 0.017332109
0.04512052 0.10021985 -0.011171255 -0.10747892 -0.0579141 0.10601603 0.06416441 -0.10873663
0.060266595 -0.031249426 -0.08052747 0.116227835 -0.10926101 0.059439152 0.09984776 0.0967252
-0.12017401 0.070339955 -0.03087985 0.112289004 0.05572388 0.027412113 0.04578244 0.05383946
0.1091351 -0.12434396 -0.022607272 -0.08730567 -0.06966256 0.047915474 0.038894936 -0.002396944
0.08984339 -0.11635497 -0.020635666 0.07697068 -0.00045454275 -0.007499702 0.05468322 0.08919464
-0.036486547 -0.09836477 -0.03014548 0.043859977 0.10970554 0.011604281 0.0062596337 0.09405204
-0.036761325 0.01837304 -0.12007133 0.055683155 -0.001919841 -0.10361962 0.0075090895 0.051659536
-0.07156502 -0.117209025 0.0072161937 0.08241347 0.06317906 -0.08287935 0.039570104 0.116261184
0.06905107 0.03379826 0.0060165967 -0.08017109 0.053335592 -0.1221056 0.08030513 0.12003028
-0.07728709 -0.012899156 -0.07534776 0.017037127 0.02227407 -0.12298747 -0.024486583 0.106443286
-0.06776486 -0.11445881 0.052474786 0.038910672 -0.10715787 0.066108614 -0.033780377 -0.0642103
-0.049246185 -0.053168762 -0.062260434 0.064323045 -0.03370593 -0.009107529 -0.0070635024 -0.05738717
-0.009923737 -0.1192908 0.022234313 -0.037495665 -0.0005226258 -0.0925836 -0.11704194 -0.01474701
-0.046180464 -0.0061638793 0.021753889 -0.10390042 0.08112817 -0.040178202 -0.049604136 -0.10841224
-0.058965374 -0.036312085 0.08382024 -0.091879204 -0.12057439 0.009966755 0.066121235 0.10321272
-0.03171361 0.022302203 0.05852406 -0.115373224 0.092702135 0.103635296 -0.07844756 0.035902172
-0.035519674 0.014901087 0.026059452 0.0031392267 -0.06799784 0.024381038 -0.048605975 0.076000445
0.043060236 0.08035131 0.047540262 0.09914956 0.06320527 -0.10557421 0.046236612 -0.030566152
0.0036195037 0.05801847 0.0008108426 0.058698405 -0.09120976 -0.11995555 0.0054432773 -0.0012642082

onnx::Conv_826 f4 [64]
00000000: 0000 0000 0000 0000 0000 0000 0000 0000
00000010: 0000 0000 0000 0000 0000 0000 0000 0000
00000020: 0000 0000 0000 0000 0000 0000 0000 0000
00000030: 0000 0000 0000 0000 0000 0000 0000 0000
00000040: 0000 0000 0000 0000 0000 0000 0000 0000
00000050: 0000 0000 0000 0000 0000 0000 0000 0000
00000060: 0000 0000 0000 0000 0000 0000 0000 0000
00000070: 0000 0000 0000 0000 0000 0000 0000 0000
00000080: 0000 0000 0000 0000 0000 0000 0000 0000
00000090: 0000 0000 0000 0000 0000 0000 0000 0000
000000a0: 0000 0000 0000 0000 0000 0000 0000 0000
000000b0: 0000 0000 0000 0000 0000 0000 0000 0000
000000c0: 0000 0000 0000 0000 0000 0000 0000 0000
000000d0: 0000 0000 0000 0000 0000 0000 0000 0000
000000e0: 0000 0000 0000 0000 0000 0000 0000 0000
000000f0: 0000 0000 0000 0000 0000 0000 0000 0000
0.0 0.0 0.0 0.0 0.0 0.0 0.0 0.0
0.0 0.0 0.0 0.0 0.0 0.0 0.0 0.0
0.0 0.0 0.0 0.0 0.0 0.0 0.0 0.0
0.0 0.0 0.0 0.0 0.0 0.0 0.0 0.0
0.0 0.0 0.0 0.0 0.0 0.0 0.0 0.0
0.0 0.0 0.0 0.0 0.0 0.0 0.0 0.0
0.0 0.0 0.0 0.0 0.0 0.0 0.0 0.0
0.0 0.0 0.0 0.0 0.0 0.0 0.0 0.0

onnx::Conv_828 f4 [64, 64, 1, 1]
00000000: 3c0f e93c 8b25 a13c a8ec c8bd 7ac2 cf3d
00000010: 3a41 17bd 6134 0ebc 5c34 c23d ae97 4abd
00000020: 4663 b0bb 3581 ccbd b62a b2bd 4498 363d
00000030: 671f d73d 413f 843d 043b 66bd 65b4 9cbd
00000040: 3c2a a53d 2162 d73c 51c4 88bd 137d b4bd
00000050: adba fd3c 51db efbc ba09 26bc afd8 763a
00000060: d9d2 93bd 00ae dabc 14df bb3d d6a2 f8bc
00000070: 1689 af3d b9dd 9bbd 573e 783d 8016 dbbd
00000080: faf0 afbd 0a19 b6bd 4048 a33d 494f 9cbd
00000090: dfae c43b 4267 bdbd a3fa ba3d 21c5 e43d
000000a0: ad9e fbba a2e3 8c3c 014b a6bd b15c 8fbb
000000b0: 4102 833d 21ed 57bd 81d3 adbd 5671 a53d
000000c0: c46f 92bd ff7e acbd 8449 a93d 8dc1 82bc
000000d0: 97cb 39bd 7648 8cbd 8c71 b5bd ad0d 963d
000000e0: c8f0 bd3d 2c68 cebd 3c57 13bd 5253 173d
000000f0: 1caa e73d 1e00 31bd 9063 ab3c d8ea 903c
00000100: 1b76 e3bd ce95 d53d 6a0e b63d ea13 61bd
00000110: b6c3 e63d 523d 31bd 9cff 04bd 927c bb3c
00000120: 3839 b2bd 9e3e 6d3d 8dbc ac3d f3b4 07bc
00000130: 4946 d93d 253c 4d3d 861b dbbd 7d4c bfbd
00000140: 6dfd 643d a33e debd 0bd4 3abd 3f4f d33d
00000150: b6f7 80bb b726 2fbd 90c1 b7bd 1378 ae3d
00000160: 2585 fdbd df15 c63b 34e0 85bc 2cd1 68bd
00000170: f47d e23d da6d 9ebd 9770 c6bd dc07 fa3d
00000180: 845b ce3d b301 46bd 81ed a8bc d0cd d43d
00000190: 3c7c febc 06c9 9e3d 28e6 a43d aceb c3bd
000001a0: 7d8b a13d af2b a23d 2444 e0bd b24c 3d3d
000001b0: a652 cabd d7bd f13d ecab 993d da9a aabd
000001c0: cd71 59bd 2ece c73d 3d06 583d f440 37bc
000001d0: a220 bebd 1806 91bc 3e57 d4bd b26f 0b3c
000001e0: 6618 b13b 7f69 963d d982 ae3d 3279 91bd
000001f0: ee25 b6bd b4cc 353d dbcc 513c af05 78ba
00000200: ef9f fc3d 180b 923d d980 aebd 2f80 d73d
00000210: a196 71bc 49c4 a63c c6a2 2f3c 1175 71bd
00000220: c28e bb3b 5e9f 993d a20f 793d ffc5 2d3d
00000230: a474 8cbd da87 b0bd fbe4 d03c aee2 9e3d
00000240: e60d 013d b64c e7bd fcd7 dabd ad58 713d
00000250: 8c08 1fbd 53d5 d1bc 2bea 2d3d 0911 a1bd
00000260: 471b 95bc 31b0 bebc bdf7 813c be46 793d
00000270: 76a7 9dbd 6b9c 5dbd 4284 a43d ff2c f83c
00000280: e7b8 e9bd 8a07 493d 3b43 5d3d 3c18 f3bd
00000290: 48be e83d ccaf 1dbc 9922 293d ac95 36bd
000002a0: 40b0 febd bab5 d5bd 854a febc d5f2 e4bb
000002b0: 58a8 c1bc 2224 81bd 292b a7bc 0d99 7b3d
000002c0: 9d93 fdbd ff4f 5f3d 6bbd 073d 6b58 883c
000002d0: a1bb 953d 25f0 33bc 9b85 efbd f648 c23d
000002e0: 9b8e ba3c 0677 81bc 7a6d 78bd ecd6 103d
000002f0: 233b bb3c f84c fbbd 5196 cc3d c28f 493d
00000300: fa2c d6bc ce48 48bc f14e b93d 3d26 e43d
00000310: 9d77 7b3c 5c6c c83d dacb b53d 2812 973d
00000320: 8a60 b73d b48c 11bd 2e67 d0bd d280 8b3d
00000330: 8b9f a7bd 98aa 8d3d bd39 83bd 0c3b 37bd
00000340: 1425 42bd 70a9 5bbd c34b efbd ca2d 323d
00000350: 8b2d 5dbd 7ca6 4ebd cca1 8d3d ee41 fbbd
00000360: 3909 f1bc 5876 973d 539e 3a3c 251e debd
00000370: ee56 db3d 0628 813c 6e15 e1bd 27e2 efbd
00000380: efd5 f63d 7192 1abd 43fb f63d 54c4 983d
00000390: 8566 89bd 364a dabd 3d10 1b3c b93c 9a3d
000003a0: 5847 a93d a792 6b3d 34e2 a93d 3c61 f3bd
000003b0: 9c9c b7bd 2f0b 23bd 3184 ef3a 2848 a9bd
000003c0: 645e bebd b39b d3bd 9ae2 903d 8c20 acbd
000003d0: aff9 75ba f72e 093d 3cae 4fbc d9fd 0d3d
000003e0: 6b62 69bd 2873 bb3d 6d88 0ebd ae6b d4bd
000003f0: 163c bdbd 7b0b 163d 2846 5cbc 8cf4 ab3d
0.028449647 0.019671222 -0.098107636 0.10144515 -0.03692744 -0.00867948 0.09482643 -0.04946106
-0.005382928 -0.09985582 -0.08699553 0.044578806 0.105040364 0.06457377 -0.056208625 -0.07651595
0.08064696 0.026291909 -0.066780694 -0.088129185 0.030972803 -0.029279383 -0.010134155 0.00094164436
-0.072179504 -0.026694298 0.09173408 -0.030351084 0.08571069 -0.076106496 0.060606327 -0.10697651
-0.085908845 -0.088914946 0.07972765 -0.0763231 0.0060022916 -0.092482105 0.091298364 0.11170412
-0.0019197069 0.017198388 -0.081197746 -0.0043750633 0.06396914 -0.052716378 -0.08487607 0.08078258
-0.07150224 -0.0842266 0.08265975 -0.015961433 -0.045360174 -0.06849758 -0.08859548 0.07326827
0.09274441 -0.10078463 -0.035971865 0.036944695 0.11311743 -0.043213002 0.020921499 0.017690107
-0.11106511 0.104289636 0.08889468 -0.054950632 0.11267798 -0.04327137 -0.03247033 0.022886548
-0.0870232 0.057921045 0.08434401 -0.008282888 0.10609109 0.050106186 -0.10698609 -0.09340761
0.05590575 -0.10851791 -0.045612376 0.10317849 -0.0039357794 -0.04276153 -0.08972466 0.08518996
-0.12378911 0.0060450877 -0.01634226 -0.056840107 0.1105918 -0.07735796 -0.096894436 0.1220853
0.10076049 -0.048341464 -0.020621063 0.10390818 -0.031065099 0.07753186 0.08051711 -0.09566435
0.078879334 0.07918488 -0.10950497 0.04621572 -0.09879045 0.11803787 0.075034946 -0.08330317
-0.053087045 0.097561225 0.052740324 -0.01118492 -0.09283568 -0.017703101 -0.103682026 0.008510517
0.00540452 0.073443405 0.08521051 -0.07103194 -0.08893953 0.044384673 0.012805189 -0.0009461296
0.123351924 0.07131022 -0.085206695 0.10522496 -0.014745385 0.020357268 0.010719961 -0.058949534
0.005723805 0.075011 0.060805924 0.042425152 -0.06858185 -0.08619662 0.025499811 0.077580795
0.031507395 -0.11293928 -0.10685727 0.05892246 -0.03882651 -0.025614416 0.042459648 -0.07864577
-0.018201483 -0.023277374 0.015865201 0.06085848 -0.07697956 -0.05410425 0.08033039 0.030294893
-0.114122204 0.049079455 0.054019194 -0.11869857 0.11364418 -0.009624433 0.04129276 -0.044576332
-0.12435961 -0.10435052 -0.031041393 -0.0069869556 -0.023639843 -0.0630572 -0.020406323 0.061425257
-0.123816706 0.05451965 0.033139627 0.016643723 0.07311178 -0.010982548 -0.11695405 0.094865724
0.022773078 -0.015803825 -0.06065128 0.035361215 0.022855347 -0.1227054 0.09989608 0.049209364
-0.026144493 -0.012224389 0.0904826 0.11140106 0.015348342 0.09786293 0.08876772 0.0737651
0.0895396 -0.035534576 -0.1017593 0.0681168 -0.08184727 0.06917304 -0.06407497 -0.044734046
-0.04739864 -0.053628385 -0.11684372 0.0435007 -0.05399851 -0.05045174 0.06915626 -0.122684345
-0.029423343 0.07395619 0.0113902865 -0.10845593 0.1070994 0.015766155 -0.109904155 -0.11713057
0.12052523 -0.037737314 0.12059643 0.074593216 -0.06709007 -0.10658686 0.009464321 0.07531113
0.08265561 0.057512905 0.08295098 -0.1188378 -0.08965418 -0.039805587 0.0018273649 -0.08265716
-0.09295347 -0.10332432 0.07074471 -0.08404645 -0.0009383214 0.033492055 -0.012675818 0.034665916
-0.056978624 0.09152824 -0.034798075 -0.10372101 -0.09239976 0.036632042 -0.013444461 0.08396253

onnx::Conv_829 f4 [64]
00000000: 0000 0000 0000 0000 0000 0000 0000 0000
00000010: 0000 0000 0000 0000 0000 0000 0000 0000
00000020: 0000 0000 0000 0000 0000 0000 0000 0000
00000030: 0000 0000 0000 0000 0000 0000 0000 0000
00000040: 0000 0000 0000 0000 0000 0000 0000 0000
00000050: 0000 0000 0000 0000 0000 0000 0000 0000
00000060: 0000 0000 0000 0000 0000 0000 0000 0000
00000070: 0000 0000 0000 0000 0000 0000 0000 0000
00000080: 0000 0000 0000 0000 0000 0000 0000 0000
00000090: 0000 0000 0000 0000 0000 0000 0000 0000
000000a0: 0000 0000 0000 0000 0000 0000 0000 0000
000000b0: 0000 0000 0000 0000 0000 0000 0000 0000
000000c0: 0000 0000 0000 0000 0000 0000 0000 0000
000000d0: 0000 0000 0000 0000 0000 0000 0000 0000
000000e0: 0000 0000 0000 0000 0000 0000 0000 0000
000000f0: 0000 0000 0000 0000 0000 0000 0000 0000
0.0 0.0 0.0 0.0 0.0 0.0 0.0 0.0
0.0 0.0 0.0 0.0 0.0 0.0 0.0 0.0
0.0 0.0 0.0 0.0 0.0 0.0 0.0 0.0
0.0 0.0 0.0 0.0 0.0 0.0 0.0 0.0
0.0 0.0 0.0 0.0 0.0 0.0 0.0 0.0
0.0 0.0 0.0 0.0 0.0 0.0 0.0 0.0
0.0 0.0 0.0 0.0 0.0 0.0 0.0 0.0
0.0 0.0 0.0 0.0 0.0 0.0 0.0 0.0
